examples/Evolutionary-Reinforcement-Learning/simple_no_pool/Models/1_actor_299.8.pt (torch, 27911 bytes, 6 tensors)

actor1.0.weight f4 [64, 28]
000000 8a cc bf be c9 73 aa bf 57 80 9c be 94 3d 69 40
       -0.37460738 -1.3316585 -0.30566666 3.6443834
000010 93 3f 8e bf 28 fc 90 3e 0a 1f 98 c0 b1 2b 80 bf
       -1.1113151 0.2831738 -4.753789 -1.0013334
000020 44 61 c3 bf dc 1a be bd 45 79 0b 40 d0 e5 03 c0
       -1.5264058 -0.09282467 2.1792767 -2.0609016
000030 cd d1 34 be d8 e9 f5 3e 40 d4 07 3f dc 87 3d 41
       -0.17658158 0.4802997 0.5305824 11.845669
000040 e7 38 cb 41 1c c9 e9 be 50 21 3a bf 01 7e 3d 3e
       25.402784 -0.45661247 -0.7270708 0.18505098
000050 78 65 20 c0 a0 00 9c c0 5d 51 90 40 10 03 20 41
       -2.5061932 -4.8750763 4.509932 10.000748
000060 e8 87 cb be e6 e7 0a c2 df ff ca 3e c6 0c 7b c0
       -0.39752126 -34.726463 0.3964834 -3.9226546
000070 ce 21 8f 40 68 ee 88 c0 27 f6 80 c1 51 92 9d 41
       4.4728765 -4.2791023 -16.120192 19.696444
000080 2c a0 7c 3f 47 91 02 be 78 43 12 40 44 6c 6a 3d
       0.986819 -0.12750731 2.285368 0.057232156
000090 b8 1a 62 40 8c c6 12 be 38 c4 8c 3f 23 41 22 3f
       3.5328808 -0.14333552 1.0997381 0.6338064
0000a0 54 37 86 3e 00 67 4a 40 30 46 bc 3e 7a 9f 51 3f
       0.26214087 3.1625366 0.367723 0.81883967
0000b0 21 a8 87 bd 28 39 9c be f4 49 84 3f dd 40 f9 3f
       -0.06623865 -0.30512357 1.0335069 1.947292
0000c0 32 5c 00 40 7e f1 d3 bf f0 91 07 c0 18 d9 b8 bf
       2.0056272 -1.6558073 -2.1182823 -1.4441252
0000d0 e4 82 83 bf 1a ea 24 40 f7 fa dc bf 50 a9 e8 bf
       -1.027432 2.5767884 -1.7264088 -1.817667
0000e0 70 93 72 3f 76 b8 3e 40 74 d1 16 be 12 42 0f 3f
       0.9475622 2.9800086 -0.14728338 0.5596019
0000f0 55 2e b5 c0 de 0b 41 c0 3d 0f 7d bf 6a 00 81 40
       -5.661906 -3.0163493 -0.98851377 4.0313005
000100 3f d8 5c bf f7 50 14 bf 95 2c e3 bf ec 57 83 3f
       -0.86267465 -0.5793604 -1.774798 1.0261207
000110 26 45 3f c0 40 fb cb 3e 78 46 bf bd 94 58 3d 41
       -2.9885955 0.39840126 -0.09339613 11.8341255
000120 6a 90 f8 bd 7e 02 21 40 ac 2f fb 40 1a 2e 96 c0
       -0.1213692 2.515777 7.8495693 -4.6931276
000130 2c 12 92 bf 0d 61 25 be 52 46 db bf 7d bd 13 be
       -1.1411796 -0.16150303 -1.7130835 -0.14427753
000140 b0 2c d2 3f 51 36 85 bf 40 f6 52 bc f5 c6 3b 40
       1.6419888 -1.0407201 -0.012876093 2.9340184
000150 60 25 8f 40 fe 8d ff bf fe ad 59 c0 c0 5d ac 3d
       4.4733124 -1.9965208 -3.4012446 0.08416319
000160 94 55 d2 3d 2f 8e 54 3f 50 d5 af 3e ca 63 79 3f
       0.10270229 0.83029455 0.34342432 0.9741789
000170 e4 6c b0 3f c5 99 24 3f 20 c3 8a 3f f8 47 0b bf
       1.3783231 0.64297134 1.0840797 -0.5440669
000180 64 4b da be 28 6f f0 bd 6c f5 b4 c0 b7 3e 59 3f
       -0.42635643 -0.11739951 -5.6549587 0.8486132
000190 84 18 c9 3e 32 31 df bd 4e e1 6f 40 10 03 10 bf
       0.39276516 -0.10898055 3.7481265 -0.56254673
0001a0 43 c7 a4 be d0 e3 44 bf e1 7c 94 c0 14 c3 93 3f
       -0.32183275 -0.76910114 -4.640244 1.1543908
0001b0 98 27 39 bf a0 ce 0a c0 00 30 4f be a4 a2 6d c1
       -0.7232604 -2.1688614 -0.20233154 -14.852207
0001c0 a0 2c 2b 3c 1e c5 40 bf c3 9a 25 c1 5f 4c 0c 40
       0.010447651 -0.75300777 -10.350284 2.1921613
0001d0 92 bb 23 bf 17 90 a4 be 5c 19 10 c0 40 b3 13 be
       -0.63958085 -0.32141182 -2.2515478 -0.14423847
0001e0 61 d0 01 bf 0c 4c 6d 3e fe e9 90 40 30 aa 60 40
       -0.50708586 0.23173541 4.5285635 3.5103874
0001f0 f0 bb b1 be 8e dd 60 c1 14 c4 f2 c0 89 6b d9 bf
       -0.34713697 -14.0540905 -7.5864353 -1.6985942
000200 67 e2 63 c0 ff 74 25 c1 69 64 0b bf 98 39 30 bf
       -3.5606935 -10.3410635 -0.5445009 -0.6883788
000210 3e 1d 13 3f 14 06 45 be a5 63 3b c0 3c fc 83 bd
       0.57466495 -0.192406 -2.9279568 -0.06444594
000220 97 63 08 3f 90 40 0b 3f 50 ee 94 be ae db 30 3f
       0.5327696 0.5439539 -0.29088068 0.69085205
000230 9e 51 c0 bf b3 a8 7f 40 f8 2b da 3f e4 57 a1 40
       -1.5024908 3.9946716 1.7044668 5.041979
000240 52 28 17 bf fa 27 55 42 10 b7 dc 3d b0 97 62 3f
       -0.590459 53.28904 0.10777104 0.88512707
000250 f6 75 73 3f 6c 6b f7 be d1 7d 48 bf 04 3d 28 c0
       0.9510187 -0.48324144 -0.7831698 -2.628724
000260 59 9c 33 3e fe d6 9a 3f b5 38 ab 3e 7b fb 02 40
       0.1754011 1.209686 0.33441702 2.0465991
000270 4b c1 fe 40 c2 a0 52 3f 85 30 f8 40 98 eb 3f c0
       7.9610953 0.82276547 7.755923 -2.9987545
000280 b9 7b 4d 40 7e 84 1a 41 66 fb 36 3f 60 34 e2 bc
       3.2106764 9.657347 0.71477354 -0.027612865
000290 43 15 87 c1 10 66 d0 3d 4f 9b 95 be b8 71 d3 bd
       -16.885382 0.10175717 -0.29220054 -0.103244245
0002a0 f7 ab 5b 43 98 d8 e8 bf 38 a0 f1 bf ae ff 87 be
       219.67174 -1.8191099 -1.887702 -0.26562256
0002b0 74 b3 a5 bf 12 43 17 c0 98 d3 14 be 48 d2 94 bf
       -1.294539 -2.3634686 -0.14533842 -1.1626673
0002c0 7c 6c d2 40 7f db 83 c1 ce 56 86 3f a6 09 15 bf
       6.5757427 -16.482176 1.0495241 -0.5821785
0002d0 d8 a0 71 3e 9e f3 89 40 c0 56 b4 c0 cc 3f 3c c0
       0.23596513 4.3109884 -5.6355896 -2.9413939
0002e0 78 de 3a bd c6 86 7c bf a2 d9 29 3e d2 f6 22 42
       -0.04562232 -0.9864315 0.16586927 40.741035
0002f0 5a 81 1c bf 22 31 0c 3e 07 54 d7 3f 2a 1a c4 3d
       -0.61134875 0.13690618 1.6822518 0.09575303
000300 d7 38 11 c1 62 97 b2 be ec 37 bb c0 96 cf 72 bf
       -9.076377 -0.3488112 -5.8505764 -0.94848
000310 bf c5 04 40 3b b0 6b 3f b6 a7 b0 41 a0 93 ff be
       2.0745695 0.9206578 22.08189 -0.49917316
000320 02 1c bf 40 5f e8 da 40 2e 8d 9e bf b2 8b c0 3f
       5.972169 6.8408656 -1.2386835 1.5042632
000330 b4 99 1d 40 08 73 b0 3e 4c 64 00 c1 86 5a 29 40
       2.4625063 0.34462762 -8.024487 2.64615
000340 6e 3a 15 40 e0 ae d1 bd 9a 2f 48 40 d4 f8 81 c0
       2.3316913 -0.10238433 3.1279054 -4.0616245
000350 ec 17 99 be 87 a9 1f 40 3a 24 86 bf 9d b8 87 bf
       -0.29901063 2.4947221 -1.0479805 -1.0603215
000360 93 61 45 bf 22 c3 8a 40 d9 44 53 40 e0 64 63 41
       -0.7710201 4.33632 3.3010771 14.212128
000370 ce 0b c5 3f 9c 81 15 42 c7 73 40 c1 34 92 24 c0
       1.5394228 37.37657 -12.028266 -2.5714235
000380 1d ef ac 3e 5d 07 c2 bf 38 2e ff be 9e 66 33 3f
       0.3377618 -1.5158497 -0.4983995 0.70078456
000390 1b 11 0b bf 6c a6 97 3d 62 33 02 40 80 d6 96 3b
       -0.54322976 0.07404789 2.0343862 0.004603207
0003a0 4c 91 8a c0 a7 d5 4d 3e 78 ee 53 3f 08 d8 36 bf
       -4.3302364 0.20101033 0.8278575 -0.7142339
0003b0 d4 15 1a 40 7d d5 37 40 2a aa 85 3f ca 8c c3 3e
       2.4075823 2.8724053 1.0442555 0.3819335
0003c0 20 e5 79 bf d4 a4 f0 bf f7 5d 64 bf 8f c6 71 c0
       -0.9761524 -1.8800302 -0.8920588 -3.777744
0003d0 5b 11 6a 3f 35 38 72 c0 19 95 8b c1 d5 fc b9 40
       0.9143273 -3.7846806 -17.447802 5.8121133
0003e0 74 d6 f9 be 94 e6 5d 3f 5e ac 85 bf 40 f3 6d be
       -0.48796427 0.8667996 -1.0443227 -0.23237324
0003f0 76 b9 c6 be 1b 9c 11 3f 9c 20 1a 3e 86 dc 0b 40
       -0.3881337 0.56878823 0.15051502 2.1853347

actor1.0.bias f4 [64]
000000 5c 12 a9 be f8 0c 17 40 82 0c f3 3e 04 2d d9 c0
       -0.3302182 2.3601665 0.4747048 -6.786745
000010 1c 54 88 c0 f8 dd e9 bf 5c fc d9 be 58 5c 81 3e
       -4.2602673 -1.8270864 -0.42575347 0.25265765
000020 ad 2d d3 c1 8a 9c 35 3f c0 55 3a c0 e5 65 f4 bf
       -26.397303 0.70941985 -2.9114838 -1.9093596
000030 6c 28 0c c0 2c 53 3b 3d 8f 42 b3 3e 30 5f 63 3f
       -2.1899672 0.045733616 0.35011718 0.8881712
000040 a4 da 77 40 c8 28 b2 3e 98 94 0e c0 dc fc 2d 3f
       3.8727198 0.3479674 -2.2278194 0.6796396
000050 4d e2 38 bf 24 92 89 c0 12 d9 26 3f c0 3a 89 bc
       -0.7222031 -4.2990894 0.65174973 -0.016751647
000060 7c 21 53 be b4 46 94 be 37 32 20 be ed 76 61 40
       -0.20618242 -0.28960192 -0.15644155 3.5228837
000070 7f 35 0c 3f ca 4a 29 3f af 18 c7 3f 88 38 80 bf
       0.5476913 0.66129744 1.5554408 -1.0017252
000080 02 32 ac 3f 98 e3 36 3f d6 03 b5 3f a8 11 b3 be
       1.3452761 0.7144103 1.4141796 -0.34974408
000090 66 17 05 40 fa 30 1f 3e 23 63 8f be 10 28 c6 3e
       2.0795531 0.15546027 -0.28005323 0.3870244
0000a0 50 86 82 3f ad b3 90 3e bc 8f 9f bf da ce 27 bf
       1.0197239 0.28262082 -1.2465739 -0.65550005
0000b0 d0 a8 92 bd 70 24 8e 3c ea 7e 04 c0 1c 55 f5 c0
       -0.07161105 0.01735136 -2.0702462 -7.6666393
0000c0 52 c6 cc bf 10 17 b9 bc 16 87 d5 3e 4e a1 ac 3f
       -1.5998023 -0.022594005 0.41704625 1.3486726
0000d0 46 c1 ae 40 e0 92 89 bf d7 6b 1c c1 4f 70 a8 40
       5.461093 -1.0747948 -9.776328 5.2637095
0000e0 2a b2 e8 41 e0 27 30 3f 48 65 f2 be da 7a ed bd
       29.086994 0.68810844 -0.47342896 -0.11595698
0000f0 2e 31 1f c0 64 2f a1 c0 d8 4f 1a c1 9e 80 30 bf
       -2.4873767 -5.037035 -9.644493 -0.68946254

actor1.2.weight f4 [64, 64]
000000 ae a8 4e c0 6e dc 80 3e 26 ca 32 c1 ea 9d 80 be
       -3.2290454 0.25168175 -11.174353 -0.2512048
000010 9a dd fc 3e c3 61 3d 3e ce 57 f7 bf 0c 1a 1b c0
       0.4938782 0.18494324 -1.9323671 -2.4234648
000020 fb 14 92 3f 6b e8 9b bf a0 0a 88 3c 02 96 f4 3e
       1.1412653 -1.2180303 0.016606629 0.47770697
000030 20 99 0a c0 ee 8d 47 3f df 25 9b 3e 7c b1 62 c1
       -2.165596 0.7795094 0.3030233 -14.168331
000040 75 2a 86 bf 5e 9e 92 3f d0 e0 c5 3e 96 6c af 3e
       -1.0481707 1.145458 0.3864808 0.34262532
000050 14 3a 66 c0 3a ef 49 3f 1e 53 86 41 c6 53 87 bf
       -3.5972948 0.78880656 16.790585 -1.0572441
000060 97 b1 cf bd 4e 76 b6 3f c4 bf 8c 40 90 a7 8e 3d
       -0.101412944 1.4254854 4.398409 0.06965554
000070 dc 7c 63 3e 53 bf ca c0 f5 9f 8a 3d 02 a9 8d 3e
       0.22215599 -6.335855 0.06768791 0.27668005
000080 b7 1f d5 3e d4 03 af bd b0 2b 33 40 e0 8a f1 3f
       0.4162576 -0.08545652 2.7995415 1.8870506
000090 48 77 c8 c0 e9 24 04 41 92 34 71 42 08 22 e4 3e
       -6.2645607 8.259011 60.30134 0.44557214
0000a0 75 86 e0 c1 7f a7 5c bf 20 84 bf 3e ce 7e a3 bf
       -28.065653 -0.8619308 0.3740549 -1.2773073
0000b0 e4 47 dc bf 2a 14 7e 40 74 ad 03 c2 25 10 48 bf
       -1.7209439 3.9699807 -32.919388 -0.78149635
0000c0 61 03 ba bd 90 69 56 bf 14 8c ab bf 8e 25 70 be
       -0.09082676 -0.83754826 -1.3402123 -0.23451826
0000d0 b0 c2 5f 3e 87 5a 71 3f d6 8d 03 c1 ba 2f 4d 3f
       0.21851611 0.9427876 -8.222128 0.8015095
0000e0 50 2d 8f bc 22 95 7d 41 1e 11 22 c0 5c 29 71 3f
       -0.017477661 15.848909 -2.5322948 0.94203734
0000f0 68 9e 64 bf 9c f8 48 bf 12 3a 9d 3f 34 d3 dd 3f
       -0.8930421 -0.7850435 1.2283347 1.7330079
000100 80 0d 91 bc 60 3e bb bf 52 19 b9 bf 50 6e 88 3e
       -0.017706633 -1.462841 -1.4460852 0.26646662
000110 d1 90 20 40 da 42 96 41 80 bd 69 3f 70 e0 15 3e
       2.508839 18.782642 0.9130478 0.14636397
000120 70 9d e3 3e 1f 93 27 c0 95 a1 9d 3f c8 fb 04 40
       0.44456053 -2.6183546 1.2314936 2.0778675
000130 bc c7 54 42 78 76 13 3f 10 a0 ab c0 14 c6 28 3f
       53.195053 0.57602644 -5.363289 0.65927243
000140 46 3a 4d 41 b2 76 fc bd c1 40 88 3f 84 c1 6d 3f
       12.826727 -0.12327327 1.0644761 0.92873406
000150 b0 ad fb 40 e0 27 8e bf 5e 2d c5 3e 90 c7 7e c0
       7.864952 -1.1105919 0.38511175 -3.9809303
000160 3b 65 b2 bf 58 50 be c2 46 8e 2c c2 df a0 85 3f
       -1.3937143 -95.15692 -43.13894 1.0439719
000170 7c a7 05 be 4a dd ea bf 5a 49 3c be 34 b5 31 41
       -0.13052171 -1.8348782 -0.18387356 11.106739
000180 0c 0c 63 be 95 88 b2 bf b8 e3 be be e8 94 96 3d
       -0.22172564 -1.3947932 -0.3728311 0.0735262
000190 f9 29 1b c0 90 a3 fc bf 12 4d 8c c0 14 cf 9c c3
       -2.4244368 -1.9737415 -4.384408 -313.6178
0001a0 92 1c e8 be bb 13 19 c0 4d 39 2b 40 54 e8 1a 3f
       -0.45334297 -2.3918293 2.6753724 0.60510755
0001b0 30 e9 df bf 72 95 e4 3f e8 f8 2a c1 32 f5 5a c1
       -1.7493038 1.7858107 -10.685768 -13.684862
0001c0 66 8d 35 c1 ab 21 56 3e 65 71 09 3e 00 e6 da 3d
       -11.347021 0.20911281 0.13422163 0.106884
0001d0 b8 13 09 40 4e 90 a0 40 6c b7 87 c0 1a da 3e 40
       2.1418285 5.0176153 -4.2411404 2.9820619
0001e0 3b a8 8e 3f 3c 6c 0c 40 e2 49 98 40 b1 ed d2 41
       1.114509 2.194106 4.759019 26.36606
0001f0 3a 7b 14 c0 e6 b8 f9 c0 6a 6d 47 3f 8f b0 1b c2
       -2.3200212 -7.8038206 0.7790133 -38.92242
000200 5a 68 05 3f 11 5f a2 c0 c6 f9 5b 3e c0 5a 37 40
       0.5211235 -5.074105 0.21482 2.864914
000210 f4 c4 80 c0 12 f1 83 c0 48 ab b1 3e ee 61 08 3f
       -4.024042 -4.1231775 0.3470099 0.5327443
000220 2b 1f 59 bf 1d 54 86 be c5 70 12 bf 50 36 d7 3e
       -0.84813184 -0.26236048 -0.5720332 0.42033625
000230 58 46 f8 bf e2 12 ac 3e 65 cf 56 bf c4 8a 4f bf
       -1.9396467 0.33608156 -0.8391021 -0.81071115
000240 9a 94 18 c0 aa 87 8c 40 e3 44 3b 40 91 bb 21 40
       -2.38407 4.3915606 2.9260795 2.5270731
000250 3d 52 88 bf 70 59 0e bf fe 65 cd c0 ed 6b 92 c0
       -1.0650097 -0.5560522 -6.4187 -4.5756745
000260 8c bc 08 3e 25 da 16 c1 c6 12 f0 bf 62 92 fb bf
       0.13353175 -9.428258 -1.8755729 -1.9654047
000270 9b 9d b2 c0 67 c0 a0 be 40 c6 1f 3f c1 1b 0b c0
       -5.581739 -0.3139679 0.6241188 -2.173569
000280 ac ba dc be 82 c6 08 bf c4 7f 55 3d ba 6b 95 3f
       -0.4311117 -0.534279 0.0521238 1.16735
000290 69 9b 52 bf f5 df a7 bf 10 bd 72 40 58 f6 f3 bf
       -0.8226839 -1.3115221 3.7927895 -1.9059553
0002a0 dc 95 a3 3f de 62 aa c0 ce 12 72 40 44 25 49 40
       1.2780108 -5.3245687 3.7823977 3.1428995
0002b0 78 66 25 3e e0 a0 32 3f 85 93 5c 3f 94 45 df 40
       0.1615237 0.69776726 0.86162597 6.9772434
0002c0 a6 fb 85 be 85 4d 7f 3f 86 97 44 c0 83 04 0a c0
       -0.26168555 0.9972766 -3.0717483 -2.1565254
0002d0 d4 13 cb 3f 84 c5 ee 3f 7f 4a 03 c0 70 55 4b 3e
       1.5865426 1.8654027 -2.0514219 0.1985681
0002e0 c4 31 7a 40 aa d9 e4 be 02 9b 0d 41 97 4e 38 bd
       3.9092875 -0.44697315 8.850344 -0.044996824
0002f0 92 cd 2e 42 4f 5d 45 c1 6e 86 34 3f 8c c4 13 c1
       43.700752 -12.33528 0.70517623 -9.235485
000300 84 f4 d1 41 bd 87 16 3f da 9c 85 3e 29 82 91 bf
       26.244392 0.5880087 0.2609623 -1.1367847
000310 91 5b 3f 3f 80 9b 82 40 50 4a 59 41 2e c5 cc be
       0.74749094 4.081482 13.580643 -0.39994186
000320 b4 8f 37 bf 9b 4e a4 be d3 d5 b5 3d 61 a1 76 bf
       -0.7170365 -0.3209122 0.08878674 -0.96339995
000330 63 06 ba be b6 16 0a 3f fc df 0a bd de 0a 96 c0
       -0.36332998 0.53940904 -0.033905014 -4.6888266
000340 66 6c 98 40 f2 c2 07 bf e7 fd 0d c0 32 01 1a 3f
       4.763232 -0.5303184 -2.218622 0.60158074
000350 15 a0 b0 3f 39 14 99 3f be c7 03 41 ac a1 c9 40
       1.3798853 1.1959296 8.236265 6.3009853
000360 c2 2a 41 bf fc 47 f6 3e 1d d5 8c c0 ba e2 2b 40
       -0.7545587 0.48101795 -4.401015 2.6857133
000370 aa fe 63 c0 18 50 cd 3f 46 e4 21 bf 4e a7 0f 3f
       -3.5624185 1.6040068 -0.6323894 0.5611466
000380 f1 a8 aa 41 cf d7 a7 bf 30 01 e8 3d 7c a2 89 c0
       21.33249 -1.3112735 0.113283515 -4.3010845
000390 89 67 3e 40 74 86 88 be 82 9b b4 bf 56 f6 1e 40
       2.9750693 -0.2666508 -1.4109957 2.4837852
0003a0 a6 75 59 bf 80 8c bd 3c 1c e6 3d be d1 b1 16 bf
       -0.8494514 0.023138285 -0.18544811 -0.58865076
0003b0 ce c9 e9 c0 e5 29 81 c1 4e 95 62 40 03 04 00 c0
       -7.3058844 -16.145456 3.5403628 -2.0002449
0003c0 25 6e 7a 41 7c db 72 3f ac 41 76 40 18 af 30 3e
       15.651891 0.94866157 3.8477583 0.17254293
0003d0 d4 2a c3 be 24 d3 b7 bf 8a e3 74 3f b1 fc d7 3f
       -0.38118613 -1.436131 0.956597 1.687399
0003e0 e0 e4 13 be fa 9a 27 3e 24 9b 8d bf a5 21 0e 3f
       -0.14442778 0.16367713 -1.106297 0.5552009
0003f0 fd 37 98 c0 42 bf 3c 40 e6 0c f6 3f 8c 68 ad 40
       -4.7568345 2.9491735 1.9222686 5.419012

actor1.2.bias f4 [64]
000000 a4 43 63 3f 58 a3 5c 41 ad a2 72 40 1d 2a 5e 3f
       0.88775086 13.789879 3.791179 0.8678301
000010 2a df 8e 40 4d a2 af 3e 2a d3 dd be 6a e2 7a 40
       4.4647417 0.34303513 -0.43325168 3.9200692
000020 cf 99 b6 3f 08 fd 35 3f 97 a0 99 bf 23 c0 82 bf
       1.4265689 0.7108922 -1.2002133 -1.0214885
000030 21 05 7f c0 b0 02 42 c1 13 90 48 3f f1 f2 02 3f
       -3.984688 -12.125656 0.7834484 0.5115195
000040 d3 83 19 40 db 6e 13 c1 d1 f2 07 3f 38 a4 38 40
       2.398671 -9.214564 0.53104883 2.885023
000050 00 92 46 be af 41 2d 3f da 74 f5 be ba 89 1a c1
       -0.19391632 0.6767835 -0.47940713 -9.658625
000060 4e 49 4c 3f 10 e2 d3 be cb 2f 7e c1 9a ee b8 3e
       0.79799354 -0.4138341 -15.886668 0.3611954
000070 84 7c 8b 40 23 35 1a c2 98 eb 0d c0 4e a7 e9 40
       4.3589497 -38.55189 -2.2175045 7.301673
000080 32 e1 08 bd c0 7c cc be f0 8c de bd ac 2d 04 41
       -0.033417888 -0.39938927 -0.108667254 8.26115
000090 56 76 bf 3c 96 83 a4 c0 3d 60 8d c1 d2 72 00 c3
       0.023371857 -5.1410627 -17.671991 -128.44852
0000a0 1a d0 c2 3f b3 a8 24 bf 00 6a 29 40 20 66 0c bd
       1.5219758 -0.64319915 2.6470947 -0.03427708
0000b0 78 3c a1 3f 7e 36 b1 be fa d9 17 c0 74 98 04 3f
       1.2596579 -0.34611887 -2.3726792 0.51795125
0000c0 b8 2c 19 3e ba aa 17 40 e6 d8 a4 c1 8e 5f 73 3f
       0.14958465 2.3697953 -20.605907 0.9506768
0000d0 3e 72 4d c1 b0 af 00 bf 80 ca 9f 3f c6 28 ab bf
       -12.840391 -0.5026808 1.2483673 -1.3371818
0000e0 2d ae d9 bf 9e 6a 52 bf 1e 4b 36 bf 80 55 1a bc
       -1.7006279 -0.82193935 -0.7120837 -0.009419799
0000f0 e5 76 1d 40 7a a9 e6 bf 98 01 9e be 24 62 a6 3f
       2.4603817 -1.802047 -0.3086059 1.29987

actor1.4.weight f4 [6, 64]
000000 f0 f9 71 40 b8 22 40 c0 50 2e e4 3e e0 af 77 3e
       3.78088 -3.002119 0.44566584 0.24188185
000010 72 07 59 40 5c 23 9d 3f c9 03 3d bf 3a 55 56 be
       3.3910794 1.2276416 -0.738339 -0.20930949
000020 3c 10 e5 40 36 29 6d 40 c0 bf ff c1 76 02 2f 40
       7.1582317 3.7056403 -31.968628 2.7345252
000030 fe 2a f2 3f 43 8a 29 3f a7 c7 55 41 f9 c0 27 40
       1.891937 0.66226596 13.361243 2.621153
000040 32 ea 95 40 d6 98 53 40 cc d0 18 42 8f b2 1e 42
       4.6848383 3.3062034 38.203903 39.674374
000050 d6 c5 91 bf 7f 34 a6 3e 98 b2 60 40 9c 9c 16 40
       -1.13885 0.32461926 3.5109005 2.3533087
000060 a0 43 88 bd 60 09 69 3e 49 36 66 40 29 aa b4 c0
       -0.066535234 0.22757483 3.5970633 -5.6457715
000070 1c 50 22 be a9 26 84 c1 00 3a 66 bf fc 18 5e be
       -0.15850872 -16.518877 -0.8993225 -0.21689218
000080 c2 a9 ac 40 00 9f ca 3c 60 cb 32 bf b2 72 12 bf
       5.3957224 0.02473402 -0.69841576 -0.5720626
000090 00 f5 33 bb 82 a4 16 3e e8 e1 5c 3d c5 1e 12 c1
       -0.0027459264 0.14711192 0.05392638 -9.132512
0000a0 d0 49 8d 40 e2 63 cd 3e 21 b5 8e c0 78 ec 17 bd
       4.4152603 0.40115267 -4.4596105 -0.03709075
0000b0 14 21 ca be 93 ce 63 bf 9c 7a 85 bf a6 c7 13 c0
       -0.39478362 -0.8898708 -1.0428042 -2.3090606
0000c0 79 e6 03 bf 38 94 3f bf ce c6 31 c0 a8 e3 d6 be
       -0.5152355 -0.7483554 -2.777759 -0.41970563
0000d0 4f 03 9e 41 3a 07 21 c0 43 9f 2d bf 54 07 80 bf
       19.751616 -2.516066 -0.6782114 -1.0002236
0000e0 7e a0 cc bf 80 ce 51 3d 11 d9 9c 3f 28 d1 90 bd
       -1.5986478 0.051222324 1.2253743 -0.070711434
0000f0 1c 5a 7f 3f 6c 95 16 3f 27 a8 75 3f da e3 04 c0
       0.9974687 0.5882175 0.95959705 -2.076407
000100 8e d5 51 41 e4 21 a1 40 54 72 62 bf d8 43 ba 42
       13.114637 5.035387 -0.884557 93.13251
000110 7d 42 a5 bf 50 6c 00 c1 dc 8f 9a 3f d2 5a df c0
       -1.2910916 -8.0264435 1.2075152 -6.9798365
000120 57 d3 2e c0 56 e4 ef 3e 60 c9 b3 c1 ec 50 5e 41
       -2.7316492 0.46853894 -22.473328 13.894756
000130 3f d0 e3 bd a8 a4 57 c2 ad c9 72 bf e2 5f 1d c0
       -0.11123704 -53.910797 -0.9483898 -2.4589772
000140 f3 69 b5 be 10 52 da bf 34 f2 ae 3f 93 21 80 40
       -0.35432395 -1.7056293 1.3667665 4.0040984
000150 be b6 45 be a3 cb 81 bf 20 dd 46 bf 0d 5a 84 bf
       -0.19307992 -1.014027 -0.7768116 -1.0339981
000160 0a ff 3b be 1b ef aa 40 3c 24 49 be a8 b7 c5 be
       -0.18359008 5.3416877 -0.19642729 -0.3861668
000170 46 0e 67 be 4c 42 47 41 80 61 c1 bf 65 d4 a2 c0
       -0.22564039 12.453686 -1.510788 -5.088427
000180 5f 16 0e c0 4e 04 0e c2 90 a6 68 c0 98 9a 50 40
       -2.2201154 -35.504204 -3.6351662 3.2594357
000190 86 5c c4 3e a0 97 73 3e e0 cd 3d be 6d 4b b5 bf
       0.3835184 0.23788309 -0.18535566 -1.4163643
0001a0 92 a2 32 bf 98 4b 9c 41 34 22 61 be 6a 3a 7e 3e
       -0.6977931 19.536911 -0.21985704 0.2482697
0001b0 39 96 54 bf d6 9d 9b be b0 a2 34 3e f2 7a 20 3f
       -0.8304172 -0.30393857 0.17640185 0.626876
0001c0 e4 10 9a c1 80 59 c0 3f 83 f0 36 c1 68 87 8d 41
       -19.258247 1.5027313 -11.433719 17.691116
0001d0 a8 ae 1d 3e 50 0f d8 bd 87 d3 65 c0 a3 25 86 3f
       0.15398657 -0.10549796 -3.5910356 1.0480236
0001e0 7c e3 28 3f 9b f2 91 3f a4 4f cd bf 3c 44 af be
       0.65972114 1.1402162 -1.6039929 -0.34231746
0001f0 59 c3 ff c0 e0 20 30 bf d8 67 30 42 1e ad e3 3f
       -7.992596 -0.68800163 44.10141 1.7787206
000200 2a e2 6c 40 b5 9e 8a 3e ea 87 ec be 06 ee 15 c1
       3.701304 0.2707421 -0.46197444 -9.370611
000210 bc 49 90 bf dc 7f 2f bf f8 f1 57 c1 a8 ea f6 3f
       -1.1272502 -0.6855447 -13.496574 1.9290361
000220 fa 7d 1d 40 4c 5f 13 bf c6 ad 0c 40 78 c8 49 40
       2.460814 -0.57567286 2.1981063 3.1528606
000230 a0 0f fc be de 11 d4 be d2 ab 3c be 16 f4 30 c1
       -0.4923067 -0.41419882 -0.18424919 -11.059591
000240 8e 93 89 3e b0 1a 42 be fc a3 35 c0 86 4a e8 40
       0.26870388 -0.18955493 -2.8381338 7.259097
000250 ea fa 65 c0 92 f2 08 3f d0 f2 50 3f f5 31 98 c0
       -3.5934396 0.5349513 0.816205 -4.7560983
000260 46 8a 0c c0 a8 a0 7a bd 8e 95 f7 3e 0c 50 c8 bd
       -2.1959395 -0.06118837 0.4835629 -0.09780893
000270 e9 74 da c0 8a 59 8d bf cb 3f df c0 62 6f 43 bf
       -6.8267713 -1.104295 -6.976537 -0.7634183
000280 ef 8b 2a bf f8 7e f9 3f 6e d8 fa bf 2f eb 08 bf
       -0.6661977 1.9491873 -1.9597299 -0.5348386
000290 06 dc c6 3f cd 08 82 bf 28 64 a9 3f 98 34 1c c0
       1.5535896 -1.0158936 1.323369 -2.44071
0002a0 c6 13 8d 3e 22 b7 33 3f e8 2f 9a c0 df 11 4f 40
       0.27554148 0.70201313 -4.818348 3.2354658
0002b0 20 7d 03 c0 eb 86 19 c1 8b f3 70 c1 81 dd f3 bf
       -2.054512 -9.595439 -15.059459 -1.9051973
0002c0 33 c3 c7 40 58 ca 93 be 77 b6 c2 3e 61 25 5e 3e
       6.242578 -0.28865314 0.38029835 0.21693946
0002d0 50 82 1a c0 a8 17 6b bd 8b f0 9a c0 07 83 ff c0
       -2.4142036 -0.057395607 -4.841863 -7.9847445
0002e0 5e 9f 86 bf 3b 69 87 3f 25 2a 3a 40 a7 48 2e be
       -1.0517385 1.0578989 2.9088223 -0.17019902
0002f0 32 42 aa be f4 59 be bf 85 fc eb be f0 c3 35 bf
       -0.33253628 -1.4871202 -0.46091095 -0.710021
000300 8a ac 4c bf 8e 73 7b c0 14 c0 22 3e cc fc 29 3f
       -0.79950774 -3.928928 0.15893584 0.6640136
000310 ff 70 91 c0 ba d2 81 c0 d1 bf d9 bf c2 62 36 c0
       -4.5450435 -4.0569735 -1.7011663 -2.8497777
000320 e2 8b 82 3f ba a6 a8 be ca e0 13 be 00 06 11 bd
       1.0198939 -0.32939702 -0.14441219 -0.035406113
000330 00 71 d1 bb f1 cb 2f 41 38 4c 99 3d c3 b0 f4 3e
       -0.0063916445 10.98729 0.07485241 0.47791108
000340 a3 ea 8b c1 e4 e3 a2 bf 00 27 c9 3e b7 79 aa bf
       -17.489569 -1.2725797 0.39287567 -1.3318394
000350 84 cb 1b 3f 8e 2c 1b 3d c4 4f 2e 3f 10 5a 8f 3f
       0.60857415 0.037884288 0.6809046 1.119936
000360 88 71 b6 3d 77 de 8e 40 a4 ed 10 c1 4c 0f f6 be
       0.08908373 4.4646564 -9.058018 -0.48058546
000370 ab d4 2d bf c8 5c aa c1 ac 93 1a 3f 05 a8 c9 3f
       -0.6790263 -21.295303 0.6038158 1.57544
000380 b9 de 12 3e f4 c8 38 bf 54 07 41 c0 f2 b0 9a c0
       0.14342774 -0.7218163 -3.0160723 -4.8341
000390 4e e3 85 c0 f7 0f 24 3f f2 e4 bd 3e a1 5c 3f bf
       -4.183997 0.6408686 0.37088734 -0.74750715
0003a0 4e 53 ad be b4 4e fc 3e cc db 76 41 c4 35 5e 3f
       -0.3385262 0.49278796 15.428661 0.8680079
0003b0 1c ee 22 be a2 54 80 c0 d0 a0 f6 3e cc 12 33 40
       -0.15911144 -4.010331 0.48169565 2.7980223
0003c0 90 ac 64 be 74 f9 81 40 f3 09 40 3f 37 5b 29 3f
       -0.22331452 4.061701 0.7501518 0.6615481
0003d0 4a 94 f7 3e 88 42 ec 40 6a 27 2b c2 fa 96 25 c3
       0.48355323 7.3831215 -42.78849 -165.58975
0003e0 2a fb 51 bf d8 45 7b 40 8e 04 0f bf c4 30 48 3f
       -0.8202387 3.926138 -0.55866325 0.7819941
0003f0 ea 68 91 3f 24 0d 2b bf 6b 1d 1f 3f b1 2a f0 3f
       1.1360142 -0.66816926 0.62154263 1.8763028

actor1.4.bias f4 [6]
000000 42 2c 90 41 f1 fd e3 3e f4 f0 ca 3f 70 e0 c4 40
       18.02161 0.4452968 1.5854783 6.152397
000010 e8 44 10 40 32 ea f6 3f
       2.2542057 1.9290221
