examples/Evolutionary-Reinforcement-Learning/simple_no_pool/Models/1_actor_800.0.pt (torch, 27911 bytes, 6 tensors)

actor1.0.weight f4 [64, 28]
00000000: e4b1 8fbf d01e ccbf f363 4bbe a396 e73f
00000010: 88db 70bf 00e9 8fba 6286 0340 62e5 abbe
00000020: 9410 ef3e 9e3d 00be 7e06 603f be7b b73f
00000030: 834e 4f3f 9a25 85be 009d e13f 2283 1ac1
00000040: adbc b2bf 8019 323c ed80 43bf e4cf fcbe
00000050: 342b 7bbf 07d4 e1be 6815 4bbf e0ce ec3c
00000060: c9b8 e13f c06b ff3d 502b b7be d09b 2fbe
00000070: 72f9 683f 6a63 f1bf 5c29 3fbe 5081 5bbd
00000080: fb58 9f3f d790 76bf 5019 2dbf 722a f63f
00000090: 5403 6fbe b509 eabe 101d ebbe fef5 d4bf
000000a0: 98e8 62bf 7e9a 4ec0 eebe 363f 21be 493f
000000b0: d26a 0a41 d984 dabf dc2b 7c3f c822 fcbd
000000c0: 443f 3e40 ba78 26bf b1f9 a8be 4391 0e3f
000000d0: a86b 9bc0 ac27 43bf 5a32 c03f 9585 a43f
000000e0: ce70 f93e 76a1 a1bf 7280 bbbd ee9d 243e
000000f0: f55c 8e3e 55e8 93bf 1ce4 1e3f 1009 ee3e
00000100: 3d46 1fbf 46ee 253f 94ff 043f aff4 b43f
00000110: d060 61bd fb2a c5c1 a956 13bf a2e2 e43f
00000120: 4613 1d3d 66d2 8cbf d34d e8be 8a38 adbd
00000130: 4131 80bf e942 e33d 6c10 7f3d 3e0b 94be
00000140: c059 95bd c0ec 4f3f 71aa 94bf cdc7 e53e
00000150: 3170 8e3f 2a9d 3a3e 2069 3d3e 8af7 fb3e
00000160: 2f12 b6bf 5475 4ebf a0e0 083d 1478 e33f
00000170: acbb 11c0 381e 103f 7847 033f a2ff 8dbe
00000180: 80cf 23c0 aa8a 8dbe 3677 83bd b081 c5bd
00000190: c699 9c3d 7a59 963e e80e 33bf fcac 883e
000001a0: 2085 81be b010 a940 d202 efbe 843c 2abf
000001b0: b0da 4abe 4037 e1bf 32c4 32c1 943c d2be
000001c0: 5a9f 9c3f 3a4d 75bf e16c b5bf aa3a 0440
000001d0: 4de8 4c3f 2e5b 073e 7bb7 97bf 86be 623f
000001e0: 44e4 a8c1 867b c4bf e24d 25bf 2abb 963f
000001f0: e0aa 2b3d 2eb7 efbf 3ccb 41be 5877 c4be
00000200: 8cf7 7b3e f0db 423d a25e 6140 a8d5 cd3e
00000210: ca50 0e40 bc31 c73e 8c9b 1abe ce0a d2be
00000220: 4d59 543e 6346 723e 4f62 a63f fbb1 20c0
00000230: 5708 fe3e 480f cebe a597 f23f fe2f ef3e
00000240: ae46 b2be 5892 72bf 4af5 c4c0 dc65 24bf
00000250: 00bd 7d3d e086 47bd a21c 1d3e 00c8 3d3c
00000260: c17b 563f cbc8 08bf f45c ae3f 58f7 19c0
00000270: f480 49bf a2fe 453f a820 20bf c00b e63d
00000280: 3508 a83f e45b 963e a566 ee3f 4b85 5cbd
00000290: 0064 c93e 883e d2bf 6416 8ebf b165 a240
000002a0: ac41 3740 1ff8 cb3e 40cc e33f dd06 a3bf
000002b0: 6c30 a1be 98b0 c6be 84d6 cf3d eaac 37c0
000002c0: f0a1 56bd 4a0b 50c0 cc06 4f3f 9013 773e
000002d0: 9259 9ebe 8860 cd3f 434e 39c0 a525 ed40
000002e0: 82c2 b2be 4057 41bc 4e5f 15c1 4840 aebf
000002f0: ff59 babf 8ee4 203e f86b a73f 61d2 2540
00000300: 3cb2 903e c253 83be 0e02 aa3f cab4 1b3e
00000310: bf0d 36c0 90bb ef3f 7434 bebe 0c3a 85bf
00000320: 30a2 933d f4a9 df3e ce8b 09c0 4650 78c0
00000330: ef29 b23f 8802 b73c 26b5 61bf a0ed 723d
00000340: 1463 2c3e 6893 403f 3801 f33f 8718 8cbf
00000350: 8046 6ebb e020 11bf 0279 2ebe a08c 6fbf
00000360: 31ff 17c0 17ea adc0 7f13 b1bf 9409 00c0
00000370: 3caf 61be 408a dbbf a9dd e23e 564f 9cbd
00000380: d266 363f 9c33 753f 21a7 2ebf 8660 48be
00000390: ec14 173f 9d59 25bd 2baa 9ec0 841d a43f
000003a0: f66d a93e 6cac 8c3e 07b0 b33f 70d8 543e
000003b0: 801f 1c3f 09e0 2a40 0699 c1be 3737 9a3e
000003c0: 586a b6bf 8264 0ebe 0a52 f53d b3fb a93e
000003d0: bab0 53c0 37ab 89c0 6294 8c40 0404 393d
000003e0: a0d0 9e40 16ab cd3f fe4f e540 e8dc 8abe
000003f0: e59f ebbf 60e4 2b3e 28d7 a23f ccd3 c83e
-1.1226163 -1.5946903 -0.19862346 1.8092846 -0.9408498 -0.0010979474 2.055077 -0.33573443
0.46692336 -0.12523505 0.87509906 1.4334638 0.80979174 -0.2600525 1.7626038 -9.657015
-1.3963829 0.0108703375 -0.763686 -0.49377358 -0.981128 -0.44107077 -0.7932954 0.02890724
1.7634517 0.124717236 -0.35775232 -0.17149282 0.91005623 -1.8858464 -0.18668121 -0.05359012
1.244903 -0.9631476 -0.6761675 1.9231703 -0.23341113 -0.4571053 -0.4592061 -1.6637571
-0.8863616 -3.2281795 0.71385086 0.7880574 8.651079 -1.7071792 0.98504424 -0.123113215
2.9726114 -0.65027964 -0.33003 0.556904 -4.8568916 -0.7623241 1.5015366 1.2853266
0.48718876 -1.2627399 -0.091553584 0.1607587 0.27805296 -1.1555277 0.6206682 0.4649129
-0.6221655 0.648167 0.5195248 1.4137172 -0.05502397 -24.645987 -0.5755411 1.7881663
0.03834846 -1.1001709 -0.45371875 -0.084580496 -1.0015031 0.110967465 0.06227152 -0.28914827
-0.07292509 0.81220627 -1.1614515 0.44878998 1.1127988 0.18224016 0.18497133 0.49212295
-1.4224299 -0.8064778 0.033417344 1.777102 -2.2770796 0.5629611 0.5128093 -0.27734095
-2.5595398 -0.27644855 -0.06419222 -0.096438766 0.076465175 0.2936514 -0.6994462 0.26694477
-0.2529688 5.283287 -0.4668184 -0.6649859 -0.19809985 -1.7594986 -11.172899 -0.41061842
1.223613 -0.95820963 -1.4173852 2.0660806 0.8004196 0.13218376 -1.1852869 0.88571966
-21.111458 -1.5350196 -0.64571965 1.1775868 0.041911006 -1.8727777 -0.18925184 -0.38372302
0.2460615 0.04757303 3.521401 0.4020207 2.223681 0.38905132 -0.15098399 -0.41023868
0.2073719 0.23659663 1.2998751 -2.510863 0.49615738 -0.40246034 1.8952528 0.46716303
-0.3481955 -0.9475455 -6.1549425 -0.64217925 0.061947823 -0.04871261 0.15342954 0.011583328
0.83782583 -0.53431386 1.3622117 -2.4057217 -0.7871239 0.77341664 -0.6254983 0.1123271
1.3127505 0.29366982 1.8625075 -0.053838056 0.39334106 -1.6425333 -1.1100583 5.0749135
2.8633833 0.3983774 1.7796707 -1.273647 -0.31482255 -0.38806605 0.101483375 -2.8699288
-0.05240053 -3.250689 0.80869746 0.24128556 -0.30927712 1.6045084 -2.8954017 7.4108453
-0.34914023 -0.011800587 -9.335768 -1.3613367 -1.4558715 0.15712187 1.3079824 2.5909655
0.28260982 -0.2564984 1.3281877 0.15205684 -2.844589 1.8729115 -0.37149394 -1.040834
0.07208669 0.4368435 -2.149158 -3.8798995 1.3919047 0.022340074 -0.88167036 0.059308648
0.1683467 0.75224924 1.8984747 -1.0944985 -0.003635794 -0.5669079 -0.17038348 -0.9357395
-2.3749506 -5.4348254 -1.3834075 -2.0005846 -0.22039503 -1.7151566 0.44309738 -0.0763232
0.7125064 0.95781875 -0.6822377 -0.19568071 0.590163 -0.040368665 -4.9582725 1.2821507
0.33091706 0.27475297 1.4038094 0.2078569 0.60985565 2.669924 -0.3781206 0.3012025
-1.4251204 -0.13905528 0.11978538 0.33199844 -3.3076615 -4.3021502 4.393113 0.045169845
4.962967 1.6067836 7.1660147 -0.27121663 -1.8408171 0.16786337 1.272191 0.39224088

actor1.0.bias f4 [64]
00000000: 8da5 dcbe d11c ef3d 0875 5fbd 700e 363d
00000010: 7854 2cbf 1080 453f 46c8 6c3e aeec a33f
00000020: 1de7 6abf 8ec6 4dc0 9976 1d3f c4f1 8cc0
00000030: c8e9 433d 64ca aebf e7e0 89bf 8071 273c
00000040: 4ebb b5bf a100 1140 369f d83f 9c0e d03e
00000050: 4241 9440 b0f4 d93d f9cf 14bf 641f c5be
00000060: 7e52 533f 24a2 eabe 4093 1b3f 8744 2f40
00000070: 0883 6b3d d080 5940 79c8 883f 7a8f 9b3d
00000080: 4424 bf3e 0f4d 463f fcad 90bf 7a46 1040
00000090: ce03 70bf 9cbb 043f af1b 1840 3083 3ebf
000000a0: 522a 593f 64cd 343f 5af0 683f f00f c6bf
000000b0: eb2f f33e bcb1 263e e4b0 99bf d34f 89c0
000000c0: 10b3 23bf 3c6f 31bf daaa cb3e d2b9 8f40
000000d0: 9353 233f 4809 3640 0679 7040 6657 0ebe
000000e0: 60d6 6840 7198 bebf 6ea1 c93e 3afa 8a3f
000000f0: 5cd8 73be b395 cc3e e5fc afbf 965f 183f
-0.43095055 0.11675418 -0.05455497 0.044447362 -0.6731639 0.7714853 0.23123273 1.2806604
-0.917589 -3.2152438 0.6150909 -4.4045124 0.047830373 -1.3655515 -1.077176 0.010219932
-1.4197786 2.2656634 1.6923587 0.40636146 4.632966 0.106423736 -0.5812984 -0.38500512
0.8254775 -0.45826828 0.6077156 2.7385576 0.057498008 3.398487 1.0686179 0.07595725
0.37332356 0.7746133 -1.1303096 2.2543015 -0.93755805 0.5184877 2.3766897 -0.74418926
0.848302 0.706259 0.9099175 -1.5473614 0.47497496 0.16278738 -1.2007108 -4.290994
-0.639451 -0.69310355 0.39778787 4.491433 0.637994 2.8443165 3.7573867 -0.13900527
3.6380844 -1.4890271 0.39380974 1.0857613 -0.23813003 0.3995796 -1.3749052 0.5952085

actor1.2.weight f4 [64, 64]
00000000: 1e25 7d3f 8659 613e 5c11 c6bf af8a 893e
00000010: 48e3 4140 b76d 3fc0 2843 06be 0dd5 0f3f
00000020: 1871 49be e6aa 8e3f f4ca cfbf bd01 8ac0
00000030: fa7d 84be 88d8 e03d 76f3 c33f 272d abbf
00000040: 911a 83c0 f3b7 fa3f a663 3940 9caa 18be
00000050: a4eb 773f 34dd 50bf cc9e 333f b021 2e3f
00000060: bad7 b73e 001d ecbe fca1 22be 821f a7bd
00000070: 7444 b13e 5494 1340 102e 3040 0c11 e0be
00000080: a419 cd3e 1a2c 4fc0 1d1f de3e fb04 5e3f
00000090: d217 3bbf 2e83 13c0 5e6e cc3e 72c4 4740
000000a0: 9a4a 493f 8017 0740 5053 20be a817 e7be
000000b0: 1461 12c0 de2c 5140 c85b bebf d23e da3e
000000c0: e671 cbbe 8a63 1b3e f73d 8e3e 247f 853e
000000d0: 08a8 2dbf 5463 b93f bad0 a9c0 5f10 96bf
000000e0: 0cbf 033e 7f36 0dc0 a40c db3e 7ec5 0340
000000f0: c119 c03f 256f 41bf 72c1 bf3d 01b4 b3bf
00000100: 607b f3be 19d2 9b40 386c 923f 4159 5a3e
00000110: 2472 323f 3da8 a0bf f205 973e 9395 28c0
00000120: a099 a9bd 16fa 15c0 0ed7 71bf 4af5 6fbf
00000130: cef0 a1bf b6ac 113f eabf 44be 60c8 e2bf
00000140: 7bfc 9fbf 39a8 823f 2314 2d40 c53b 6f3f
00000150: 9871 88be 40d0 cebe 5203 17bf 66dd f040
00000160: 482e ac3e b01f 5641 28fe 47bf 0bb3 09c0
00000170: d7d8 26bf 4bfc d9c0 66f5 d13d b881 f7be
00000180: ba88 923f 5136 73bf c9ff 803f ba46 cfbe
00000190: 8604 c5bf e5fa b2c0 2d99 a1c0 63aa 883f
000001a0: ea76 05bf bfa9 5940 9c02 9cbe dee3 54be
000001b0: f4ed 1d41 7836 e8bd e3fd 0c3e 18a3 9e40
000001c0: 502a 44bc 736c 7cbf 7287 e3bd 4dad 63c1
000001d0: ecbd a9bf 00f4 f63a 521a debe c82e 4d3f
000001e0: ac55 903e 68f7 8cbf 10bf b4be 3db7 87be
000001f0: 489c 2dc1 eab3 bcbd 9261 a8c0 4285 7dc0
00000200: 14a4 a73f 8223 c8bf 9c3d ab3e bf90 a8c0
00000210: 46a8 16be e82c a6bf def0 a0be 5ecc 70bf
00000220: 37d2 f03e ec67 82c0 c1c2 17c0 84e3 bfbe
00000230: d7f9 103f 1099 ecbd 6465 0fbe 5610 99be
00000240: 4e9d ee3e f6fc 403e 00fe 62bd fc1d 50bf
00000250: f9e6 203d f878 ac40 aa89 bf3f 24fe 003e
00000260: 6814 5e3d 2a28 33bf 5493 233f 16ce ac3e
00000270: e2af a63f 4e75 903d 6672 92bf a636 323f
00000280: da8a 0cc0 e0a1 9cbd a2d1 ddbe f787 a93e
00000290: 8a1f d0bf 9e8b 50c0 e043 5b3f fe48 cabe
000002a0: 2a83 85be 085e 4d3f d5ab 9fbf 58c6 ae3e
000002b0: 46f9 72bf 1e52 ebbf 8c77 63bf 3ae7 043f
000002c0: e2ba 1f3f 18e7 8dbe 90a8 3b3f 710e 1cc0
000002d0: 8d90 773e 4e68 91bf 1ba1 9e3f 905e 8c3f
000002e0: 54cb 8b3f c37c 223d fd22 41bf 747c 1f3f
000002f0: d034 4b3f b9d1 173e ea99 8e3e 1c7b 103f
00000300: f9c1 89bf 49dc 31be d6ae 95be 9aba 193f
00000310: 42ad 00c1 caa7 cf40 80ac c43d d2ce c2bf
00000320: bafc ddbf cdb8 98bf 80d0 28c1 2421 22c0
00000330: bfad 83bf e11e 1440 c28e c140 c89c 6c3f
00000340: 2c52 023d 02df 2bbe 9299 1d41 4b1b 793f
00000350: 2384 153f 1032 8f3d b864 9bbf 7376 48bf
00000360: 588f d93e 888c dcbe 4299 d63f 128c 56c0
00000370: 5e2a febe f38f 213e e83e a93f 23f9 c3be
00000380: f8ca ba3f d851 cebe 9d37 55c0 623a 33be
00000390: 7f11 56bf c0af 8ebe 9faf dc3f 581c 56bd
000003a0: 4079 37bf 4cab f13f 4040 d9bc e49a b93e
000003b0: 2d0f c1be 7da2 dbbe 28a3 05be d855 0abf
000003c0: b6b5 b33e 1c1d 1b3f 0cab 37c0 1788 92bd
000003d0: 409c ca3e c9f8 1dc0 635a 823f aaba 08bf
000003e0: eda1 9a40 3d85 613f a5ce 3cc0 b9e6 b6be
000003f0: 71c6 67c0 4000 963a 4546 493f 4448 c33f
0.9888476 0.22006807 -1.5474048 0.2686362 3.0294971 -2.9910715 -0.13111556 0.56184465
-0.19672048 1.1145904 -1.6233811 -4.312712 -0.25877362 0.109788 1.5308673 -1.3373154
-4.096993 1.9587387 2.896707 -0.14908832 0.96843934 -0.8158753 0.7016418 0.68020153
0.35906774 -0.46115875 -0.15882105 -0.081603065 0.34622538 2.3059282 2.7528114 -0.43763006
0.40058625 -3.2370667 0.43383113 0.8672635 -0.7308322 -2.3048816 0.39927953 3.121365
0.7862946 2.1108093 -0.15656781 -0.45135236 -2.2871752 3.2683635 -1.487176 0.42626053
-0.39735335 0.1517469 0.2778165 0.26073563 -0.6783452 1.4483438 -5.3067293 -1.1723746
0.12865847 -2.2064512 0.42783082 2.058929 1.500786 -0.7556022 0.09363069 -1.4039308
-0.47555065 4.8693967 1.1439276 0.2132311 0.69705415 -1.2551342 0.29496723 -2.6341293
-0.08281255 -2.343389 -0.9446877 -0.93733656 -1.2651613 0.5690416 -0.19213834 -1.77174
-1.2498926 1.0207587 2.704354 0.93450576 -0.26649165 -0.40393257 -0.5898944 7.527026
0.3362906 13.382736 -0.78122187 -2.151553 -0.6517462 -6.8120475 0.10251884 -0.48341155
1.1447976 -0.95004755 1.007806 -0.40483648 -1.5392005 -5.593127 -5.049948 1.0676998
-0.52134573 3.4009855 -0.3047074 -0.2079005 9.870594 -0.11338514 0.13768725 4.957409
-0.011972979 -0.9860298 -0.111098185 -14.22981 -1.3261085 0.0018841028 -0.43379456 0.8014951
0.28190362 -1.1013002 -0.3530202 -0.26506987 -10.850655 -0.092140034 -5.2619104 -3.9612584
1.3096948 -1.5635836 0.33445442 -5.267669 -0.14712629 -1.2982454 -0.31433767 -0.9406184
0.4703538 -4.075186 -2.3712618 -0.37478268 0.56631225 -0.11552632 -0.14003521 -0.29895276
0.4660439 0.18846497 -0.055418015 -0.8129575 0.039282773 5.3897667 1.4963887 0.12596947
0.05421868 -0.6998316 0.6389668 0.3375098 1.3022425 0.07053624 -1.1441162 0.69614637
-2.1959748 -0.07648063 -0.43324 0.33111545 -1.6259625 -3.2585216 0.85650444 -0.39508814
-0.26076633 0.80221605 -1.2474314 0.341357 -0.9491161 -1.8384435 -0.8885429 0.51915324
0.62394536 -0.27715373 0.7330408 -2.4383814 0.24176235 -1.1359956 1.2392915 1.0966358
1.0921426 0.039669763 -0.7544401 0.62299275 0.7937746 0.14826097 0.27851802 0.5643785
-1.0762321 -0.17369188 -0.29234952 0.60050356 -8.042299 6.489232 0.09603214 -1.5219367
-1.7342751 -1.1931397 -10.550903 -2.5332727 -1.0287398 2.3143847 6.0486765 0.9242673
0.031816646 -0.1678429 9.849993 0.9730727 0.5840475 0.069919705 -1.2140112 -0.7830574
0.42492175 -0.43075967 1.676552 -3.3522992 -0.496417 0.15777569 1.3222322 -0.38276014
1.4593191 -0.40296817 -3.3315194 -0.1750274 -0.83620447 -0.27868462 1.7241095 -0.052273124
-0.7166939 1.8880401 -0.026519895 0.36250985 -0.3770689 -0.42897406 -0.1305052 -0.5403724
0.35099572 0.6059129 -2.8698149 -0.07154863 0.39572334 -2.4683096 1.0183834 -0.53409827
4.8322663 0.8809393 -2.9501126 -0.35722902 -3.621487 0.0011444166 0.7862285 1.5256429

actor1.2.bias f4 [64]
00000000: 9249 0ebe 7c0f de3d 5cbb 76be 304e 73be
00000010: 629d 65c0 c0e0 a9be 58c9 88be 81fe 563f
00000020: ac37 cc3d 93bf 283e 706e ef40 d724 9a3f
00000030: ea17 5abf 20f7 7dbd 7f3e 3c3f a837 cf40
00000040: 310e a33f b09b 613d 659b b9bf e083 333f
00000050: 0eab b440 e6f7 153f 5a88 ed3f 1ad4 18be
00000060: 10e5 45be 790c 093f 4058 74bd f454 d3bf
00000070: e069 703d 8157 9e3e fd17 35bf e864 fdbd
00000080: 6a3a b23f 2bd8 05bf 687b 013e e009 44bc
00000090: e1ae 14c0 0446 84be e044 88be 4350 1cbf
000000a0: 0e33 5ac1 bcdd 3240 8098 8d3a 40ca 59bc
000000b0: 1809 bcbd 4620 35c0 cdf3 28c0 9ada 2140
000000c0: f26a 4cc0 5443 4cc0 28f7 d1be a8b1 373c
000000d0: 4957 85bf 377d 10bf 66fd afbf 1cd2 bf3f
000000e0: 88ff 9cbd 6cc8 c53e a38a 0e40 0e92 1240
000000f0: d87d 87bf aa44 07c0 4e7a fabf 33a0 43be
-0.13895252 0.10842797 -0.2409491 -0.23760295 -3.587731 -0.33179283 -0.26716113 0.8398209
0.09971556 0.1647933 7.482231 1.2042493 -0.8519274 -0.062003255 0.7353286 6.475544
1.2738706 0.055080116 -1.4500548 0.701231 5.6458807 0.5858139 1.8557236 -0.1492466
-0.19325662 0.53534657 -0.059654474 -1.6510301 0.05869472 0.30926135 -0.7073973 -0.12372762
1.3924077 -0.5228297 0.12644732 -0.011965245 -2.3231738 -0.25834668 -0.26615047 -0.6105997
-13.637465 2.7947836 0.0010802895 -0.013292849 -0.09181422 -2.8300948 -2.6398804 2.5289674
-3.1940274 -3.1916094 -0.41008878 0.01121179 -1.0417262 -0.5644106 -1.3749206 1.4985995
-0.07665926 0.38629472 2.2272117 2.2901645 -1.058528 -2.113566 -1.9568574 -0.1910408

actor1.4.weight f4 [6, 64]
00000000: e6cb dabf 38ae b6bd ae65 1dbe a442 a03e
00000010: 9781 963f 7dc1 28bf 4c06 a93e 35cd 1ac0
00000020: e4f6 893f 43d3 a3bf 6c25 f0bf 8003 c8bd
00000030: a2e8 64be 9bfa 60be c327 83be fc2c 4dbf
00000040: ce19 24c0 c684 babf 828d a2bf 8480 45c0
00000050: ae87 6fbf 00b3 0f3e 45ec 0bc0 24ac 173e
00000060: 38f7 493e b98f 6fbe cb25 6e3f 2ef1 5c3e
00000070: 908f 94be c48e b9be ec75 15c1 b47d d33e
00000080: 3a1b 4840 6649 46c0 d15f cf3f b66a 23bf
00000090: 0a7d 89be 1a25 d140 bc55 213f 26f2 9d3d
000000a0: b8bd 073e d856 283f be49 1540 c6a5 923f
000000b0: a298 69c0 eeb3 b73f cc50 883d 6af3 29be
000000c0: a921 01bf 945d dbbf 80d3 4d3d f235 1dbf
000000d0: ce12 c13f ec9b 68bf 00ec 243f fbb7 133e
000000e0: ad6f f440 61d7 0a3e 58ae 943e 8622 753f
000000f0: ced3 59c0 0d66 993e c688 58bf 6897 d6be
00000100: c41d 663e 2a11 b740 3dc9 30c0 f738 17bf
00000110: f2fc 8ebe 55f1 1a41 9a1c a73d 06ec 343f
00000120: 98fc 58bc 2ca6 763f a4b8 83bf e023 813f
00000130: decb 42c0 ce61 c13f 266a 5940 52bc ca40
00000140: 2496 363f 0c56 9540 8819 63c0 86c5 983f
00000150: 5d7f 1640 a24d bb3e 19e4 f6bf 485a 17be
00000160: 5102 40bf 5c1e 2bbf 0455 8f3f b6cb 4bbf
00000170: 7f55 993e 0645 77be 58c5 7f3e 6f8f 9840
00000180: 6465 1bbf 0d67 2040 e565 633e a6d7 b13e
00000190: 04e8 9f40 50b7 5f3d d69d d9c0 b3d2 f940
000001a0: 7c8c a43e e8bd 09be f3cf 593f 18f3 923f
000001b0: ab52 14bf 8d70 e3bf 7f79 73be 628a b03e
000001c0: ace4 87c0 f638 b23f 19de 84bf f6d7 4cbe
000001d0: 8c7a f83e e368 5a3e b230 b73e 8e55 f4be
000001e0: 42af 93bd 2869 2340 e6b7 1fbf 5cca 3640
000001f0: 5e99 a0c0 499b 9f3e 841a 1dbf cb29 5540
00000200: 94e2 123e 213a 5d3f 79f7 30bf 70e4 adbe
00000210: 9076 44c0 ed66 4cbd 42ac aebf ce52 3640
00000220: 3c9d 803e 68f1 25be 9048 4940 50fe fbbe
00000230: f67a 17bf edf8 723d 51be 2dc0 4043 93ba
00000240: 9c0d e93f 8001 653d ac4e 613d 56b3 afbe
00000250: 61ad 3ebf ac10 b73e e4a0 44c0 1c59 4f3e
00000260: 2d74 0d3f 6011 d53f dfc9 05bf 2f82 083f
00000270: aea7 2e3f 33aa 05bf b2bc 04c1 61ab 98c0
00000280: 00fd 0ac0 508b 28bf 586f 133e 4077 6d3f
00000290: bde5 1f40 ee68 4e3e 110c e5bd 4ccb a33f
000002a0: 4495 e3be f4f2 593d bc96 06be 4e6f 2cc1
000002b0: 5b90 c13d 4cf9 793e bb52 2d3f 6730 a1be
000002c0: 67dd 463f b4d2 3cc0 8b90 4040 9921 463f
000002d0: 0c87 0840 9ce2 b03d 9600 08bf f0b4 713d
000002e0: b812 7b3f 00cd 183d d455 713d 11f0 db40
000002f0: 4290 ccbe 9372 1040 26aa 2abe 0a56 b1be
00000300: 26d3 fa3f c13e 01be 0826 febe 6bca 943f
00000310: 3fd7 5d3f 74d2 81be eaec 383f 9219 75bf
00000320: 25f7 fdbf 9439 cebe d7d7 26c0 2f4f 81bd
00000330: d5ce b73f 3885 86bd 4c78 7abf 6811 cabe
00000340: 90e8 303f 5eee 35bf 4007 d940 ea94 af3d
00000350: 0663 2340 7030 86bf 1ea7 1e41 00ef 153e
00000360: 0afc 273e 364b 53bf a351 10bf f25e 3140
00000370: 1af3 89bf 93c9 cdbf b219 b2bf 37c9 91c0
00000380: c2b9 273f 9247 c63f a055 20c0 5c27 14bf
00000390: d80d b140 d237 1f40 7617 83be 59ea 0bc1
000003a0: 1eda e5bf 5e22 883f 3e80 a53e 879e d7bd
000003b0: a366 f440 a460 da3f c1da 0c3f 91ef 033f
000003c0: 4c69 1dbf 0fed e13f f08f 35c0 535c ae3d
000003d0: 0088 f7bc 568a 3bbf 20ed ab3c 6098 f3bc
000003e0: 68eb 2dc1 de56 51bf d097 52bd 8a0a c13e
000003f0: 40ec e540 c720 9dbd bb6f 2ec0 aadf 0fbf
-1.7093475 -0.08919948 -0.15370819 0.31300843 1.1758298 -0.6592024 0.33012617 -2.4187748
1.077847 -1.2798847 -1.876142 -0.097662926 -0.22354367 -0.21970598 -0.25616273 -0.80146766
-2.564075 -1.4571769 -1.2699435 -3.085969 -0.93566406 0.14033127 -2.1862957 0.1481176
0.19723213 -0.2339467 0.9302642 0.21576378 -0.2901578 -0.36241734 -9.3412895 0.4130684
3.1266618 -3.09823 1.6201116 -0.638347 -0.2685321 6.535779 0.63021445 0.07712202
0.13255966 0.65757513 2.3326259 1.145684 -3.649941 1.4351785 0.06656036 -0.16596761
-0.50441986 -1.7137933 0.05025053 -0.6141044 1.5083864 -0.9086292 0.6442261 0.14425652
7.6386323 0.13558723 0.29039264 0.95755804 -3.4035525 0.2996067 -0.845837 -0.4191239
0.22472292 5.720845 -2.7622826 -0.59071296 -0.27927357 9.683919 0.08159752 0.70672643
-0.013243817 0.9634731 -1.0290723 1.0089073 -3.043693 1.5107973 3.3971038 6.3354883
0.71322846 4.666754 -3.5484333 1.1935279 2.3515236 0.36582667 -1.928836 -0.14780533
-0.75003535 -0.668432 1.119782 -0.79607713 0.2994804 -0.24147424 0.24977624 4.767509
-0.60701585 2.5062897 0.22206838 0.3473484 4.997072 0.05461818 -6.800517 7.80697
0.3213843 -0.1345135 0.8508293 1.1480436 -0.5793864 -1.7768723 -0.23776816 0.34480578
-4.246664 1.3923633 -1.0380279 -0.20004258 0.48530996 0.21329074 0.3577934 -0.47721523
-0.07211162 2.5532932 -0.6238998 2.856101 -5.0187216 0.3117316 -0.61368585 3.3306758
0.14344245 0.8641682 -0.69127613 -0.33963346 -3.0697365 -0.049902845 -1.3646319 2.848804
0.2511996 -0.1620537 3.1450539 -0.49217463 -0.59172 0.059319425 -2.714741 -0.0011235252
1.8207278 0.055909634 0.055006668 -0.3431651 -0.74483305 0.35754907 -3.07232 0.20248836
0.55255395 1.6645927 -0.52261156 0.53323644 0.6822461 -0.5221283 -8.296068 -4.7709203
-2.171692 -0.65837574 0.14397943 0.92760086 2.498397 0.20157215 -0.11183942 1.2796416
-0.44449818 0.053210214 -0.13143438 -10.777174 0.09451362 0.24411505 0.6770436 -0.3148224
0.77681583 -2.9503603 3.0088222 0.77395016 2.1332426 0.08636972 -0.53125894 0.059010446
0.9807544 0.03730488 0.058919743 6.873055 -0.3995381 2.256993 -0.16666469 -0.34635955
1.9595687 -0.12621595 -0.4963839 1.1624273 0.86656564 -0.25355875 0.722365 -0.9574214
-1.9841048 -0.40278304 -2.6069238 -0.06313931 1.4359995 -0.06568378 -0.9783981 -0.39466405
0.6910486 -0.71066844 6.782135 0.08573325 2.552919 -1.0483532 9.9158 0.14641953
0.16404739 -0.8253664 -0.5637457 2.77142 -1.0777314 -1.607714 -1.3914092 -4.5558124
0.6551782 1.5490592 -2.5052261 -0.5787256 5.53294 2.487782 -0.25603837 -8.744714
-1.7957189 1.0635488 0.32324404 -0.105282836 7.637529 1.7060742 0.5502129 0.51537424
-0.61488795 1.765047 -2.8369102 0.08513703 -0.030216217 -0.7325796 0.020987093 -0.029735744
-10.869972 -0.81773174 -0.05141431 0.37703353 7.185089 -0.076722674 -2.7255695 -0.5620066

actor1.4.bias f4 [6]
00000000: 82ca 5cbe f87f 373f 0b8b 2ebf 7888 eebe
00000010: eab1 edbf 2058 9ebf
-0.21561626 0.7167964 -0.6818091 -0.46588492 -1.856992 -1.2370644
