examples/Evolutionary-Reinforcement-Learning/simple_no_pool/Models/1_actor.pt (torch, 27031 bytes, 6 tensors)

actor1.0.weight f4 [64, 28]
0	0xbd00c297	-0.031435575
1	0x3e31e4f2	0.17372492
2	0x3e388aff	0.18021773
3	0x3e0fc62b	0.14040439
4	0xbdae511e	-0.085115656
5	0xbd881fad	-0.06646667
6	0xbe396eff	-0.18108748
7	0xbe02f3a0	-0.12788248
8	0xbdecdd56	-0.11565654
9	0xbde0dfa0	-0.10980153
10	0xbc3bef92	-0.011470692
11	0x3d38e99e	0.04514467
12	0x3d170b04	0.03687574
13	0x3babff29	0.0052489233
14	0xbe3b194a	-0.18271366
15	0xbde69727	-0.11259299
16	0x3c80bec9	0.015715973
17	0xbddde873	-0.10835352
18	0x3d8a8831	0.06764258
19	0x3be3802b	0.006942769
20	0x3dd1d32a	0.102453545
21	0x3dd36fa7	0.1032403
22	0xbd8f1f2e	-0.06988369
23	0xbc5fe3db	-0.013665165
24	0x3d99feb9	0.075192876
25	0xbdc43f82	-0.09582426
26	0xbe23cfcc	-0.15997237
27	0xbe215129	-0.15753616
28	0x3d01f846	0.031730913
29	0xbe1a3c49	-0.1506206
30	0x3e1aa236	0.15100941
31	0x3d68147f	0.05666017
32	0x3c7cf981	0.015440346
33	0x3b237d3f	0.0024946479
34	0xbddc69c0	-0.10762358
35	0x3d58ca9c	0.0529276
36	0x3d0a846e	0.0338177
37	0x3e0a6e79	0.13518704
38	0xbd8700ca	-0.065919474
39	0x3c0f4e2f	0.008746668
40	0x3d3898e9	0.0450677
41	0xbda58931	-0.08082808
42	0x3e2b1de5	0.16710623
43	0x3e1f5db1	0.15563084
44	0xbe23fd60	-0.16014624
45	0xbc117d98	-0.008880042
46	0x3dc158f2	0.09440793
47	0x3d874094	0.06604114
48	0x3dec8e32	0.11550559
49	0xbe091c77	-0.13389765
50	0xbe2cbf93	-0.16869955
51	0x3e04fffa	0.12988272
52	0x3e0eb3b0	0.13935733
53	0x3d810abb	0.06300875
54	0x3ddb1fdf	0.10699438
55	0xbda8319d	-0.08212588
56	0x3d29e233	0.041475486
57	0xbdc0a36c	-0.0940617
58	0xbd843299	-0.06454963
59	0xbd8bf711	-0.068342336
60	0xbe00f873	-0.12594776
61	0x3db2f54f	0.08738195
62	0xbe30160b	-0.17195909
63	0x3d923dd4	0.07140699
64	0xbdcd3ea9	-0.10021717
65	0xbdfbc182	-0.12292768
66	0xbd72ed97	-0.059308615
67	0xbe30af54	-0.17254382
68	0x3d73092e	0.059334926
69	0xbddcffbe	-0.107909665
70	0x3dfbe519	0.12299556
71	0x3e2b6aa9	0.16739906
72	0xbc968e2c	-0.01837834
73	0xbd8fdd2d	-0.07024608
74	0x3e278bc9	0.16361918
75	0x3db8fef3	0.09033003
76	0x3c7d4ad4	0.015459735
77	0x3d829b57	0.06377285
78	0x3d8744cf	0.06604921
79	0x3dda94eb	0.10672935
80	0x3ddcc1c7	0.107791476
81	0x3d6cfcdf	0.057858344
82	0xbdcdf8f6	-0.10057251
83	0xbe2cf349	-0.16889681
84	0x3e035877	0.12826715
85	0x3e061cc0	0.13096905
86	0xbd96fc44	-0.073723346
87	0x3e126133	0.14294891
88	0xbe0ba886	-0.13638505
89	0xbdd2624a	-0.102726534
90	0xbe16637e	-0.14686391
91	0x3c8005a0	0.015627682
92	0x3d07d1c1	0.03315902
93	0x3daa92e1	0.08328796
94	0xbe2026eb	-0.15639846
95	0x3ddeaa2e	0.10872303
96	0x3e440164	0.19141155
97	0x3e2261ac	0.15857571
98	0x3d4097b7	0.047019687
99	0xbe22da07	-0.15903483
100	0xbd170872	-0.03687329
101	0xbc80bc39	-0.015714752
102	0xbdfb987d	-0.12284944
103	0x3d97992e	0.074022636
104	0xbdc60c09	-0.09670264
105	0xbdf710e5	-0.12063769
106	0x3c8a4f42	0.016883496
107	0xbddfd68d	-0.10929594
108	0xbb98b3e8	-0.0046601184
109	0xbd9f9919	-0.07792873
110	0xba69e0e1	-0.0008921754
111	0x3dd98ca7	0.106225304
112	0xbde828cf	-0.113359086
113	0x3e3589b7	0.17728315
114	0x3e3efc59	0.1865095
115	0x3d6caec6	0.057783864
116	0x3d3729a2	0.04471744
117	0x3e21ba2a	0.15793672
118	0xbdca56f8	-0.09879869
119	0x3dd83361	0.10556675
120	0x3d534d91	0.051587645
121	0x3d8be407	0.06830602
122	0x3da4f095	0.080537
123	0xbdb334bd	-0.087502934
124	0xbe38c897	-0.18045269
125	0xbcb14f98	-0.021644399
126	0x3e091857	0.13388191
127	0x3e10107c	0.14068788
128	0xbe4020fc	-0.18762583
129	0x3dd8ece1	0.10592056
130	0xbe005374	-0.12531835
131	0xbe159690	-0.14608216
132	0xbdc0ab41	-0.09407664
133	0x3de96f77	0.11398213
134	0xbde414d9	-0.11136789
135	0x3dd857e4	0.10563639
136	0x3d6c0d8d	0.05763011
137	0x3deb193b	0.11479422
138	0x3cd2c2ff	0.025727747
139	0x3e12c55d	0.143331
140	0x3dafba9f	0.08580517
141	0xbe3106c1	-0.17287733
142	0xbe111f36	-0.14172062
143	0x3e044073	0.1291521
144	0x3d30e284	0.043184772
145	0x3de3cf4a	0.111235216
146	0x3dbb10e5	0.09134082
147	0xbe16a95b	-0.14713041
148	0xbe3593b6	-0.17732129
149	0xbdacfaff	-0.08446311
150	0xbd3d4da8	-0.046216637
151	0xbe06a5dc	-0.13149208
152	0xb8fd0876	-0.00012065556
153	0x3db15a35	0.08659784
154	0x3d90a81c	0.07063314
155	0xb5a1984d	-1.203976e-06
156	0x3e13f48f	0.1444876
157	0xbc65ea7f	-0.014032959
158	0xbe33caa6	-0.17557773
159	0x3e3dc285	0.18531235
160	0x3da7044d	0.08155117
161	0x3e0b757e	0.13619038
162	0xbd91b212	-0.07114042
163	0x3dd46ee1	0.10372711
164	0xbd335a87	-0.043787505
165	0xbe273564	-0.1632896
166	0xbe0abfc6	-0.13549718
167	0x3dc86868	0.09785539
168	0x3dc3747f	0.09543704
169	0xbe1d32bc	-0.15351385
170	0xbd3d5c42	-0.046230562
171	0x3cb8b7e4	0.022548623
172	0x3dd6227d	0.10455797
173	0x3b8a61aa	0.0042230682
174	0xbdfb2c58	-0.12264317
175	0x3e3a4635	0.18190844
176	0xbdefbd1d	-0.11705992
177	0xbdf8b35f	-0.12143587
178	0xbc4295ec	-0.0118765645
179	0x3c761461	0.015019507
180	0xbd2032fd	-0.039111126
181	0xbe1c560e	-0.15267202
182	0x3e3c29be	0.18375298
183	0x3c631032	0.013858842
184	0xbd898332	-0.06714477
185	0x3cae44cd	0.021273041
186	0x3d5db53f	0.054127928
187	0x3d3b2782	0.045691974
188	0xbe16a0d8	-0.14709795
189	0xbe2027ae	-0.15640137
190	0x3d72fbab	0.05932204
191	0x3d22e967	0.03977337
192	0x3d851f12	0.06500067
193	0xbd2cdf51	-0.04220516
194	0x3ca1d320	0.019753993
195	0xbe355069	-0.17706455
196	0xbdd0dd16	-0.10198419
197	0xbd48673e	-0.048926584
198	0xbe1003da	-0.14063969
199	0xbe305311	-0.17219187
200	0x3d254a17	0.04035386
201	0x3dcfcea7	0.10146838
202	0xbdac68c7	-0.08418422
203	0xbd6204f3	-0.0551805
204	0x3dcafb1c	0.099111766
205	0x3d7d8f6e	0.061904363
206	0x3e1f1a27	0.1553732
207	0x3e238426	0.1596838
208	0xbcb0ccea	-0.021582086
209	0x3dcb80be	0.09936665
210	0x3e0dde57	0.13854347
211	0xbcf0d4ab	-0.029398283
212	0xbd9b9dde	-0.0759847
213	0x3d2841c7	0.041078355
214	0x3b2a041f	0.0025942398
215	0xbe23b87c	-0.15988344
216	0xbd0b267d	-0.033972252
217	0x3dda0d20	0.10647035
218	0x3dd541cd	0.10412941
219	0x3decc173	0.11560335
220	0x3dbc33b6	0.091895506
221	0xbddf38ac	-0.10899481
222	0xbe07b963	-0.13254313
223	0xbd38ce00	-0.045118332
224	0x3e3352ad	0.17512007
225	0x3df0c1a2	0.117556825
226	0x3dcbded8	0.099546134
227	0xbdf60dbb	-0.12014338
228	0xbdc592ef	-0.09647166
229	0xbd0779bd	-0.033075083
230	0xbe2ebf34	-0.17065126
231	0xbd61a8fb	-0.055092793
232	0x3e0b4c49	0.13603319
233	0x3d4e5bd6	0.05038055
234	0x3da22d2f	0.07918774
235	0x3df72d68	0.120692074
236	0xbdade21a	-0.08490391
237	0x3ce1d198	0.027565762
238	0xbdb56990	-0.08858025
239	0xbe3072d9	-0.17231311
240	0x3e2da096	0.1695579
241	0x3d77da58	0.060510963
242	0xbe20ad54	-0.1569112
243	0x3c0d9a62	0.008642765
244	0x3cf6dd8c	0.030134939
245	0xbdd5f2ab	-0.10446676
246	0xbe015372	-0.12629488
247	0x3d1e3b11	0.03863055
248	0x3d22a6a7	0.039709713
249	0xbd55108d	-0.052017737
250	0xbddca096	-0.10772817
251	0xbdf597cd	-0.11991844
252	0xbd1755cf	-0.036947068
253	0x3d930749	0.07179124
254	0x3df824c2	0.12116386
255	0x3e2d72ae	0.16938278

actor1.0.bias f4 [64]
0	0x3d9f7923	0.07786777
1	0xbcaaf2f5	-0.020867804
2	0x3cd47553	0.02593485
3	0x3d177c96	0.03698405
4	0xbb24c95f	-0.002514444
5	0x3e2f4bca	0.17118755
6	0x3e407592	0.1879485
7	0x3decb1eb	0.11557373
8	0x3d5f7dfc	0.054563507
9	0x3db49a1a	0.08818455
10	0xbd0c41d6	-0.034242474
11	0x3c83a2c9	0.016068833
12	0xbe364de7	-0.17803155
13	0xbcc45183	-0.023964649
14	0x3e1fd47a	0.15608397
15	0xbe387b06	-0.1801568
16	0x3e218a61	0.15775444
17	0x3e1f2adb	0.15543692
18	0x3c72825f	0.014801591
19	0xbe0c1db6	-0.13683209
20	0x3e0bcf5d	0.13653322
21	0x3e0abd7e	0.13548848
22	0x3d669896	0.05629786
23	0x3dfe7bdd	0.12425969
24	0x3ddf611c	0.10907194
25	0xbd23a558	-0.039952606
26	0x3dc72cfc	0.09725377
27	0xbd870be2	-0.06594063
28	0x3e0c76e1	0.13717224
29	0xbdd9880e	-0.106216535
30	0x3d8f38c0	0.06993246
31	0x3e340428	0.1757971
32	0xbd8599e6	-0.065234944
33	0xbe403b0e	-0.18772528
34	0x3e39831a	0.18116418
35	0xbd73d505	-0.059529323
36	0x3d7653b5	0.060138423
37	0x3d12fa45	0.035883207
38	0xbb2a9f73	-0.002603498
39	0xbd2af5ce	-0.041738324
40	0x3de16e8f	0.110074155
41	0xbd0d95b5	-0.0345666
42	0x3d8bbfaf	0.0682367
43	0xbd4429f6	-0.04789158
44	0xbc4094e2	-0.011754246
45	0xbd04c33d	-0.032412756
46	0x3cd69a60	0.026196659
47	0xbe349643	-0.17635445
48	0x3dad76ff	0.08469962
49	0xbd82e82c	-0.063919395
50	0x3df5cbab	0.12001737
51	0xbe12c937	-0.1433457
52	0x3d9c86df	0.07642912
53	0xbde0c6e4	-0.109754354
54	0xbc14e79b	-0.009088422
55	0x3e2bee14	0.16790038
56	0x3d9403a0	0.07227254
57	0xbe38817a	-0.18018141
58	0x3bcc51a2	0.0062353173
59	0xbd7b4400	-0.061344147
60	0xbd9fcdfd	-0.07802961
61	0x3d486c6f	0.048931535
62	0xbc99103d	-0.0186845
63	0xbe118f11	-0.14214732

actor1.2.weight f4 [64, 64]
0	0xbde0ab72	-0.109702006
1	0xbdd915f8	-0.10599893
2	0x3dc298f0	0.09501827
3	0xbcd4be77	-0.025969727
4	0xbd2e3b40	-0.042536974
5	0x3d9e7c3b	0.07738539
6	0x3a892d00	0.0010465682
7	0xbd72ade0	-0.05924785
8	0x3de0af4f	0.109709375
9	0x3db6caaa	0.08925374
10	0xbdadfbbf	-0.084952824
11	0x3dcffc47	0.1015554
12	0x3dd3501b	0.10318013
13	0x3d7832c0	0.060595274
14	0x3c5cef20	0.013484746
15	0x3cd6d351	0.02622381
16	0x3d7f7c2c	0.06237428
17	0xbd8ad1bd	-0.06778286
18	0xbde00e34	-0.10940209
19	0x3d1d270f	0.038367327
20	0x3d88984e	0.06669675
21	0x3dd4870a	0.10377319
22	0x3d30965b	0.04311214
23	0x3d89607a	0.067078546
24	0xbccbaed4	-0.024863638
25	0x3dcebbaa	0.10094388
26	0xbdca2610	-0.09870541
27	0xbd033c9a	-0.032040216
28	0xbd801ef3	-0.06255903
29	0xbdee7dec	-0.116451114
30	0x3db5500e	0.0885316
31	0x3d38d8c8	0.045128614
32	0x3c5d2830	0.013498351
33	0x3d757b03	0.059931766
34	0xbc980a92	-0.018559728
35	0x3d038ef0	0.032118738
36	0xbc7f79ff	-0.015593051
37	0x3ade2a00	0.0016949773
38	0xbd206544	-0.039159074
39	0x3b218b80	0.00246498
40	0xbdc3341c	-0.095314234
41	0x3d1e25b4	0.038610175
42	0x3da78fac	0.081817
43	0x3dc1aa86	0.09456353
44	0xbd3c8b9e	-0.046031587
45	0x3d939de5	0.0720785
46	0xbdbae6f1	-0.0912608
47	0x3dce0326	0.10059194
48	0xbdb6ad36	-0.08919756
49	0x3dbc8ce6	0.09206562
50	0x3dfc6c99	0.12325401
51	0xbdd659f0	-0.10466373
52	0x3c5d6fe0	0.013515443
53	0x3d86e265	0.0658615
54	0x3dd207dc	0.10255405
55	0x3da7899a	0.08180542
56	0x3d085d28	0.033291966
57	0x3d31ccbc	0.04340814
58	0x3d8d6eed	0.06905923
59	0xbccc6318	-0.024949595
60	0xbd23fee0	-0.04003799
61	0xbd27ee28	-0.040998608
62	0xbcb939c0	-0.022610545
63	0xbbf05180	-0.0073339343
64	0x3d5d2570	0.05399078
65	0x3c9b5aa7	0.018964125
66	0x3d7e31e8	0.062059313
67	0xbb84cd07	-0.0040527615
68	0xbdb3e100	-0.0878315
69	0xbd7fc019	-0.062439058
70	0x3c0e8be0	0.008700341
71	0x3da8b460	0.08237529
72	0x3dbf4d65	0.09340934
73	0xbc8d17f8	-0.017223343
74	0xbd245de2	-0.040128596
75	0x3ce49e04	0.027907379
76	0x3dcc7d13	0.099847935
77	0x3b30d8c0	0.0026984662
78	0x3dd65fd0	0.104674935
79	0x3dfdcd89	0.12392718
80	0x3dd17067	0.10226517
81	0xbc444346	-0.01197893
82	0x3c42a966	0.011881208
83	0x3d07966f	0.03310245
84	0xbb73e07f	-0.0037212668
85	0x3da41391	0.080115445
86	0x3ca27a39	0.01983367
87	0x3d5f0dd8	0.05445656
88	0xbbe6933d	-0.007036595
89	0x3dd30ede	0.1030557
90	0x3d86a3e0	0.065742254
91	0x3d5b6950	0.05356723
92	0x3d7e5898	0.06209621
93	0x3cf9443d	0.030428046
94	0xbdcc8c0c	-0.09987649
95	0x3d81b087	0.06332498
96	0xbd6cd8f0	-0.057824075
97	0xbbe959b6	-0.00712129
98	0xbdd13587	-0.10215288
99	0xbbd9d9e0	-0.006648287
100	0xba85d770	-0.00102113
101	0xbd009884	-0.03139545
102	0xbdf0c5d8	-0.11756486
103	0x3d73c824	0.05951704
104	0x3e044f68	0.12920916
105	0x3d9ec8d2	0.07753147
106	0xbde5f4a6	-0.112283036
107	0xbd3f5e5f	-0.04672086
108	0x3df0f233	0.11764946
109	0x3c083ada	0.008314813
110	0x3d7fe632	0.06247539
111	0x3d100598	0.035161585
112	0x3d2b5f34	0.04183884
113	0xbd2d1b1c	-0.04226218
114	0x3d8298d4	0.06376806
115	0xbd5e7e42	-0.054319628
116	0x3d3ad154	0.045609787
117	0xbdd31d27	-0.10308295
118	0x3d0de83c	0.034645304
119	0x3cf6917e	0.030098673
120	0xbd83bcef	-0.064325206
121	0xbd607184	-0.054795757
122	0xbd0886f5	-0.03333183
123	0x3cbc7cd0	0.023008734
124	0x3d2702c2	0.040774114
125	0x3dfef97c	0.12449929
126	0x3dbea7f2	0.09309377
127	0x3d4b2e9d	0.049605
128	0x3cd3db98	0.025861546
129	0xbdccf7ca	-0.100081995
130	0x3dfd0b2e	0.12355648
131	0x3d20d298	0.039263338
132	0x3d49566c	0.049154684
133	0x3caace40	0.0208503
134	0xbdda6904	-0.106645614
135	0xbdab98da	-0.083787635
136	0x3dd2e840	0.102982044
137	0x3d1d6e40	0.03843522
138	0xbd7ce504	-0.061741844
139	0xbcc8f6d8	-0.024531767
140	0x3c891b30	0.016736597
141	0xbcf56648	-0.029955998
142	0x3dd4c1c0	0.103885174
143	0x3d058984	0.03260185
144	0x3df75186	0.12076096
145	0x3b7c5780	0.0038504303
146	0x3dc0fa78	0.09422773
147	0x3b935900	0.0044966936
148	0xbd8f6736	-0.07002108
149	0xbcc58bf0	-0.024114579
150	0x3dbda160	0.092592955
151	0x3d3a09d0	0.045419514
152	0x3c538700	0.0129106045
153	0xbd170420	-0.03686917
154	0xbd4da7dc	-0.05020891
155	0x3cc5d038	0.024147138
156	0xbd053014	-0.032516554
157	0xbb8c0f20	-0.004274264
158	0xbd9be79e	-0.07612537
159	0x3d83d2f8	0.064367235
160	0xbd1fa9b4	-0.0389802
161	0xbcf70170	-0.030152053
162	0xbd1a5780	-0.037681103
163	0xbdad9cae	-0.0847715
164	0x3dafd636	0.08585779
165	0xbde14ea2	-0.11001326
166	0x3d1ce06c	0.038299963
167	0x3dc1329c	0.09433481
168	0x3cecbc28	0.028898314
169	0x3bc82060	0.006107375
170	0x3d1a2dc4	0.0376413
171	0xbd485600	-0.04891014
172	0x3db5a56c	0.08869442
173	0xbd75118c	-0.059831187
174	0x3cd019f0	0.025402993
175	0x3d535ecc	0.051604077
176	0x3c5a58c0	0.013326824
177	0xbdb22f82	-0.08700468
178	0x3de843b6	0.1134104
179	0x3d2eb274	0.042650655
180	0xbd23fea0	-0.04003775
181	0xbd31cedc	-0.043410167
182	0x3c2fb590	0.01072444
183	0xbcddb3e8	-0.027063325
184	0xbdd74432	-0.10511054
185	0x3d828690	0.06373322
186	0xbdf07390	-0.11740792
187	0xbdb85de6	-0.09002285
188	0x3d68036c	0.05664389
189	0xbd29dadc	-0.041468486
190	0x3c28a280	0.010292649
191	0x3d4b8714	0.049689367
192	0xbc073af0	-0.008253798
193	0xbc8f7a71	-0.01751444
194	0xbdbb5dc6	-0.09148745
195	0xbdb9ce46	-0.09072547
196	0x3cf94508	0.030428424
197	0xbd525cc5	-0.051358003
198	0x3d3e1950	0.04641086
199	0x3de65262	0.11246182
200	0xbda28c46	-0.07936911
201	0xbca771e0	-0.020440042
202	0x3d2984c9	0.0413864
203	0x3cdc4052	0.026886139
204	0x3d2224fa	0.039586045
205	0xbdd78f14	-0.10525337
206	0xbd9a171a	-0.075239375
207	0x3d233bc2	0.03985191
208	0x3d31d08f	0.043411788
209	0x3d849eb4	0.06475583
210	0x3d4011f9	0.04689214
211	0xbcdc315b	-0.026879003
212	0x3dc8848a	0.09790905
213	0x3dea33a6	0.114356324
214	0x3dc70ad9	0.09718866
215	0xbde627e9	-0.11238081
216	0xbd2d67d2	-0.04233534
217	0xbde5f20c	-0.112278074
218	0xbd4e2598	-0.05032882
219	0x3da8b494	0.082375675
220	0x3d9d33cd	0.07675896
221	0x3d398d71	0.045300905
222	0x3d62cc70	0.055370748
223	0xbdc22b5f	-0.09480929
224	0xbd6d0330	-0.057864368
225	0xbd8669a1	-0.06563116
226	0x3da1ebb8	0.07906288
227	0xbd8fc270	-0.07019508
228	0xbd9d7c48	-0.076897204
229	0x3dcb7b1a	0.09935589
230	0x3c9665bb	0.018359056
231	0xbdcaf418	-0.099098384
232	0x3de68447	0.11255699
233	0xbd828760	-0.06373477
234	0xbc49f600	-0.012326717
235	0x3ca59d3b	0.020216575
236	0x3d98d708	0.07462889
237	0xbd15cd96	-0.036573015
238	0x3d6b0711	0.057379786
239	0x3d8b6a1c	0.06807348
240	0xbd754084	-0.05987598
241	0xbdefce70	-0.11709297
242	0xbd033c72	-0.032040067
243	0xbdc675a7	-0.09690409
244	0xbd86ed6c	-0.065882534
245	0x3db3ec27	0.08785277
246	0xbcc1f448	-0.023676053
247	0x3dc4b6d9	0.09605188
248	0xbd0ce443	-0.034397375
249	0x3d129bcc	0.03579311
250	0x3d9e6723	0.077345155
251	0xbd930fe2	-0.07180764
252	0xbdae2e51	-0.08504928
253	0xbbc18a8b	-0.005906408
254	0x3deb2270	0.11481178
255	0x3de43189	0.111422606

actor1.2.bias f4 [64]
0	0x3dfbb51f	0.122904055
1	0x3ddfd8bd	0.109300114
2	0xbd881b82	-0.06645872
3	0xbd6e0083	-0.058105957
4	0x3d9e0487	0.07715707
5	0x3cf39890	0.029735833
6	0xbc3ebf0d	-0.01164223
7	0xbc8cde88	-0.017195955
8	0xbd3e21dc	-0.04641901
9	0x3d0d7e54	0.034544304
10	0x3d9007ee	0.070327625
11	0xbde2a0f2	-0.11065854
12	0x3d9c790d	0.07640276
13	0x3c4a407b	0.012344475
14	0x3d733595	0.05937727
15	0xbbb65371	-0.005564146
16	0x3d0f867e	0.03504037
17	0x3dd183ba	0.10230203
18	0xbdfa29d0	-0.12215006
19	0x3db355b0	0.08756578
20	0xbc8fb415	-0.017541924
21	0xbdc23f75	-0.0948476
22	0xbda2f798	-0.07957381
23	0xbd8e1a82	-0.0693865
24	0x3cd605a0	0.02612573
25	0xbde0a83b	-0.109695874
26	0xbd8f3f72	-0.06994523
27	0x3d7001e1	0.058595542
28	0xbdf4f3f4	-0.11960593
29	0x3cef20d0	0.02919045
30	0xbdc0e21a	-0.094181255
31	0xbbb369a0	-0.005475238
32	0xbd7fa83c	-0.0624163
33	0xbc56b6b3	-0.013105082
34	0xbd96a5b8	-0.07355827
35	0xbce6bd78	-0.028166518
36	0x3dcfe746	0.10151534
37	0xbd1c8e68	-0.038221747
38	0xbd583448	-0.052784234
39	0x3dc73721	0.09727312
40	0xbcf5a8a8	-0.029987648
41	0xbddc339d	-0.10752032
42	0x3c98fdb4	0.018675663
43	0x3daa3965	0.083117284
44	0xbd6e1a5a	-0.0581306
45	0x3dbea5d0	0.0930897
46	0xbd933e00	-0.0718956
47	0x3dd6a077	0.10479825
48	0xbd9cd0c2	-0.07657005
49	0xbde128e6	-0.10994129
50	0xbd594c77	-0.05305144
51	0x3d46a72d	0.048499275
52	0xbde01071	-0.10940636
53	0x3d004261	0.031313304
54	0x3d81ea96	0.06343572
55	0xbcdbb8f0	-0.026821584
56	0x3d3b733e	0.0457642
57	0x3de632e7	0.112401776
58	0xbcca1f90	-0.024673253
59	0x3d9edbdc	0.077567786
60	0xbc9e02a0	-0.019288361
61	0xbc96ca27	-0.01840694
62	0xbdbdea52	-0.09273209
63	0xbd9ba356	-0.07599513

actor1.4.weight f4 [4, 64]
0	0xbb79575d	-0.0038046457
1	0xbdea3515	-0.11435906
2	0x3d21caf0	0.039500177
3	0x3c1a42e8	0.009415366
4	0x3d9e2e39	0.0772366
5	0xbce62968	-0.028095916
6	0x3cc2e196	0.023789208
7	0xbd6d242c	-0.057895824
8	0x3d36cdc3	0.044629823
9	0x3ca2f2f8	0.019891247
10	0xbd190714	-0.037360266
11	0xbd59b973	-0.053155374
12	0x3d4042e0	0.046938777
13	0x3ddde7a3	0.10835197
14	0x3d917612	0.07102598
15	0x3a605475	0.0008557507
16	0x3ce1054a	0.027468342
17	0xbddcd22a	-0.10782273
18	0x3de51858	0.11186284
19	0xbda96d68	-0.08272821
20	0x3dd56d20	0.104212046
21	0x3df4e0a1	0.11956907
22	0x3d95437c	0.07288262
23	0x3dae2ef5	0.0850505
24	0xbde114fe	-0.10990332
25	0x3d9f4103	0.07776072
26	0x3d85cb5b	0.065329276
27	0x3dd32a86	0.10310845
28	0x3d42f3ab	0.04759566
29	0x3d490740	0.04907918
30	0x3dca9e60	0.09893489
31	0x3d625828	0.055259854
32	0x3db1eb04	0.08687404
33	0xbdb9e677	-0.09077161
34	0xbca0a7f0	-0.019611329
35	0x3dd13912	0.102159634
36	0xbd3b7bc4	-0.04577233
37	0xbd96b3a4	-0.073584825
38	0xbdc1622c	-0.09442553
39	0xbdac22d3	-0.0840508
40	0x3ccd2a78	0.025044665
41	0xbd471283	-0.04860164
42	0x3d3f5bcd	0.046718407
43	0x3d27826d	0.040895868
44	0x3dfefb3a	0.124502614
45	0xbddda626	-0.10822706
46	0xbd4694c3	-0.048481714
47	0x3da7c1f7	0.08191293
48	0xbd1ea6d6	-0.038733326
49	0xbcf32008	-0.02967836
50	0xbb1d00b0	-0.0023956709
51	0x3dc8b305	0.0979977
52	0xbbe48066	-0.006973314
53	0x3c328704	0.010896448
54	0x3d1e0182	0.038575657
55	0x3ce333b8	0.027734622
56	0x3c9088cf	0.01764336
57	0xbc9910fc	-0.018684857
58	0x3dbbea46	0.091755435
59	0xbdef8baf	-0.116965644
60	0xbd2a304c	-0.041549966
61	0x3ccdf475	0.02514098
62	0xbd495cc4	-0.049160734
63	0x3df1ce9c	0.11806986
64	0x3df9b999	0.12193603
65	0x3dff8538	0.12476581
66	0xbdcc2e3c	-0.09969756
67	0xbd2e48c5	-0.042549867
68	0x3d35921d	0.044328798
69	0xbd913e74	-0.0709199
70	0x3d839e11	0.06426633
71	0x3dff10ba	0.12454362
72	0xbcc6c45a	-0.02426355
73	0xbdd2da12	-0.102955
74	0x3dcf4e3c	0.10122344
75	0xbda99448	-0.082802355
76	0xbd81ab29	-0.06331474
77	0xbd06e8da	-0.03293691
78	0xbcde1469	-0.027109342
79	0x3c01c354	0.007920105
80	0xbd2946bc	-0.041327223
81	0x3dbd6ea1	0.092496164
82	0xbdb95e14	-0.09051147
83	0x3df8fa8c	0.12157163
84	0x3d8cf8a7	0.06883364
85	0xbdf2ed85	-0.118617095
86	0x3b7b39c0	0.0038333982
87	0x3db9fb70	0.09081161
88	0xbca79230	-0.02045545
89	0x3de094ea	0.10965903
90	0x3d892ed6	0.06698386
91	0x3d6506c2	0.055914648
92	0x3dccb28f	0.09994995
93	0x3cb47d70	0.02203247
94	0xbb49f7c0	-0.0030817837
95	0x3d253c74	0.040340856
96	0xbb4db340	-0.003138736
97	0x3ddd86e1	0.10816742
98	0xbc25c590	-0.010117903
99	0x3d60df8f	0.054900702
100	0xbc034a98	-0.00801339
101	0x3dcc7946	0.099840686
102	0xbdea351a	-0.114359096
103	0x3a8b0a02	0.0010607841
104	0x3deefc80	0.11669254
105	0x3c0f956d	0.008763653
106	0xbdd1c5f2	-0.10242833
107	0xbd5178cd	-0.051140595
108	0x3c7cc349	0.015427419
109	0xbdca92c1	-0.09891272
110	0x3d3dd3fd	0.046344746
111	0x3d7a7bed	0.06115334
112	0xbc0f2557	-0.00873693
113	0xbdc552fe	-0.0963497
114	0xbc2f784e	-0.010709835
115	0x3c846c22	0.016164843
116	0x3d9a5e16	0.07537477
117	0xbd8e045c	-0.06934425
118	0xbc9677f9	-0.018367754
119	0xbdb69042	-0.08914234
120	0x3c701ba7	0.01465503
121	0x3da05652	0.07828964
122	0x3cf87b60	0.030332267
123	0x3d517562	0.051137336
124	0xbdd897a8	-0.10575801
125	0x3a3c90b3	0.0007193193
126	0x3dedec4a	0.11617334
127	0x3e042dd6	0.1290811
128	0x3d64cc04	0.055858627
129	0x3d1658f4	0.036705926
130	0xbdd2bb1e	-0.10289596
131	0x3da13002	0.07870485
132	0xbd497163	-0.0491804
133	0x3cf3c6a0	0.029757798
134	0xbcafff56	-0.021484058
135	0xbdcbba7c	-0.099476784
136	0x3d7dd4e5	0.06197061
137	0xbcbd0968	-0.023075774
138	0xbcf04b78	-0.029332861
139	0xbdc02515	-0.09382073
140	0xbdd1f9eb	-0.10252746
141	0xbdea972a	-0.114546135
142	0xbd5a4a0c	-0.053293273
143	0xbdd0760b	-0.10178765
144	0x3bb4c99a	0.005517197
145	0xbdeff6ef	-0.11717021
146	0xbd5c6070	-0.053802907
147	0x3d402314	0.046908453
148	0xbdc944e5	-0.09827594
149	0xbc6b1179	-0.0143474275
150	0x3db4bfb4	0.08825627
151	0x3cf4edca	0.029898543
152	0xbd97f0dc	-0.07418987
153	0xb9a5eb3d	-0.0003164652
154	0xbda2989d	-0.07939265
155	0x3d87573c	0.066084355
156	0x3d9a082f	0.07521092
157	0x3d89ee40	0.06734896
158	0x3dcca136	0.09991686
159	0xbd57da74	-0.052698568
160	0x3d918382	0.07105161
161	0x3dcfee12	0.1015283
162	0xbd068b78	-0.03284785
163	0xbd6a92c6	-0.05726888
164	0x3dfe6800	0.1242218
165	0x3cbf5790	0.023357183
166	0xbd6eda34	-0.058313563
167	0xbd59d4c0	-0.05318141
168	0xbd412c3c	-0.047161326
169	0xbcc87a5d	-0.02447241
170	0x3da1522a	0.07877
171	0x3dc48351	0.09595359
172	0x3dcecf9c	0.10098192
173	0xbbcfd890	-0.006342955
174	0x3df7e62b	0.12104448
175	0x3df5abb5	0.11995641
176	0xbdd71efd	-0.105039574
177	0x3de5b430	0.11216009
178	0x3ddf257f	0.10895824
179	0x3ac7a572	0.0015231802
180	0xbd8f99ca	-0.07011755
181	0xbdc9585b	-0.098313056
182	0xbcd344d0	-0.025789648
183	0x3c35bb10	0.011091962
184	0xbd5f1ea1	-0.05447257
185	0xbdacd330	-0.08438718
186	0xbc9cc950	-0.019138962
187	0x3dbc00cd	0.0917984
188	0xbde53954	-0.11192575
189	0x3db6f8db	0.08934184
190	0xbd76f504	-0.06029226
191	0x3d453e2d	0.048155
192	0x3d59de65	0.053190608
193	0xbcbf23d9	-0.023332523
194	0x3da469b2	0.08027972
195	0xbda90fc6	-0.08254962
196	0xbdcabaee	-0.09898935
197	0xbd961ca0	-0.073296785
198	0xbd712ae9	-0.058878813
199	0x3df8fad4	0.12157217
200	0x3dfca589	0.12336261
201	0x3da17bb6	0.07884924
202	0x3dbfbd20	0.093622446
203	0xbdc40b4f	-0.095724694
204	0x3c8627c2	0.01637638
205	0xbca79276	-0.02045558
206	0xbe089996	-0.13339838
207	0x3d4897e4	0.04897298
208	0xbd184452	-0.03717453
209	0xbde92167	-0.11383324
210	0x3c06e6a0	0.008233696
211	0xbdc56e8c	-0.09640226
212	0xbe015989	-0.12631811
213	0xbdb6eb5f	-0.08931612
214	0xbc60fde0	-0.0137324035
215	0xbd353984	-0.044244304
216	0x3daf5fae	0.08563171
217	0x3d81cbaf	0.06337678
218	0x3d7233e4	0.059131518
219	0xbdd56397	-0.10419386
220	0xbd27bb28	-0.04094997
221	0x3c899a88	0.016797319
222	0x3dbc7ce2	0.09203507
223	0x3dccc8be	0.09999226
224	0x3ced0670	0.028933734
225	0xbdac4e35	-0.08413354
226	0xbdb9e188	-0.0907622
227	0x3d2c1c44	0.042019144
228	0xbd945b85	-0.072440185
229	0x3d8c280e	0.06843577
230	0xbdefd24e	-0.11710034
231	0xbd6ea76e	-0.058265142
232	0x3d25fda4	0.040525094
233	0x3dc3be9f	0.095578425
234	0xbd7111d1	-0.05885488
235	0xbdff8779	-0.12477011
236	0x3d450a57	0.048105564
237	0xbd942688	-0.07233912
238	0x3dda9ce7	0.10674458
239	0x3d24f82c	0.040275738
240	0x3d1869a2	0.037210114
241	0xbc10b5e0	-0.008832425
242	0x3dbb55e8	0.09147245
243	0xbd804f34	-0.06265107
244	0x3dc3971f	0.095503084
245	0xbcf73a9f	-0.03017932
246	0xbd1f4150	-0.038880646
247	0xbdac535c	-0.08414337
248	0x3d8422f1	0.06451977
249	0x3ded1694	0.11576572
250	0x3ca343c0	0.019929767
251	0x3c80f98e	0.015743997
252	0xbd5392a4	-0.05165352
253	0x3d58f203	0.052965175
254	0x3d97f2ca	0.07419355
255	0x3b8897fc	0.0041685086

actor1.4.bias f4 [4]
0	0x3d80ad84	0.062830955
1	0x3ce172ce	0.027520563
2	0xbddacb34	-0.10683289
3	0x3d862583	0.065501235
