examples/Evolutionary-Reinforcement-Learning/simple_no_pool/Models/3action_best.pt (torch, 27911 bytes, 6 tensors)

actor1.0.weight f4 [64, 28]
0	0xbf065348	-0.5247083
1	0xbfbfa410	-1.4971943
2	0xbe058afc	-0.130413
3	0x3f2ee481	0.6831742
4	0xc00fdcb4	-2.2478456
5	0x3ede2534	0.4338776
6	0x3f7efe7e	0.99607074
7	0xbf887dbc	-1.0663371
8	0xbf61d4b0	-0.8821516
9	0xbe39edb4	-0.18157083
10	0x3f137cc3	0.57612246
11	0xbeed78b3	-0.4638115
12	0x3f41c94a	0.7569777
13	0x3e94a015	0.29028383
14	0x3e113c3a	0.14183131
15	0x3f93d7ea	1.1550267
16	0x3fb1a30b	1.3877882
17	0xbec4ddec	-0.38450563
18	0x3ea908f0	0.3301463
19	0xbb11edc0	-0.0022266954
20	0xbde3623a	-0.111027196
21	0xbd601878	-0.054710835
22	0xbf4be502	-0.79646313
23	0xbf09fc34	-0.53900456
24	0x3f577d9d	0.84176046
25	0x3f7cd7fa	0.98767054
26	0xbf471932	-0.7777282
27	0xbf2b0008	-0.6679692
28	0xc00db84d	-2.2143738
29	0xc0ec5621	-7.385514
30	0x3f90a1b6	1.129935
31	0x3f26a8ec	0.65101504
32	0xc05e3c32	-3.472424
33	0xbd3f253c	-0.04666637
34	0xbfafef08	-1.3744822
35	0x3d9c121d	0.07620642
36	0xbc9840c0	-0.018585563
37	0xbf5ccf6a	-0.8625399
38	0x3ff5ea68	1.921216
39	0xbf9ec88c	-1.2404952
40	0xbfa11229	-1.2583667
41	0x3f074c6d	0.5285099
42	0xbf48962c	-0.78354144
43	0xbefcf582	-0.49406058
44	0x400483e7	2.0705507
45	0xbe655b10	-0.22398019
46	0xbff0af7f	-1.8803557
47	0xbf79fbde	-0.97649944
48	0xbf04346f	-0.5164251
49	0xbec4e004	-0.3845216
50	0xbe0e9d25	-0.13927133
51	0xc00d52e1	-2.2081835
52	0x3f76c708	0.9639745
53	0xbc926c50	-0.017873913
54	0xbf294f0c	-0.6613624
55	0xc0240908	-2.5630512
56	0xbfd27d77	-1.6444539
57	0x3f5c2514	0.85994077
58	0xbf1c7f80	-0.6113205
59	0x3d9bd058	0.07608098
60	0xbf3cb308	-0.7371068
61	0xbfab0dda	-1.3363602
62	0xbe324cae	-0.17412063
63	0x3ffb4de0	1.963314
64	0xbf075128	-0.5285821
65	0x3ffe6f29	1.9877673
66	0xbf818336	-1.0118167
67	0xbe215010	-0.15753198
68	0xbf8b76e1	-1.0895654
69	0xc030d4aa	-2.76298
70	0xc07c75cf	-3.9446905
71	0xc00f0abb	-2.23503
72	0x3f34fd38	0.7069888
73	0x3f0c18c6	0.547253
74	0x3f78776b	0.9705722
75	0x3fca287e	1.5793607
76	0x3ef5f5e6	0.48039168
77	0x3f5e2dce	0.8678864
78	0x3f2fc198	0.68654776
79	0xbfeb8d8e	-1.8402574
80	0x3f6970ce	0.9118775
81	0x3e1cf5e2	0.15328172
82	0x3f2b139e	0.6682681
83	0x4085c21c	4.179945
84	0xc012dd33	-2.294751
85	0xbf420486	-0.7578815
86	0xc04500d4	-3.0781755
87	0xc002901b	-2.0400455
88	0xbcc541f0	-0.024079293
89	0xbe07ad20	-0.13249636
90	0x3f48633a	0.7827641
91	0xbf19812e	-0.5996274
92	0xbf6fb8e8	-0.9364152
93	0xbe4ad29d	-0.19806905
94	0x3f881fc1	1.063469
95	0x3fd6939b	1.6763796
96	0x40081d9a	2.1268067
97	0xbf35f50f	-0.71077055
98	0x3d9e2bd8	0.07723206
99	0x3ccbac80	0.024862528
100	0x3dadcecd	0.0848671
101	0xbf871e86	-1.055619
102	0xbfbe8c86	-1.4886634
103	0xbf1223c6	-0.57085836
104	0xbe4fc4f4	-0.20289975
105	0xbf945bf2	-1.159056
106	0x3fc0cd0b	1.5062574
107	0xbf066327	-0.52495044
108	0xbe66e038	-0.2254647
109	0xbf3132b2	-0.6921798
110	0x3e68f7ce	0.2275078
111	0x4005ec14	2.092534
112	0xbf9ca13a	-1.2236702
113	0x3efcda38	0.49385238
114	0xbf18a27c	-0.5962293
115	0x3f9ad89b	1.2097353
116	0xbe248178	-0.16065013
117	0x3fa16e0d	1.261171
118	0xbf978b52	-1.1839392
119	0x3e5e8298	0.21729505
120	0x3e8cb2d4	0.27480185
121	0xbe806ba5	-0.25082126
122	0xbfbdcc15	-1.4827906
123	0x3f1f05d0	0.62118244
124	0x3f084d49	0.5324293
125	0x407260af	3.787151
126	0xc06a6890	-3.662632
127	0xbd843768	-0.064558804
128	0xc02aeee9	-2.670832
129	0x40415114	3.0205736
130	0x3fbacec4	1.459435
131	0xbe68f2c8	-0.22748864
132	0xbee7baa5	-0.45259586
133	0xbf778f90	-0.96703434
134	0xbf0f251e	-0.5591601
135	0x3d13be52	0.036070175
136	0xc0c41041	-6.126984
137	0xbeb62dd0	-0.35581827
138	0x40417eb8	3.0233593
139	0xc08e2077	-4.441463
140	0x3ec5a170	0.3859973
141	0x3c0ad100	0.008472681
142	0xbfcc8998	-1.597949
143	0x3f16116e	0.58620346
144	0x3cf7e628	0.030261114
145	0x3ee6a44d	0.45047227
146	0x401354cd	2.3020508
147	0xbf8af976	-1.085738
148	0xbf22e35c	-0.6362817
149	0xbfbadc49	-1.4598476
150	0xbf58fb10	-0.8475809
151	0xbf060e7c	-0.5236585
152	0x3f116d88	0.56807756
153	0x3fb740d6	1.4316661
154	0xbe99480e	-0.29937786
155	0x3e945560	0.28971386
156	0xbf0674ce	-0.5252198
157	0x3f379ae9	0.7172075
158	0xbc47c0e4	-0.012191985
159	0x3f2266da	0.6343819
160	0xbdae46c8	-0.08509594
161	0xbec154c6	-0.3775999
162	0x3e8d4cec	0.2759775
163	0xbed44df9	-0.41465738
164	0x40079765	2.1186154
165	0xbf750d28	-0.957232
166	0xbe28f94a	-0.16501346
167	0xbf104f38	-0.5637088
168	0x404e0d00	3.2195435
169	0xbfce211c	-1.6103854
170	0xbf27383f	-0.653202
171	0xbf7045c1	-0.93856436
172	0x3f3cf8ad	0.7381695
173	0x402848c7	2.629442
174	0xc005c85e	-2.0903544
175	0x3e3d050c	0.18458956
176	0x3f107cf0	0.5644064
177	0xbf0f960e	-0.5608834
178	0xbbcbfc40	-0.006225139
179	0x3d7a8f14	0.061171606
180	0x3ece0192	0.40235573
181	0xc0211097	-2.5166376
182	0xc01bf81f	-2.437019
183	0x3df659a6	0.12028818
184	0xc04d1b02	-3.2047734
185	0xc0b99962	-5.7999735
186	0x4018fbca	2.390368
187	0x3f53055e	0.82430065
188	0x3cf56f88	0.029960409
189	0x3f40a18c	0.752465
190	0xbf58fb1b	-0.84758157
191	0x3e53e5dc	0.20693153
192	0xbf0e4652	-0.5557605
193	0x3fd33513	1.6500572
194	0x4019ae2d	2.4012558
195	0xbd009c30	-0.031398952
196	0xbf354bdd	-0.70818883
197	0x3e3287f6	0.17434677
198	0xbfe10852	-1.7580664
199	0xbd90ee6c	-0.07076725
200	0xbe3f3ac2	-0.18674758
201	0xbf320d42	-0.6955148
202	0x3f5caaa2	0.86197865
203	0xbebd9f21	-0.37035468
204	0xbf7a5bcc	-0.9779632
205	0x3e6aa33d	0.22913833
206	0xbe79f46d	-0.24409647
207	0x3f3c6139	0.7358585
208	0x3f5e96af	0.86948675
209	0xbea68de1	-0.3253012
210	0x40eb15a4	7.3463917
211	0x3f8a8aea	1.0823643
212	0x3f5667fe	0.8375243
213	0x3ea8fad5	0.3300387
214	0x3f4ee31a	0.8081528
215	0x3e8664a4	0.26248658
216	0x3f4f251a	0.8091599
217	0x3e3bc61a	0.18337288
218	0x3f787b01	0.9706269
219	0xc126ffc7	-10.437446
220	0xbedc2ff6	-0.4300534
221	0xbfa4ec4e	-1.2884614
222	0x3f10caf8	0.56559706
223	0x3f2cca3f	0.67496103
224	0xbf00ecfc	-0.5036161
225	0xbd205890	-0.03914696
226	0xc0472beb	-3.1120555
227	0x3dc7d2b0	0.09756982
228	0xbf52cc20	-0.8234272
229	0x3eb17c15	0.3466498
230	0x3d76d820	0.060264707
231	0x3f65c555	0.8975423
232	0xbfc24854	-1.5178323
233	0x3f1b9dc4	0.60787606
234	0xbf3d376e	-0.73912704
235	0xbebaceea	-0.36485988
236	0x3f8e6683	1.1125034
237	0x3f24ffa6	0.6445259
238	0x3e32e119	0.1746868
239	0x3f037fee	0.5136708
240	0xbf09a44f	-0.5376634
241	0x3e8b286f	0.27179286
242	0x400593e6	2.087152
243	0xbd79e5e4	-0.061010256
244	0x3f0b4f4d	0.5441788
245	0x3ebdafdd	0.37048236
246	0x3f4a9ec4	0.7914851
247	0xbfbfa0d5	-1.4970957
248	0xbfeeabc0	-1.8646164
249	0xbcf228d8	-0.029560491
250	0x3f9db39c	1.2320437
251	0x3da3f33c	0.08005378
252	0x3e1e7a18	0.15476263
253	0x3fc2aaee	1.5208414
254	0x3c331740	0.010930836
255	0x3ee33d0b	0.4438251

actor1.0.bias f4 [64]
0	0xbf941343	-1.1568378
1	0x4061c02b	3.527354
2	0xbe454956	-0.19266257
3	0x3e5bfbfd	0.21482845
4	0xbf9ab844	-1.2087483
5	0x410f1c76	8.944448
6	0xbf6f57c2	-0.9349328
7	0x3f6db9eb	0.92861813
8	0x3fd253de	1.6431844
9	0x3f101534	0.56282353
10	0xbfd85f7e	-1.6904142
11	0xbba0a460	-0.0049024075
12	0xc09e3574	-4.944025
13	0xbf094a62	-0.53629124
14	0x3f8a094a	1.0784085
15	0x3f66c2ac	0.90140796
16	0x3e2b4b0a	0.16727844
17	0x3e98708c	0.29773366
18	0x3f881ff4	1.0634751
19	0xbe48f5a8	-0.1962496
20	0xbed7900c	-0.42102087
21	0xbefa17d8	-0.48846316
22	0x3f43f2b6	0.7654222
23	0xbfa0d578	-1.2565145
24	0xbf8d7968	-1.1052675
25	0xbed02428	-0.40652585
26	0xbe9ad0ca	-0.30237418
27	0xbe098444	-0.13429362
28	0xbf2c3652	-0.67270386
29	0xbf2e2372	-0.68022835
30	0x3dd29c68	0.102837384
31	0xc0465981	-3.099213
32	0xbdc86c48	-0.09786278
33	0x3e0497a3	0.1294847
34	0xbe80afb2	-0.25134045
35	0x3ec855a8	0.3912785
36	0x3e999fe0	0.30004787
37	0x3effb3c8	0.4994185
38	0x3eaaaa75	0.33333173
39	0xbf24f32a	-0.6443354
40	0xbf4bc278	-0.7959361
41	0xbf160aea	-0.58610404
42	0xbefe9f2b	-0.4973081
43	0x3fbed2d0	1.4908085
44	0xbf698f6c	-0.9123447
45	0x3eded947	0.43525144
46	0x3e81ae65	0.25328365
47	0x405ede00	3.4822998
48	0xbed121a6	-0.40845984
49	0xbf230366	-0.6367706
50	0x3fbfcdbd	1.4984661
51	0x3dfb3330	0.122656226
52	0xbdb3a2e8	-0.08771306
53	0x402d7f04	2.7108774
54	0x3faaa0fc	1.3330379
55	0x3fde1222	1.7349284
56	0x3dfd32ae	0.12363182
57	0x3e8ee52a	0.27909213
58	0x3ee00c27	0.43759272
59	0xbf25a3a4	-0.6470282
60	0xc0a5c3e9	-5.180165
61	0x3f9bbc0c	1.2166762
62	0x40cc523c	6.3850384
63	0xbed335c2	-0.4125195

actor1.2.weight f4 [64, 64]
0	0xbe59b7f8	-0.21261585
1	0x3ecd0bc8	0.4004805
2	0x3f38f546	0.7224926
3	0xbd26eab0	-0.04075116
4	0x3f3164e5	0.6929458
5	0x3f744f6c	0.9543369
6	0xbf78ac9e	-0.9713839
7	0x3e8a51a0	0.270154
8	0x3ebc21a7	0.36744425
9	0x3f4ab88e	0.7918786
10	0x3d56c5a0	0.052434564
11	0xbfc07663	-1.5036129
12	0x3f99df3a	1.2021248
13	0x400f2fe8	2.237299
14	0x3fd0b29a	1.6304505
15	0x3f0b1ae9	0.54337937
16	0x3e7da056	0.24768195
17	0x3f611694	0.87925076
18	0x3e542bd6	0.20719847
19	0xbe51791d	-0.20456357
20	0x3dfbe8ac	0.12300238
21	0xbf97d28c	-1.1861129
22	0x3f07d2ec	0.53056216
23	0xbd482710	-0.048865378
24	0xbf105ee7	-0.5639481
25	0x3ed85a1a	0.42256242
26	0x4044fd2c	3.0779524
27	0x3e087788	0.13326848
28	0x3e7637c0	0.24044704
29	0xbfd3157a	-1.6490929
30	0xbd707c8c	-0.058712527
31	0xbff97e82	-1.9491732
32	0x3fab6cfb	1.3392633
33	0xbeca60ca	-0.3952697
34	0x3f9ce87e	1.2258451
35	0x3ecd7b9c	0.4013337
36	0x3ee63217	0.4496009
37	0x3fba22dc	1.4541888
38	0xbf8c77bb	-1.0974039
39	0x3ffefacc	1.9920287
40	0xc0bc149a	-5.877515
41	0x3ed30e10	0.41221666
42	0xbfae80b5	-1.3633028
43	0xbef28f9e	-0.47375196
44	0xbfe8884e	-1.8166597
45	0xbfdbce9c	-1.7172427
46	0xbe07b52c	-0.13252705
47	0x4097bc74	4.7417545
48	0xbec0ab0c	-0.37630498
49	0x3deb2d10	0.11483204
50	0x40037f67	2.054651
51	0x3f7e64c2	0.99372494
52	0xbe9a7140	-0.30164528
53	0xbe231ac4	-0.15928179
54	0xbf01e1d1	-0.50735193
55	0xbe9cb7e1	-0.30609038
56	0x3ffc0215	1.9688135
57	0x3f7eaa83	0.9947893
58	0xbf5a35b4	-0.85238194
59	0x3f7ad9f9	0.9798885
60	0xbe80c1c2	-0.25147825
61	0x3e74d92b	0.23910968
62	0xc055e75d	-3.3422463
63	0xbea93198	-0.3304565
64	0x3efd92d8	0.49526095
65	0xc0d418ce	-6.628028
66	0xc01c4be0	-2.442131
67	0x3f6b4212	0.9189769
68	0xbfd5722c	-1.6675467
69	0x401976bd	2.3978722
70	0x3fb40aa5	1.4065748
71	0x3dc53160	0.09628558
72	0xbf895ff5	-1.0732409
73	0xbe91a5b1	-0.28446725
74	0x3f5e8b85	0.8693164
75	0xbe6bb828	-0.23019469
76	0x40b28c64	5.5796375
77	0x3f40ac22	0.75262654
78	0x3f54fc1c	0.8319719
79	0x3e17ce0d	0.14824696
80	0xbf8c05a2	-1.0939219
81	0x3d904c14	0.07045761
82	0xbe85e64a	-0.2615226
83	0x3e0dc638	0.13845146
84	0xbf0bd33f	-0.5461921
85	0x3f37c352	0.7178241
86	0xbe411fea	-0.1885983
87	0x3f879c6e	1.0594614
88	0xbe1e026e	-0.15430614
89	0xc0a2f24e	-5.092078
90	0xbf9f5da1	-1.2450448
91	0xbe65b45d	-0.22432084
92	0xbf1b74fa	-0.6072537
93	0xbe1ef0ac	-0.15521497
94	0xbe88c498	-0.2671249
95	0xc007a214	-2.1192675
96	0x3e8cf62a	0.27531558
97	0xc07181b2	-3.773541
98	0xbf1bc170	-0.6084204
99	0x3b8e6070	0.0043449923
100	0xc08a50ef	-4.3223796
101	0xbfba1a75	-1.4539324
102	0xc0042bf0	-2.0651817
103	0xc0d0a736	-6.5204115
104	0xbf209f3f	-0.6274299
105	0x3f671972	0.902732
106	0xbd86ab20	-0.06575608
107	0xbf59a1e3	-0.85012645
108	0xbdfd7860	-0.12376475
109	0x3e9da86c	0.30792558
110	0x3e814df8	0.25254798
111	0x3eda2e9b	0.42613682
112	0xc015a48e	-2.3381686
113	0xbf891c5e	-1.0711782
114	0x3d5f0314	0.054446295
115	0x3ea5ae1c	0.32359397
116	0xbf92ca6c	-1.1468024
117	0x3fec5264	1.8462644
118	0xbf0fc2f8	-0.56156874
119	0xbfb62f1a	-1.4233124
120	0xbf1940f0	-0.5986471
121	0x3fcd5893	1.6042656
122	0x3ec07ed8	0.37596774
123	0x3fab6a61	1.3391839
124	0xbdac9bbc	-0.084281415
125	0x3ebb7945	0.3661596
126	0xbeff9cc5	-0.49924293
127	0xc0589d2c	-3.384593
128	0x3d2ec738	0.04267046
129	0x3f824a89	1.0178996
130	0x3c0de600	0.008660793
131	0x3dd0ae1a	0.10189457
132	0xbcbb26d8	-0.02284567
133	0xbfe09dd6	-1.7548168
134	0x3fcb2298	1.5869932
135	0xbeb58904	-0.35456097
136	0x3f1b487d	0.60657483
137	0x3dfb0e50	0.12258589
138	0x3dbb0acc	0.09132919
139	0xbe35d086	-0.17755327
140	0x3ec49fca	0.3840316
141	0xbf0a7434	-0.5408356
142	0x3eb59b3b	0.35469994
143	0xbf68a480	-0.9087601
144	0xbec4bc87	-0.38425085
145	0xc0d1d41a	-6.5571413
146	0x40381cbc	2.8767538
147	0x3ded8850	0.11598265
148	0xbf343294	-0.70389676
149	0x3f6f0dd8	0.933805
150	0x3e1a0ab2	0.15043142
151	0x3f72da58	0.94864416
152	0xbe9fbe34	-0.311998
153	0x3ec108b6	0.37701958
154	0x3e913ee2	0.28368288
155	0xbeeafd88	-0.45896554
156	0xbf7c8088	-0.98633623
157	0x3e76a886	0.24087724
158	0xbfb32cf0	-1.3998089
159	0x3daf2637	0.08552211
160	0xbdaa9138	-0.083284795
161	0xbecaba44	-0.39595234
162	0x3e2e4790	0.17019486
163	0xbd1fa8ec	-0.038979456
164	0x3fc53322	1.540623
165	0x400c55c8	2.1927357
166	0x4033c7a7	2.8090608
167	0x3fdde2d6	1.733485
168	0x40587840	3.3823395
169	0x3f62d2c4	0.8860285
170	0x3f6d195c	0.9261682
171	0x3fa4c565	1.287274
172	0x3f05338c	0.5203178
173	0x3d5bc2a0	0.053652406
174	0x3f275fc5	0.6538051
175	0xbf33f698	-0.7029815
176	0x3fc8638c	1.5655379
177	0x3ea381b0	0.3193488
178	0xbe2c4dea	-0.16826597
179	0xc0141084	-2.313508
180	0xbf25ddcd	-0.64791566
181	0x3f03880e	0.5137948
182	0x3f252000	0.64501953
183	0xbed5a63a	-0.41728383
184	0x3f377c04	0.7167361
185	0xbf21cfe6	-0.6320785
186	0xbf8145c0	-1.0099411
187	0xc0e081cc	-7.0158443
188	0xbf7cb7c2	-0.9871789
189	0x3f8dea63	1.1087154
190	0x3ffebcb2	1.9901335
191	0xbf420bd4	-0.757993
192	0x3f248904	0.6427157
193	0x3e0184f4	0.12648374
194	0x4007d708	2.1224995
195	0x3fa823f9	1.3135978
196	0x3e8e0588	0.27738595
197	0xc094baae	-4.647788
198	0xbfa31aba	-1.2742531
199	0xc08cbfbd	-4.3984056
200	0xbe9efb90	-0.31051302
201	0xbdaea6de	-0.08527921
202	0xbf3175b6	-0.6932024
203	0xbe4db6dc	-0.20089287
204	0x3d4b2750	0.04959804
205	0xbe3d10b2	-0.184634
206	0x3e40686c	0.18789834
207	0xbba4a240	-0.0050242245
208	0x40232519	2.5491393
209	0xbfc1f91e	-1.515415
210	0xc017afbc	-2.370101
211	0x3f0f262e	0.5591763
212	0x4007f99a	2.1246095
213	0x3f094d08	0.53633165
214	0xbffc19c0	-1.9695358
215	0xc09a1a84	-4.815737
216	0x3fdca34a	1.7237332
217	0xbf8351a0	-1.0259285
218	0xbf057588	-0.52132463
219	0xbf6feb7e	-0.9371871
220	0xbec1d39c	-0.37856758
221	0x3e737b4c	0.23777503
222	0x3f1c7d32	0.6112853
223	0xbf39d792	-0.7259456
224	0x3fea5a0e	1.8308733
225	0xbef29d70	-0.4738574
226	0x3f577e54	0.84177136
227	0xc01bdff4	-2.435544
228	0xbead88c4	-0.33893406
229	0x3cdf083a	0.027225602
230	0x3ec18c0c	0.3780216
231	0xbd7c3892	-0.061577387
232	0x3fbdd577	1.4830769
233	0x3e829bc6	0.2550947
234	0xbed2b57e	-0.41154093
235	0x3d9201b7	0.07129233
236	0xbf80b5b6	-1.0055454
237	0x3f43aca9	0.76435333
238	0xbfd186d4	-1.6369271
239	0xbee51079	-0.4473913
240	0x3fc45065	1.5337034
241	0xc066fe8e	-3.6092868
242	0xbde97278	-0.11398786
243	0x3f81fedc	1.0155902
244	0xbdd7c130	-0.105348945
245	0x3fbf899b	1.4963869
246	0xbf8af54d	-1.085611
247	0xbf8fca72	-1.1233656
248	0xbe409b0e	-0.18809149
249	0xbe1274a6	-0.1430231
250	0xc0ae3d0c	-5.444952
251	0x408369a1	4.106644
252	0xc055b55c	-3.3391943
253	0x3f9e25b2	1.2355254
254	0xbd4c5194	-0.049882486
255	0x3f24bbb0	0.6434889

actor1.2.bias f4 [64]
0	0xbf934438	-1.1505194
1	0x3e7a3200	0.24433136
2	0xbef7f420	-0.4842844
3	0xbf4377fc	-0.76354957
4	0xbeaad0e7	-0.33362505
5	0x3b902380	0.004398763
6	0xbd4d27b0	-0.050086677
7	0xbfa5ee24	-1.29633
8	0xbedc4020	-0.43017673
9	0x3fc1a670	1.5128918
10	0xbfbfa8ee	-1.4973428
11	0xbf8e7f48	-1.1132593
12	0x3ec8590d	0.3913044
13	0xc0380718	-2.875433
14	0x3e3e45f5	0.18581374
15	0x3e366a8d	0.17814083
16	0x3f323c64	0.696234
17	0xbeb73e44	-0.35789692
18	0xc0284944	-2.6294718
19	0xbb0c5400	-0.0021412373
20	0x3eef8686	0.4678232
21	0x3e4c22bd	0.19935127
22	0xbe864289	-0.26222637
23	0xc0cc8230	-6.390892
24	0x400123fe	2.0178218
25	0x3f07934c	0.5295913
26	0xbe2bf4a0	-0.16792536
27	0xbf16110b	-0.58619756
28	0xbdc0eb88	-0.09419924
29	0xbdd2cbf2	-0.10292806
30	0xbdaaf850	-0.08348143
31	0xbfd5d278	-1.6704855
32	0xbed71075	-0.42004743
33	0x3d9db1c0	0.07699919
34	0x3eeb7798	0.4598968
35	0xbffea168	-1.9893007
36	0x3f8c1288	1.0943155
37	0xbc498b00	-0.012301207
38	0xc0141645	-2.3138592
39	0xc0937592	-4.608102
40	0xbe39cfc7	-0.18145667
41	0x3e05a07e	0.13049504
42	0x3eacb093	0.33728465
43	0xbe83433c	-0.25637233
44	0x3daf0f5e	0.08547853
45	0xc09ace6e	-4.837699
46	0x3fcea42a	1.6143849
47	0x3f1b7d58	0.60738134
48	0x3fe8a445	1.8175131
49	0x3ceb6f38	0.028739557
50	0x40b8461e	5.758559
51	0xbd0fdb00	-0.035120964
52	0x3f3ac11b	0.72950906
53	0x3f08d05f	0.5344295
54	0xbf52f965	-0.82411796
55	0x3de04b78	0.109518945
56	0xbe5c5f2f	-0.21520685
57	0xbf977a12	-1.1834128
58	0xbf0c81bb	-0.54885453
59	0x3e9b0c7a	0.30282956
60	0xbd4f2320	-0.050570607
61	0x3f43c16e	0.76467025
62	0x3f13379e	0.5750674
63	0xbf785510	-0.97004795

actor1.4.weight f4 [6, 64]
0	0xc0282abf	-2.627609
1	0x3dbc4de6	0.091945454
2	0xbfe11bc8	-1.7586603
3	0xc03e9df6	-2.9783912
4	0xbf0e5cba	-0.5561024
5	0xbe994b46	-0.29940242
6	0x3de2798d	0.1105834
7	0xbf6d64d0	-0.9273195
8	0x3f2f5819	0.684938
9	0xbf2b3241	-0.66873556
10	0xbfaae110	-1.3349934
11	0xc00d1e96	-2.2049918
12	0xbd999668	-0.07499391
13	0xbf1bc3c8	-0.60845613
14	0x3e1c9f82	0.15295222
15	0x3dbabb69	0.09117777
16	0xc028d1f5	-2.6378148
17	0x3f23d260	0.6399288
18	0x3f11f852	0.5701953
19	0x4011db76	2.2790198
20	0xbf4378a7	-0.76355976
21	0x3ed7aa12	0.4212194
22	0xc04288c2	-3.039597
23	0x3dedb458	0.116066635
24	0x3f1f5a60	0.62247276
25	0xbe7bf56f	-0.24605344
26	0xbe680bba	-0.22660723
27	0xbf5d8d88	-0.86544085
28	0x3fd0f8ad	1.632589
29	0x3f74e69c	0.9566438
30	0xbf030e0e	-0.5119332
31	0xbe1bac19	-0.15202369
32	0xbebd6bfc	-0.36996448
33	0x3f785313	0.9700176
34	0x3ffc0f0c	1.9692092
35	0x3ed0c5b8	0.40775847
36	0x3ef8b1a4	0.4857303
37	0x40a18714	5.047739
38	0xbfe19336	-1.762305
39	0x3f26eec5	0.65208083
40	0xc063b675	-3.5580113
41	0xbf5f08bc	-0.871227
42	0xbfbe2184	-1.4853978
43	0x3fe0b5c8	1.7555475
44	0x3fdde06e	1.7334116
45	0x3ea1333b	0.31484398
46	0xbc040c40	-0.008059561
47	0x3f2d2d23	0.67647
48	0x3e175319	0.14777793
49	0xc04dc230	-3.2149773
50	0x3f9799b0	1.1843777
51	0xbee5463c	-0.44780147
52	0x3fa5d420	1.295536
53	0x3cd3efe8	0.025871232
54	0x3f50aada	0.815107
55	0xbfb82d89	-1.4388896
56	0xbd20f500	-0.03929615
57	0x3e51fdbe	0.20506951
58	0xbe16a8aa	-0.14712778
59	0xbe9ad76c	-0.3024248
60	0x3fd82639	1.6886665
61	0x4064036a	3.5627084
62	0x3f3e3b7a	0.74309504
63	0xbedbb1fd	-0.42909232
64	0x403c340c	2.9406767
65	0xc07f25cc	-3.986682
66	0x3ecb3094	0.396855
67	0x4012794c	2.2886534
68	0x3f3dafa1	0.74096113
69	0xbee0705b	-0.4383572
70	0xbebe45ba	-0.37162572
71	0xc0172e38	-2.362196
72	0xbf0f22f6	-0.5591272
73	0x3e6b1cb0	0.22960162
74	0x3fa1832e	1.2618158
75	0xbf1847d8	-0.59484625
76	0xbd33712a	-0.043809094
77	0x40f33810	7.6005936
78	0xbf71bfb1	-0.9443312
79	0xbede8ffc	-0.43469226
80	0x3fb29e94	1.3954644
81	0xc05f536c	-3.4894667
82	0x403ec9cc	2.9810667
83	0x40357592	2.835301
84	0xc07126d3	-3.7679946
85	0x3e6a22d2	0.22864845
86	0x3ec3122f	0.3809981
87	0xbf77cca7	-0.9679665
88	0x403269b0	2.7877007
89	0x3f11f63e	0.5701636
90	0xbe5dfe3a	-0.21679011
91	0x3f8b75f1	1.0895368
92	0x3e5542c7	0.20826255
93	0x40011d82	2.017426
94	0x3df4e690	0.11958039
95	0x3fe66668	1.8000002
96	0x3f49316a	0.78591025
97	0x3f6e6585	0.93123657
98	0x40318aa9	2.7740881
99	0x3ee3a895	0.44464555
100	0x4056236d	3.3459122
101	0x3ec6780c	0.38763463
102	0xbea0bccc	-0.3139404
103	0x3d5abef0	0.05340475
104	0x3faf6d74	1.3705277
105	0x3f32addd	0.69796544
106	0xbdd00d33	-0.101587676
107	0x3d20cae0	0.039255977
108	0x40884e8a	4.2595873
109	0x3eb31334	0.34975588
110	0xbf731f14	-0.94969296
111	0xbef515ef	-0.47868297
112	0xbf4d37b6	-0.80163133
113	0x3c96e0c0	0.018417716
114	0xbfb086cd	-1.3791138
115	0xbf2545b6	-0.64559495
116	0xbec7e89b	-0.3904465
117	0x3ed1408a	0.40869552
118	0xbf4cd6ce	-0.80015266
119	0x3f965992	1.1746085
120	0xbd459fb8	-0.048248023
121	0xbe309385	-0.17243774
122	0x3f116703	0.5679781
123	0x40150b9f	2.3288343
124	0xbf50b0dd	-0.8151987
125	0xbe64066f	-0.22268079
126	0x3ffccb00	1.9749451
127	0xbe7c2836	-0.24624714
128	0xbfab0b76	-1.3362873
129	0xbca17488	-0.019708887
130	0xbe4ca57f	-0.19985007
131	0xc04ca88c	-3.1977873
132	0xbd6c51b8	-0.05769512
133	0x40059bd2	2.0876355
134	0xbfbc1310	-1.4693317
135	0x3cb37740	0.021907449
136	0x3fd60d6a	1.6722844
137	0xbeaa1a0f	-0.33223006
138	0x3f31bdbc	0.69430137
139	0x3e88da9b	0.26729283
140	0x3f47eb32	0.78093255
141	0x3d9971f8	0.07492441
142	0x3f69ec6d	0.9137638
143	0x40036d52	2.0535474
144	0xbe929a5e	-0.28633398
145	0xbf071f99	-0.5278259
146	0x4051781c	3.272956
147	0x3f68a615	0.9087842
148	0x4025754e	2.5852847
149	0xbe1c3962	-0.15256265
150	0x3fc223ab	1.5167135
151	0x3f12c28a	0.57328093
152	0xbe85b480	-0.26114273
153	0xbe12606e	-0.14294598
154	0xbd9fa7f4	-0.077957064
155	0x401159ac	2.2710981
156	0x401121c4	2.267686
157	0x3f070338	0.52739286
158	0xbfb5d392	-1.4205191
159	0x3eb91c98	0.36154628
160	0x4024d9d7	2.575796
161	0x3f0edb6d	0.5580357
162	0x3ee4f9d0	0.44721842
163	0xbe87ea4a	-0.26545936
164	0x3e89e106	0.26929492
165	0x3e875927	0.26435205
166	0xbecb2c44	-0.3968221
167	0xc014fc81	-2.3279116
168	0x402ae47e	2.670196
169	0xbfe500d9	-1.7890884
170	0xbcf1f1b0	-0.02953419
171	0x3e11502b	0.14190738
172	0xbf203128	-0.62575006
173	0xbd289b64	-0.041163817
174	0xbe818753	-0.25298557
175	0xbefb7616	-0.4911353
176	0xbe58a6b7	-0.21157347
177	0xbed64dc8	-0.41856217
178	0x3f1e3a86	0.6180805
179	0xbe5a94e9	-0.21345867
180	0xbf9b6bec	-1.214231
181	0x3d8622da	0.06549616
182	0x3f8e84ba	1.1134255
183	0xbf069734	-0.5257447
184	0x3e8b954d	0.27262345
185	0x3dde5a37	0.10857051
186	0x3e87624e	0.26442188
187	0x3cfa1d38	0.03053151
188	0x3ed164e4	0.40897286
189	0xbf946866	-1.159436
190	0x3f21f614	0.6326611
191	0xbf2fc63b	-0.6866185
192	0x40e0913e	7.0177298
193	0xc0a8edbf	-5.2790217
194	0x3e64c856	0.22342047
195	0x3f262000	0.6489258
196	0xbff8c2dd	-1.9434468
197	0x3fd4761d	1.6598545
198	0xbeaacd6d	-0.33359852
199	0x409659e9	4.6984754
200	0xbf932146	-1.1494529
201	0x3eef137a	0.46694547
202	0xbe9bde42	-0.30443007
203	0x3f16d86a	0.5892397
204	0xbf8ca61c	-1.0988193
205	0x3f5f3a56	0.8719839
206	0xbf939a7c	-1.153152
207	0x3ed57045	0.41687217
208	0xbfc44c7f	-1.5335845
209	0x3c3a91a4	0.0113872625
210	0xbf9dab28	-1.2317858
211	0x3d35bb50	0.04436809
212	0x40326bc2	2.787827
213	0xbf8e3103	-1.1108707
214	0xbf4650d2	-0.7746707
215	0x3d82a588	0.06379229
216	0xbf9d7956	-1.2302654
217	0x3f78152a	0.96907294
218	0xbfe33cfa	-1.7752984
219	0xbd3a3b1e	-0.045466535
220	0xbd3ae940	-0.0456326
221	0xc04af73e	-3.1713405
222	0x3f71eb04	0.9449923
223	0xbfc08680	-1.5041046
224	0x3ee82c01	0.45346072
225	0xbf404226	-0.75100935
226	0x400601c5	2.093858
227	0x40c1437e	6.039489
228	0x3ebf6016	0.37377995
229	0x3eeef124	0.4666835
230	0xbf273371	-0.6531287
231	0x3ef48c3c	0.4776324
232	0x3ee959b3	0.45576248
233	0x3e7464a8	0.23866522
234	0x3f1186a6	0.5684608
235	0xc02536de	-2.5814738
236	0xbf2e9926	-0.68202436
237	0xc03b6468	-2.9280033
238	0x3d835972	0.06413545
239	0xbf323b93	-0.69622153
240	0xc01ffe8e	-2.4999118
241	0x407b618c	3.9278288
242	0x3d7cd0df	0.061722632
243	0x3eb50c62	0.3536101
244	0x3c3ee700	0.011651754
245	0x408c4788	4.383732
246	0x4004721c	2.0694647
247	0xc03715f2	-2.8607144
248	0x3febecdc	1.8431659
249	0x3f4fb9fa	0.8114315
250	0xbeabc8de	-0.33551687
251	0x3eaefd71	0.34177735
252	0x3fbc34b2	1.4703581
253	0x3ff7b8d3	1.9353279
254	0xbe1e3466	-0.15449676
255	0xc0986866	-4.762744

actor1.4.bias f4 [6]
0	0x3cdbc7c0	0.026828647
1	0x3e26074e	0.16213724
2	0x3fb8f34b	1.4449247
3	0x3da0067c	0.07813737
4	0xbe968026	-0.29394644
5	0x3fd2722b	1.6441091
