examples/Evolutionary-Reinforcement-Learning/simple_no_pool/Models/best_sofar.pt (torch, 27567 bytes, 6 tensors)

actor1.0.weight f4 [64, 28]
00000000: a294 f53d 2e97 5ebe 0e62 03bf 1909 dabe
00000010: 1e76 d8bf 268a b03f 7436 8dbf aeb5 ae3e
00000020: 403a 843e f716 f73e 6582 133f e603 3bbf
00000030: 0f80 8dbe 0756 bc3f 80db ab3f 5469 733e
00000040: b856 81bd 7086 3dbc a775 35be bca4 fcbe
00000050: c7c7 96be 7670 da3d 42b0 77be 2000 d6bb
00000060: 77dc 08bf 0aa7 b6be 40be 1cbf e003 e6be
00000070: 6286 db3f 1b0c 0a3e 2ddf 963f ab18 20bf
00000080: 5894 6a3f e945 08bf 6d61 c2bf 192b 263f
00000090: 2376 193f b50e d9be b2be f9be 00c0 71b9
000000a0: 1cb3 ce3f 4c42 a13d 62a6 adbe ca1f 61be
000000b0: 35da 16be b065 e53c 47da 45bf a262 4dbf
000000c0: b9bc b63f cca9 cabd 9afb 4abf 2260 003f
000000d0: ad8b db3e c65f e63e ab7d 8fbf 5e55 d5bd
000000e0: 0028 633a 8d1a 833e f26f d73e 2ac4 a3bf
000000f0: 6cf4 20bf 7261 a53f 4847 d5bc bcd5 983c
00000100: b6d8 40be 886c a23d b350 4d3f 7e65 193e
00000110: 9091 da3f 26c7 ea3e 7e30 fb3e aaf2 d8bf
00000120: 05ce 0abf 80d0 fa3b a6c9 8ebe a50b 0b40
00000130: 48c9 ea3c 5375 20be 81db 85be 228e 0d3f
00000140: 6cbf 1d3f 9b94 1fbf 5e97 553e 20ab a63c
00000150: b8cc 69be 2bc9 c33e ac98 943d 04e2 59be
00000160: 7e7e 433f 52ba 1cbf e2ac ac3e 288e 16bf
00000170: 5212 c53e 24b7 393f 5cb7 61bf ba2b 643e
00000180: faa8 0cbf b3a3 193f 4867 20bf ac07 debe
00000190: ca72 1240 9fa7 a3be 8cb6 933f 43e3 06bf
000001a0: 6efc 72bf 94e0 853f 7aa7 f0be d107 2bbf
000001b0: d2e9 443f 1061 283f 5e34 393e 5145 883e
000001c0: 7ac2 ea3e 56b3 253f a6d2 f5bb b4bd 9fbf
000001d0: 7e58 05bf 0090 ab3e dc15 433f 8cc5 893e
000001e0: 9db3 10bf c1f9 8c3f 2128 2d3f ec95 783f
000001f0: ba84 ac3f a3d9 0fc0 907c e1bd 56ec 04bf
00000200: 9a4f 34bf 88df f63e a235 003f 663e dabe
00000210: 4c4b 89be 4b9b 06bf b0db 14bf c521 d3be
00000220: a92e 16bf 5bf3 5dbf 3020 5bbf 1a96 09bf
00000230: f043 9e3f 0e56 8bbf b553 d63e 7798 b73f
00000240: 267c c0be 0270 5dbe ca96 97be 7867 b3be
00000250: 1426 c5be 6b18 d23e 24c0 803f fbda 533f
00000260: 1ec2 36be 8e3d 4ebf bb22 99be aab9 b13e
00000270: 3cd6 3cbf 2c2e 17bf 621c 2bbf c4d7 b73d
00000280: 6631 74bf 7cd3 14bf cc5a 20be e823 a53d
00000290: 1b56 e13d c4f7 05bf 04bf a43e d4db 1abf
000002a0: edad 70bf a956 39bf 0cf2 ad3f ee8a b13e
000002b0: 9b45 653d 3caa aebf 9dd5 26bf b0ae 4ebf
000002c0: ab42 273f 6eb9 63bf 52aa ccbf 3e56 983e
000002d0: 0091 99ba 00e7 b93d 344b 4f3f 0883 b33d
000002e0: 1659 103f b32f 09be 5cd7 1bbe b80e d23e
000002f0: 18a0 b5be ac92 da3e a046 db3d 6e2b bf3e
00000300: 9daa 8ebe 0cbd 69bf 3a33 94bf 3e10 443f
00000310: 5e27 e23d ec8d 8c3e b00b 973d 52c2 b93d
00000320: 3a97 7f3e 4886 30bf a0c2 5e3d 5872 16bf
00000330: 7110 a6be e07a 1a3d 07b0 78bf 1a05 1d3e
00000340: 4c75 0fbe e1aa aabf 66c9 963c f5e5 143f
00000350: 68d5 8b3f 9647 babf 4e53 b83f 3011 513e
00000360: 01a6 bdbe 2dc3 a03e bf43 86be 36e0 42be
00000370: e382 16bf 32a8 41bf 02f0 2e3f 4660 abbe
00000380: 5ce7 0d3e 5c95 523e 0235 54be 8d52 c93f
00000390: 06be 8ebd b419 eabe 96f1 63be bcfc 263d
000003a0: 7e87 0740 0f7b 173f 9b00 b33e a142 323f
000003b0: 0b45 c33e 746f ef3e 44e0 27bd 3304 2b3f
000003c0: 1842 763e 93f4 16bf 449f 00bd 3681 88bf
000003d0: a5d7 2d3f 4c16 d6bf a2b0 253e dea7 3bbf
000003e0: 6869 2bbd 90c6 a1be f2d4 afbe c42b a8bd
000003f0: a97d 883f 350b 11bf 5c4f 6a3e 1ae8 b33f
0.1199124 -0.21737358 -0.51321495 -0.42585066 -1.6911047 1.379216 -1.1032243 0.34122986
0.2582569 0.48259708 0.5762084 -0.73052824 -0.27636763 1.4713753 1.3426361 0.23770648
-0.063153684 -0.011567697 -0.17720662 -0.49344432 -0.29449293 0.106659815 -0.24188331 -0.0065307766
-0.534614 -0.35674316 -0.612278 -0.4492483 1.7150385 0.1348118 1.1786858 -0.6253764
0.91632605 -0.53231674 -1.5185982 0.6490951 0.5994589 -0.42394033 -0.487783 -0.00023055077
1.614841 0.07873973 -0.33916003 -0.21984783 -0.14731677 0.02800259 -0.7728619 -0.80228627
1.4276344 -0.098956674 -0.79290164 0.5014669 0.42880002 0.44994944 -1.1210226 -0.10416673
0.0008665323 0.25606194 0.42077595 -1.279424 -0.6287296 1.2920363 -0.026034966 0.018656604
-0.18832669 0.07930857 0.8020126 0.14980122 1.7075672 0.45855063 0.49060434 -1.6949055
-0.5422061 0.0076542497 -0.2788822 2.1725857 0.028660432 -0.15669756 -0.2614403 0.55295
0.6162021 -0.6233613 0.20858523 0.02034527 -0.22832 0.38239416 0.07255682 -0.21277624
0.76364887 -0.612218 0.3372565 -0.58810663 0.3849054 0.72545075 -0.8817041 0.22282305
-0.5494534 0.6001541 -0.62657595 -0.43365228 2.2882562 -0.31963822 1.1540084 -0.52690524
-0.9491643 1.0459161 -0.47002774 -0.668088 0.7691928 0.65773106 0.18086383 0.26615384
0.458515 0.6472677 -0.007501918 -1.2479768 -0.52088153 0.335083 0.7620523 0.2690853
-0.5652407 1.1013719 0.67639357 0.9710376 1.3478005 -2.2476585 -0.110100865 -0.5192312
-0.7043396 0.48217416 0.5008184 -0.4262573 -0.2681526 -0.5258071 -0.58147717 -0.41236702
-0.5866495 -0.86699456 -0.8559599 -0.5374466 1.2364483 -1.0885637 0.41860738 1.4343404
-0.37594718 -0.21624759 -0.2960723 -0.35039878 -0.38505614 0.41034254 1.0058637 0.8275601
-0.17847487 -0.80562675 -0.2990931 0.34711963 -0.73764396 -0.5905483 -0.66840184 0.08976701
-0.95387876 -0.581352 -0.15659636 0.08063489 0.110027514 -0.52331185 0.32176983 -0.6049168
-0.9401539 -0.7239786 1.3589492 0.34676307 0.055974584 -1.3645701 -0.651697 -0.807353
0.653361 -0.8895482 -1.5989478 0.29753298 -0.0011716187 0.09077263 0.80974126 0.087652266
0.56385934 -0.13397102 -0.15218872 0.41026855 -0.35473704 0.42690027 0.1070683 0.37337822
-0.27864543 -0.9130409 -1.1578133 0.76587284 0.11042665 0.27452028 0.07375276 0.09070267
0.24960032 -0.68954897 0.054384828 -0.58768225 -0.3243442 0.03771484 -0.97143596 0.15333977
-0.14009589 -1.3333398 0.018406581 0.58163387 1.0924501 -1.4553096 1.4400423 0.20416713
-0.37040713 0.31398907 -0.2622356 -0.19030842 -0.5879347 -0.7564727 0.6833497 -0.33471888
0.13857788 0.20564789 -0.20723346 1.5728317 -0.06969838 -0.45722735 -0.22260126 0.04076837
2.1176448 0.5917215 0.349614 0.6963292 0.38138613 0.4676472 -0.04098536 0.6680328
0.2404865 -0.5896694 -0.031401888 -1.0664432 0.6790717 -1.6725554 0.16180661 -0.7330302
-0.04184857 -0.31596804 -0.34342152 -0.08211473 1.0663348 -0.56657726 0.22881836 1.4055207

actor1.0.bias f4 [64]
00000000: c384 68bf 5e89 133f 44e9 863f 7fdd 29be
00000010: f009 85bf 9397 963e eafb 54bf 92d4 98bf
00000020: 9c78 64be ae29 27bf 6d02 5cbd 5d62 acbf
00000030: 56fa 1ebe 9874 a5be 9a80 16bf 7883 293f
00000040: 001a c93e 5c42 963f 49a2 f13e 4bd9 babe
00000050: d023 9d3f bd59 09be 4aa7 18bd 1477 e53f
00000060: 743b 9abf 8061 8f3c 1e82 e7be 00a7 8a3c
00000070: fa5b 163f b23e 19bf 10fc ac3c cea3 0d40
00000080: db75 59bf c0a8 d93e 74f3 63be 6e7a 16be
00000090: a20d 343f d149 9a3d a89b 793f 3152 79bf
000000a0: cedc a83e a612 3ebf de8c 59be e804 8cbf
000000b0: 4049 373b 643e c7be dc33 57bd a252 813f
000000c0: c0af 283e b6ce 843f c463 593f 34d9 4b3f
000000d0: f8a1 a73d cee6 4e3e cc1b 643e a0da 73bf
000000e0: 9453 ae3e 7085 473d f6ef 383f aef1 bdbf
000000f0: 6629 c6bd e5e6 3b3f 76ef 0ebf e891 a33e
-0.9082758 0.5763148 1.0539937 -0.165884 -1.0393658 0.29412517 -0.8319689 -1.1939871
-0.22311634 -0.65297973 -0.05371325 -1.3467518 -0.15525183 -0.32315516 -0.5878998 0.6621623
0.3927765 1.1739001 0.47194126 -0.36493906 1.2276554 -0.13413139 -0.037268914 1.7926965
-1.2049394 0.017502546 -0.4521646 0.016925335 0.58734095 -0.5986129 0.021116287 2.2131228
-0.8494546 0.4251156 -0.22260839 -0.1469514 0.703333 0.075336106 0.9750314 -0.9739104
0.3298096 -0.74247205 -0.21245143 -1.0938997 0.0027967244 -0.38914788 -0.05253969 1.0103343
0.16473293 1.0375583 0.84917855 0.796283 0.0818519 0.20205233 0.22276229 -0.9525547
0.3404814 0.04871124 0.7224115 -1.483938 -0.09675865 0.7339919 -0.5583414 0.31947255

actor1.2.weight f4 [64, 64]
00000000: 5672 683e c625 6ebf 34c6 14bf e81f ce3e
00000010: 98d4 3ebf 7d61 1a3f 0e69 743f 64ca e3be
00000020: 94a1 60bf 0127 71be c80b 14be 642e 683f
00000030: 69c2 913e d349 833f 70ac 36be b7cc 81be
00000040: a636 b4be 9056 2c3c 789c 53bd b41d 2a3e
00000050: 8fbe a13e d236 a73e acc0 f9be f1e4 03bf
00000060: 2e45 c7be 922f b43e 60a2 c83e e506 c6be
00000070: bea5 4abf 859a cebd d62e 5dbe 107f ccbf
00000080: f872 e93d 591b 973e b82e 99be b878 0a3f
00000090: 6202 95be fbea 5a3f d6a7 f2be 2011 593c
000000a0: 64c6 1e3f 48fb 00bf f12e 313f b6bb 9abe
000000b0: a082 17bf b5e5 173e c2c5 8e3e 7244 b3bf
000000c0: b43b 313f c04f 1abf f037 633f e81a eabd
000000d0: 2438 fd3e 7c7d 203d 66de 55bf 9d50 8a3f
000000e0: 303b 93be fb49 66bf e484 8ebe 7a06 913f
000000f0: e235 42be 022a 823f de5b 77be 2a9c 36be
00000100: a4a7 06bf 92ae 9c3e 4099 00bc a2c1 8b3e
00000110: 206b fb3c 59a4 8b3e c04d 313e 6a9d 3cbf
00000120: 8037 0e3e 1040 a63f 4ee3 b9be 12a6 39bf
00000130: 1147 723f 4c7e a8bf 9c80 ecbe ae91 9e3e
00000140: 5e36 c03d bc3c 78bd 1e87 babe 761e 1bbf
00000150: 5c2d 25bd e355 cd3e 9a33 bbbe 7477 34bf
00000160: d462 64bf 785b 37bd 5675 1ac0 b4e1 1bbf
00000170: b0e2 34be ac18 393f aa7f 41bd a423 793e
00000180: 9a0e f6be aa25 f6bf 9c6a 40bf 700f acbc
00000190: 035f 42bf 795d 373f b7ad 8ebe a2ad 71be
000001a0: 88e7 aabe 440f 2bbf 2653 213e aabf 013f
000001b0: 498f 79bf a1ac bd3d 3890 6d3e adfc a83d
000001c0: 559b 993e 2acc 6ebf 6df8 a33f 56dc 02bf
000001d0: 37dd 9d3e 0a93 7ebf d4bf 743e ae27 39be
000001e0: 3740 62bf da9b 29bf 8e9a acbe 454f adbe
000001f0: 36ed 2dbf bed8 a83f d702 7d3e 42b2 b9be
00000200: 36bb 9cbf 55f9 113f 837b 8fbf 4182 2f3e
00000210: d0f7 59bd f603 a2bd 2f62 c7bd e254 a93e
00000220: 9c65 113f 9fd4 3abf 6866 eabc 8f74 1d3f
00000230: 378f 593f 9ab1 6ebe ff9a 80be 9764 86be
00000240: ea35 44be 98de 5f3e 8da6 723f 9440 673e
00000250: 00d6 ca3b 3e80 743f 3ee3 2bbe b269 6cbf
00000260: 40b7 4b3d 332c f33e cab8 8f3f bcda 253f
00000270: 4c1a e1be 6684 713e a520 203f 4237 7cbe
00000280: 7813 6f3f c802 ba3e 1797 57be 00d1 603e
00000290: bcd1 433f 00c2 193f 9ec5 223f 7af0 efbe
000002a0: 49b9 86bf d8fa 833e fab3 a3be fe23 41bf
000002b0: 6eed 75bf 55e1 64be 04f4 113d c866 70bf
000002c0: 7bfe d7bd 827b 1abf 9275 43be 6a93 8abf
000002d0: fce0 093f 40d8 37be e44f 35be 4cc6 bf3e
000002e0: 1e83 5a3f 3ba3 4f3f f66a 67be 812b a1bd
000002f0: 348f e03f b069 aabe 18b8 e33c 1466 8bbf
00000300: 08dd 02bd 205d 73bf 3219 8dbe 4f76 12bf
00000310: b88d 0b3e ae5f 11be 7163 b9bf 0475 54bf
00000320: 49b0 fbbe b6ee 51bf e895 9cbe 7143 f53e
00000330: 84c8 74be 0492 363d 6278 563e 6641 a1bf
00000340: d18a 753e bd43 9c3f 6c82 43be 464a 5b3e
00000350: eaa7 93bf 4a97 afbe a5f1 ebbd f59d 48bf
00000360: c4e3 2d3f b862 ad3f c828 d5be 3ca3 abbe
00000370: b2e6 cd3c d848 93bf 7fb7 153f 3cd1 3c3e
00000380: 034d 97be 7cac 68be 3c5a 6a3f d805 003d
00000390: 4d9d 2a3e c05d 293e f982 07bf 0b84 c2bf
000003a0: fe61 fc3f b00d 25be 468f 233f c421 43be
000003b0: 6486 c1bd 3ee7 06be be0f 653f 96fd 1440
000003c0: 95fb 01bf 69e5 8ebf d422 583d 8fce 84be
000003d0: f8af 4fbf 71b8 00be 722b a2be daa0 0b3f
000003e0: a8f4 84bc c285 bf3d 6416 123f c40b afbe
000003f0: 3480 bbbf 42d1 68bf 26b0 29be a88b 813d
0.22699866 -0.9302639 -0.58114934 0.40258718 -0.7454314 0.60305005 0.954728 -0.4449035
-0.8774655 -0.23550035 -0.14457619 0.90695786 0.28468636 1.0256904 -0.17839217 -0.25351498
-0.35197943 0.010518685 -0.051662892 0.16612893 0.31590697 0.32659012 -0.4877981 -0.5152121
-0.38919967 0.35192543 0.39186382 -0.38677135 -0.7915915 -0.10088066 -0.21599898 -1.5976276
0.11398882 0.29513052 -0.29918456 0.5409045 -0.2910338 0.855148 -0.47393674 0.013248712
0.6202147 -0.50383425 0.6921225 -0.30221337 -0.5918369 0.1483372 0.27885252 -1.4005263
0.69231725 -0.6027794 0.8875723 -0.11430913 0.49456894 0.03918217 -0.8354248 1.0805851
-0.28756094 -0.89956635 -0.27835763 1.1330101 -0.18965867 1.016907 -0.24156138 -0.1783301
-0.5259955 0.30601937 -0.007849038 0.27296168 0.03069073 0.27273825 0.17314816 -0.73677695
0.13888359 1.29883 -0.36306232 -0.7251903 0.9463969 -1.3163543 -0.4619187 0.3097052
0.0938537 -0.060604796 -0.3643121 -0.60593355 -0.04032646 0.4010459 -0.36562806 -0.7049477
-0.892133 -0.044764966 -2.4134116 -0.6089127 -0.176646 0.7230327 -0.04724089 0.24330002
-0.48058015 -1.9230244 -0.75162673 -0.021003455 -0.75926226 0.71627 -0.2786691 -0.23601392
-0.3337977 -0.6682017 0.15754375 0.5068308 -0.9748426 0.09261442 0.23199546 0.08251319
0.3000132 -0.9328028 1.2810189 -0.51117456 0.30832836 -0.99443114 0.23901302 -0.18081543
-0.88379234 -0.66253436 -0.33711666 -0.3384954 -0.6794008 1.3191144 0.24708115 -0.36268812
-1.2244632 0.57021075 -1.1209568 0.17139532 -0.053214848 -0.07910912 -0.09735524 0.33072573
0.5679567 -0.72980684 -0.028613284 0.6150598 0.84984154 -0.23309937 -0.25118253 -0.2624862
-0.19161192 0.21862257 0.94785386 0.22583228 0.0061900616 0.9550818 -0.16785905 -0.9234878
0.049735308 0.4749466 1.1228268 0.6478689 -0.43965375 0.23585662 0.6254981 -0.24630454
0.9338908 0.36330247 -0.2105373 0.21954727 0.76491904 0.60061646 0.6358279 -0.46863157
-1.0525295 0.25777316 -0.3197325 -0.75445545 -0.96065414 -0.22351582 0.035633102 -0.9390683
-0.10546585 -0.6034471 -0.19087818 -1.0826237 0.53858924 -0.17953587 -0.17706257 0.37455976
0.8535632 0.81108445 -0.22599396 -0.07869626 1.7543702 -0.33283758 0.027797744 -1.0890527
-0.031949073 -0.9506397 -0.27558285 -0.57211775 0.1362828 -0.14196655 -1.4483472 -0.8299105
-0.49157932 -0.8200487 -0.3058312 0.47903016 -0.23904616 0.044572845 0.2094436 -1.2598083
0.23978736 1.2208172 -0.19092721 0.21415052 -1.1535618 -0.34295112 -0.115206994 -0.78366023
0.6792567 1.3545752 -0.41632676 -0.33522975 0.025134418 -1.1506605 0.5848312 0.18439192
-0.29550943 -0.22722048 0.91543937 0.031255573 0.16661568 0.16539669 -0.52934223 -1.5196546
1.9717405 -0.16118503 0.6389049 -0.1905585 -0.09449461 -0.1317415 0.89477146 2.3279777
-0.5077451 -1.116376 0.05276759 -0.25938842 -0.8112788 -0.12570359 -0.3167377 0.54542315
-0.016229942 0.09351684 0.57065415 -0.34188664 -1.46485 -0.909443 -0.16571102 0.063254654

actor1.2.bias f4 [64]
00000000: 6649 a5be cc2c 213f 4543 253e fcfb ec3f
00000010: 6c45 a6bf 9221 cd3e 5c94 033e 28e3 a2be
00000020: 13cd f3bd 57ca a03e 58f7 1b3e f045 c03f
00000030: b031 babf 1310 4b3e 7e29 14bf cd37 933f
00000040: f111 48bf c822 b7bf 39fc 8d3e 512f 883e
00000050: 63c6 603f 7b73 b5bf 0a18 17bf 0a97 3bbd
00000060: 324b 793f b8af 1f3e 4447 813f 88a7 3dbd
00000070: 166b 8a3e be90 523f cb5d 2b40 7637 f13e
00000080: 8024 8cbe ce9a d7bf 25fb 2f3f 28bb e83c
00000090: 9444 163f 4ad0 fd3e 84e1 a5be 9673 213e
000000a0: a28d 823e 3e84 ae3e eb01 43bf 625e 8abe
000000b0: 5145 a33f b536 cc3f cd52 173f e66b 79bf
000000c0: 4857 f33d dcbe 8ebd cb9a 50be 9059 733f
000000d0: 5ad1 19bf ec51 0d3e 17ac 02bf 7d0f 8c3e
000000e0: 2be0 753d 7e0e aabe d8ab 1dbe 5b6a 773e
000000f0: c054 f73e 7c91 4abe 90f0 1fbe ebd8 7ebf
-0.3228256 0.6295898 0.16138943 1.85144 -1.2989936 0.40064675 0.12849563 -0.3181393
-0.11904349 0.31404373 0.15231073 1.5021343 -1.4546413 0.1983035 -0.5787581 1.1501404
-0.78152376 -1.4307489 0.27731493 0.265986 0.87802714 -1.4175867 -0.59021056 -0.04579834
0.97380364 0.15594375 1.0099874 -0.04630235 0.27034825 0.8225211 2.6775997 0.47112626
-0.27371597 -1.6844118 0.6874259 0.028409556 0.5869839 0.49572974 -0.32398617 0.15766749
0.25498682 0.34085268 -0.761748 -0.27025133 1.2755529 1.5954195 0.5911072 -0.97430265
0.11881882 -0.06969997 -0.20371549 0.95058537 -0.6008507 0.13800782 -0.5104384 0.27355567
0.060028236 -0.33214182 -0.15397584 0.24161665 0.48306847 -0.1978206 -0.15619111 -0.9954974

actor1.4.weight f4 [4, 64]
00000000: a29f 783f ee39 723f 19a4 843f cabf 34bf
00000010: 5038 a5bd 77f6 803f 3c2a d4be a8d3 06be
00000020: f26b 1a3f 202e 223f d75f bd3f 7c4a f23d
00000030: 5778 943f 5d0b f1bf 5f5e 3cbe 5609 d23e
00000040: c8c1 433f a0b4 b9bb 563d 993f 7eef 59bd
00000050: 2e99 3dbf d2ef 03c0 acb9 d1be f8e9 19bf
00000060: 7292 cdbe afc2 f2be 4071 29bc b55e 823f
00000070: a9d8 15be b660 bbbe 887f 51bf 570e efbe
00000080: 73e6 ccbe 1a5b 513e 64a1 213e 8e3d 233f
00000090: cf11 273f a99b f53f 58aa 75be 4425 a6be
000000a0: 4d5d 75bf 5faa 303f 8fb4 50be f040 a53b
000000b0: abe4 7fbe 1ac6 a53e 1677 89bf 563d f9bf
000000c0: 3bc5 d9be e4d5 afbe 330b b53f fecf c7be
000000d0: 7028 07bf 4043 4c3f 552a 03bf ba1f 26bf
000000e0: 9a74 bb3e 811e 1a3f db47 1cbf a383 d7be
000000f0: 3e93 fbbd b069 e53e e4f6 4a3f 6841 9e3e
00000100: 984b 963d 5cf5 f5be 9a70 943c 2c7b 823f
00000110: 4a8d afbe 28bc 45bf a4f8 3d3f 1bc3 293f
00000120: 85bb abbe 10ee 053f bfbc c73e d9e8 6b3d
00000130: 63bb b3bf 8321 a43e 16cd babc 168b f53d
00000140: f037 fabf ceab 893e a09f 0ebd 4838 bd3e
00000150: d127 3dbe 262d 263f 4787 2840 48f0 3abf
00000160: 2099 c63c c052 0c3b acf2 5c3f 07d8 cf3f
00000170: 15b6 3d3f cf57 4e3f d5c2 04be d2e6 87bf
00000180: 2048 d23c eb55 fdbe d8d6 a9bd 21fd 1cbf
00000190: 66af 56bf 9297 d83e 3d82 923d 67b4 0bbf
000001a0: 06d9 e33f 2372 02bf b83a e0bf 939d a93e
000001b0: 04f7 19be 4050 243f c8bc 953f 9420 b33e
000001c0: 8d07 cdbe 90bb e7bd 9cf5 b73e 66e6 88bd
000001d0: 0035 8a3c 72cb e03f 6c12 5bbf 8cd3 afbd
000001e0: 3499 a8bf 91b7 32bf bcc3 4f3d 8024 5f3c
000001f0: 845f 413e e79c ddbd d21e 6ebf e51e cabe
00000200: 6273 83bd 18d2 05bf 44c7 e73d b66b 293f
00000210: 8468 703e c02b 2fbc 6528 0ac0 6704 15bf
00000220: f080 d83f 7097 25be 3c0e 1bbf 978d 1f3f
00000230: 7000 1fbd 9097 163d c6dc 5f3f 7f2e 1b3f
00000240: 5a61 fe3e a035 06bf 52cf 093f 1e0f 003f
00000250: b9cc 0abe d125 ccbe 02b9 203e 63a7 37be
00000260: b899 a4be 5c64 14bf e49f 9f3e 973b 513f
00000270: d3c3 633f 3bab 86be 785f 0540 9bf0 44bf
00000280: 02b9 e23e a501 d33e d8a4 333e b0af f6be
00000290: d7ef db3f a705 15bf 64fc 3dbe 84d5 c23f
000002a0: 2448 4bbf ce34 f7bf 2872 48bd b8ac 883e
000002b0: 9e8c acbf 5c77 a5be 5482 81bf 824a 1abf
000002c0: 3712 0d3f c22c 103f 3136 2ebe 6b89 c43d
000002d0: 0083 9a3a 161d 91bc 2314 e93e 16e0 ca3d
000002e0: 80bc d13e 59ef 41c0 0a1a b3be 96f5 aabf
000002f0: a571 d1bd 2ccd e03e 448b 3e3f c5ca cf3e
00000300: b42e 9dbf 5891 46bf 42cc efbe 276c afbf
00000310: 49ef 2abf e839 96bd 4003 483e 1b7d 40be
00000320: 8856 853d 74aa 913f 5403 e6be df1d edbf
00000330: e1f9 7b3e 6036 b8be 8276 69be 7bec 023e
00000340: 80ce 733e d918 37be 567a a6bf ec6e e83e
00000350: 2c1f 59be 5a66 ecbd db4d 583f 3c56 743d
00000360: a2ac 033f c5ed 7abf a4c5 3e3d 9229 e93e
00000370: 2817 403f 10d4 97bd acfa cc3e fe75 97bd
00000380: 8b39 38bf 54ad 803d 588a 793d 3cb2 4b3e
00000390: cd5a 163f e5d1 973e 1121 4cbe 14cc f6be
000003a0: 0018 debe 5f85 ad3c d2a1 6cbd d0aa babe
000003b0: 0117 1840 3035 e83f 4c23 88bf 6974 383e
000003c0: 22d3 eabe 3046 4f3d ecf5 a6be d72e 263f
000003d0: ed39 653e e2dc 26bf 23ec 793e cb13 c5be
000003e0: 50b9 cf3e f50b 0c3f ae41 81bf dc82 ee3e
000003f0: d9c6 b53e 6a7a e13e 55fb 00be 1492 e1be
0.9711858 0.94619644 1.0362579 -0.70605147 -0.080673814 1.0075215 -0.41438472 -0.13166678
0.6032096 0.6335163 1.4794873 0.11830613 1.1599225 -1.8831593 -0.18395375 0.41022748
0.7646756 -0.005667284 1.1971843 -0.053206913 -0.7406186 -2.0615125 -0.4096197 -0.60122633
-0.4015079 -0.47414157 -0.010341942 1.0185152 -0.1463343 -0.36597222 -0.8183522 -0.46690628
-0.4001957 0.20444909 0.15784222 0.637658 0.6526155 1.9188129 -0.23990762 -0.32450306
-0.9584549 0.69009966 -0.20381378 0.0050431415 -0.24989574 0.32377702 -1.0739467 -1.9471843
-0.42533287 -0.34342873 1.4144043 -0.39025873 -0.5279608 0.79790115 -0.5123647 -0.6489216
0.36612397 0.60202795 -0.6104714 -0.42092618 -0.122839436 0.44807196 0.79282975 0.30909276
0.07338637 -0.48038757 0.018120099 1.0193839 -0.34287483 -0.7724023 0.7420752 0.6631333
-0.33541504 0.5231638 0.3901119 0.057595108 -1.4041561 0.32056817 -0.02280287 0.11989419
-1.9548321 0.2688889 -0.0348202 0.36957002 -0.1847222 0.6491264 2.6332567 -0.7302289
0.024242938 0.0021411628 0.8630779 1.6237801 0.7410596 0.80602735 -0.12964948 -1.0617316
0.025669158 -0.49479613 -0.08292931 -0.61323744 -0.83861387 0.4230314 0.07153747 -0.5457215
1.7800605 -0.5095541 -1.751792 0.33128032 -0.15035635 0.6418495 1.1698236 0.34985793
-0.40044823 -0.113150716 0.35929573 -0.0668457 0.016870975 1.7562087 -0.85574985 -0.08585271
-1.3171754 -0.6981135 0.050723776 0.013619542 0.18884093 -0.10820942 -0.9301578 -0.39476696
-0.06418492 -0.522737 0.11317304 0.6617998 0.2347737 -0.010691583 -2.1587155 -0.5820984
1.6914349 -0.1617105 -0.60568595 0.62325424 -0.038818777 0.036765635 0.8744625 0.6061782
0.49683648 -0.52425575 0.5383197 0.50023067 -0.13554658 -0.39872602 0.15695575 -0.17934947
-0.32148528 -0.57965636 0.31176674 0.8173155 0.8897068 -0.26302513 2.083952 -0.76929635
0.44281775 0.41212192 0.17543352 -0.48180914 1.7182568 -0.5821175 -0.1855331 1.522141
-0.7940695 -1.931299 -0.048936993 0.26694274 -1.3480413 -0.32317626 -1.0117898 -0.6026994
0.5510592 0.56318295 -0.1701286 0.09596523 0.0011788309 -0.017714065 0.45523176 0.09906022
0.40964127 -3.0302336 -0.34980804 -1.3356197 -0.10226754 0.43906534 0.7443125 0.40584388
-1.2279878 -0.77565527 -0.46835524 -1.370488 -0.6677137 -0.073352635 0.1953249 -0.18797724
0.06510645 1.1380143 -0.44924414 -1.8524741 0.2460704 -0.35978985 -0.22799113 0.12785523
0.23809242 -0.17880572 -1.3006084 0.45397127 -0.21203297 -0.115429595 0.844938 0.059652552
0.5143529 -0.9801906 0.046575204 0.45539528 0.75035334 -0.074134946 0.40034997 -0.07395552
-0.71962804 0.0628306 0.06092295 0.1989221 0.587323 0.29652324 -0.19934489 -0.48202574
-0.43377686 0.02118176 -0.05777151 -0.36458445 2.376404 1.8141232 -1.0635772 0.18013157
-0.45864207 0.050604045 -0.32609499 0.6491522 0.22385378 -0.6518079 0.24406485 -0.38491663
0.4057107 0.54705745 -1.0098169 0.46584213 0.3550327 0.44038707 -0.12595876 -0.4405676

actor1.4.bias f4 [4]
00000000: 4b1f 3dbf bf12 cc3d e2cb 65bf 3221 893e
-0.73875874 0.09964513 -0.89764225 0.2678314
