examples/PPO_preTrained/MultiRobotCarry/PPO_MultiRobotCarry_0_0.pth (torch, 46913 bytes, 11 tensors)

actor.0.weight f4 [64, 17]
000000 6d c4 f0 bd 52 79 56 be 44 ed a7 be 58 08 03 3d
       -0.11756215 -0.20944718 -0.32798207 0.03199038
000010 57 af a9 3d a1 47 2a bc cb b9 10 3e 65 f6 06 bd
       0.082853965 -0.010393054 0.14133374 -0.032949824
000020 37 98 43 be b2 15 14 3e b3 d3 5b be 1a e9 93 be
       -0.19101034 0.14461401 -0.21467476 -0.2888878
000030 6c 63 44 3d f5 d6 06 3e be c2 6c 3e 91 5b 41 be
       0.04794638 0.13167937 0.23121163 -0.18882586
000040 80 35 91 bd 5a c5 06 be 73 aa 1f be 62 b8 13 be
       -0.070902824 -0.13161221 -0.15592365 -0.14425805
000050 21 fa d4 bd 5d 0d ad 3e aa ef b8 3e 48 7f 94 3e
       -0.10399271 0.33799258 0.3612035 0.29003358
000060 58 76 ce 3d 22 8f 98 3e 1f 98 cb bc a8 d4 90 bd
       0.10081166 0.29796702 -0.02485281 -0.07071811
000070 ce 4c f9 3c 15 4c 44 3e 6f 99 23 be d2 bc 53 be
       0.030432131 0.19169648 -0.15976499 -0.20677498
000080 57 43 74 3e 71 16 39 be 97 0d 1d 3e 34 f7 4d 3d
       0.23853813 -0.18074967 0.15337215 0.05028458
000090 4e d7 0c 3e 5b 44 0d be 73 11 5b 3e 95 b3 99 be
       0.13754007 -0.13795607 0.21393375 -0.30019823
0000a0 21 74 8b be e9 e4 82 be 69 21 f3 3c d5 4d 9e 3d
       -0.27237037 -0.2556527 0.029679017 0.07729689
0000b0 37 bf 62 be 70 5c e3 3d a8 1d 00 3e 00 c0 17 3e
       -0.22143255 0.111016154 0.12511313 0.14819336
0000c0 5b 12 90 3e e3 9a c7 bc f5 5e 0e 3e 70 eb 1c be
       0.28139004 -0.024365848 0.1390341 -0.15324187
0000d0 a6 75 60 3e 23 b1 be 3e 4b 79 0a 3f 90 18 d3 be
       0.2191988 0.3724452 0.5409133 -0.41229677
0000e0 97 ad 9d be ae e4 93 be 36 3c bc 3b 86 d4 c9 bc
       -0.307965 -0.28885406 0.0057444824 -0.024637472
0000f0 ae f6 94 3d eb 1b 97 be f0 24 30 bd 75 29 29 3c
       0.07273613 -0.29513487 -0.043003976 0.0103248255
000100 d3 3d 88 3d 58 08 3b 3e ee ee b1 bd 3f 06 9e 3e
       0.06652417 0.18264902 -0.0868815 0.3086414
000110 96 7e 73 be 34 13 23 be f4 77 09 3e ed 5b 57 be
       -0.23778757 -0.15925294 0.13424665 -0.2103116
000120 39 68 0d be 37 0d a6 bd 78 df 5d 3e f6 b5 1a be
       -0.13809289 -0.08107989 0.21667278 -0.15108475
000130 3c f1 16 3b 47 0f 80 3d 74 7d 8b 3e ae 8c 01 3e
       0.002303197 0.06252914 0.2724415 0.12651321
000140 d7 28 9a bd 63 66 51 3e d4 05 6a be e7 6b 40 3e
       -0.07527321 0.20449214 -0.22853786 0.18791161
000150 d3 5a 70 3d ba c3 84 be 46 74 79 be fc ff 29 be
       0.058680367 -0.25930578 -0.24360761 -0.16601557
000160 cf 28 28 3e f3 59 ab 3d c0 e6 b5 3d ad 7e 14 3d
       0.16421817 0.08366766 0.08881903 0.03625362
000170 58 c6 23 3e bf 6c 85 3e 54 5f 4f be 24 85 3f 3e
       0.15993631 0.2605953 -0.20251209 0.18703133
000180 33 ef 18 3e cf d4 6e 3e 1c a0 02 bd 21 46 23 be
       0.14934997 0.23323368 -0.031890973 -0.15944721
000190 55 72 0a be 6d 90 3a 3e 15 c3 45 3e e6 64 11 3d
       -0.13520177 0.18219157 0.19312699 0.035496615
0001a0 7b 8a bb 3d da 5b 79 be d2 18 c8 be b3 48 c2 be
       0.091572724 -0.24351445 -0.39081436 -0.3794609
0001b0 0c 49 38 3e 59 1f 13 bd 8d 06 0b be b3 27 ee ba
       0.17996615 -0.035918567 -0.13576718 -0.001816979
0001c0 80 35 1f 3d d0 bc 56 bd 86 a1 bd 3d bb 6d 28 be
       0.03886938 -0.05242616 0.09259324 -0.16448109
0001d0 6f ec ab 3d 76 3e 87 be bc 0d 24 3e e7 10 d7 3d
       0.083947055 -0.2641484 0.16020864 0.10501271
0001e0 a7 e0 b7 3d 29 6c f9 bc 01 a5 90 be b7 09 ae 3e
       0.08978396 -0.030447083 -0.28250888 0.33991787
0001f0 eb c2 85 be 50 41 a6 be e6 71 10 3d 5f db 8b be
       -0.26125273 -0.32471704 0.035264872 -0.27315804
000200 16 62 49 be da a3 a0 bd a7 72 4a 3e 66 ba 56 be
       -0.19666323 -0.07843752 0.19770299 -0.20969543
000210 0f f2 d6 3b 65 04 a6 3e e5 9a ea bd 3b 0d 69 be
       0.0065596174 0.32425228 -0.11455325 -0.22758953
000220 2b a3 c1 3d 72 c7 d6 bc c0 db 1e 3e bf d3 bd 3d
       0.0945495 -0.02621815 0.15513515 0.09268903
000230 1d 22 c6 be c5 cd 50 bd dd e5 a2 3e 1c 2d 6c 3d
       -0.386979 -0.050977487 0.31815997 0.057660207
000240 14 66 88 3e 57 8b c4 bc a7 85 7f 3e 04 41 b7 bb
       0.2664038 -0.023992224 0.24953328 -0.0055924673
000250 01 a9 45 be 42 0c 8a 3c 57 9e 17 be cc c3 25 3e
       -0.19302751 0.016851548 -0.14806496 0.16187972
000260 1e cc 09 3e ba d3 39 be 4b 45 19 be 53 5f 5c 3e
       0.13456771 -0.18147174 -0.1496784 0.21520738
000270 e7 75 aa 3e ab 74 50 bd 89 c3 80 bd 79 4f ad bc
       0.33293077 -0.050892513 -0.06287295 -0.02115606
000280 7f 2d 0c 3e fe 12 bf 3d fb e2 81 3d 87 71 18 3e
       0.1368923 0.09329794 0.06342121 0.14887057
000290 0e ef 3f be 96 f5 1f 3d 31 dd 26 3e 1e 30 0b be
       -0.18743536 0.03905257 0.16295315 -0.13592574
0002a0 d3 90 a2 bd ba 65 d4 bd 67 73 53 bd 92 17 cc 3a
       -0.07937779 -0.10370965 -0.051623728 0.0015570989
0002b0 a2 d0 b6 3d 3f e2 a2 bb 59 09 06 3d f0 15 85 3e
       0.08926512 -0.0049708183 0.03272376 0.259933
0002c0 db 8c 00 bd 37 8e 54 3e e5 12 4f 3e 01 50 a7 3d
       -0.03138433 0.20757376 0.20222051 0.081695564
0002d0 bc c5 9d bd ad 5f 65 be c3 4f 4f 3d 59 70 f8 3d
       -0.077037305 -0.22399779 0.050613176 0.121308036
0002e0 38 23 52 bd 6a cd 7c 3e d9 47 40 3e 6e 9f 50 be
       -0.05130312 0.24687734 0.18777408 -0.20373318
0002f0 d0 fb 9e bd f0 78 b6 3d d9 57 86 be 5b 31 b4 3c
       -0.07762873 0.08909786 -0.26238897 0.02199619
000300 1f 79 8f 3e 99 fc ac 3e cb aa c3 3d a5 ae 24 bd
       0.28022096 0.33786467 0.095540605 -0.040205617
000310 a5 3d 33 3e 38 43 0d bd 18 dc fd bc 69 2c 9c 3c
       0.17503984 -0.034487933 -0.030988738 0.019064145
000320 51 e0 71 be c0 63 b7 bd 19 42 7b 3e d7 62 88 3d
       -0.23620726 -0.08954573 0.24536933 0.06659477
000330 c6 dd 21 3e e5 da e7 bc 67 2f 93 be d8 64 9f be
       0.15807256 -0.02830262 -0.28747103 -0.31131625
000340 88 60 bc 3e 0b fa 39 be cf f4 ae be 43 88 22 3e
       0.36792397 -0.1816179 -0.3417115 0.15872292
000350 8d 58 17 bd 1b 8b a4 bd 7e 1f 53 be 2b 6b 7c bd
       -0.036949683 -0.08034345 -0.20617482 -0.06162564
000360 08 b3 3e 3e 5f b9 5c be 7b d5 8c 3e 2e ed 07 bd
       0.18622983 -0.21555088 0.27506623 -0.033185177
000370 f1 75 f4 3d 72 3c 70 be f8 a3 49 bd d4 16 b7 bd
       0.11936558 -0.23460558 -0.04922864 -0.08939901
000380 1e 1a 18 bf 56 96 fd 3e 79 fd 88 3d 51 aa 9b bd
       -0.5941485 0.4952876 0.06688971 -0.07600845
000390 48 1e 47 3d 1f 10 8a 3d bc 35 da bd 09 3d 43 3e
       0.048612863 0.06741356 -0.1065478 0.19066252
0003a0 94 a3 5d bc 39 b5 1e be 74 7c 94 bc de 5a 70 bd
       -0.01352777 -0.15498818 -0.01812575 -0.058680408
0003b0 61 18 b9 bd 2f f5 f1 bd f8 ba 84 bd 9d 0d 07 be
       -0.09037853 -0.11814343 -0.06480974 -0.13188787
0003c0 de 3d 61 be 6f 95 74 be de 0c 77 be 21 1a d8 bd
       -0.21996257 -0.2388513 -0.24126002 -0.10551859
0003d0 3b 05 86 3e d5 7c 93 3d 28 d7 55 3e be 4f 60 3d
       0.26175866 0.07201544 0.20882857 0.054763548
0003e0 01 75 6d 3d 21 3d 4b be 9f d4 8b bd 22 14 58 be
       0.05797291 -0.19847538 -0.06827664 -0.2110143
0003f0 77 42 38 be 06 dc 93 be 9a 0e 95 be 4f 56 76 3d
       -0.17994104 -0.28878802 -0.29112703 0.060140904

actor.0.bias f4 [64]
000000 83 8a 5b be 02 96 33 3e 46 ae 8c 3c 40 bf 87 bd
       -0.21439557 0.17537692 0.017172944 -0.06628275
000010 15 c9 89 3d 33 7a 7a bd 11 12 61 bd e7 97 c9 bd
       0.067278065 -0.061151695 -0.05494887 -0.09843426
000020 db fe 3f 3d 6f 44 45 3e 32 a7 94 3e 23 9b a6 3d
       0.04687391 0.19264387 0.2903381 0.08135059
000030 bc 55 3d bd d9 15 1f 3e bd 2b 8f bd a6 b2 98 bc
       -0.04622434 0.15535678 -0.06990764 -0.018639874
000040 d1 50 db bd c6 1a 06 3e ad 75 51 be bf d4 63 be
       -0.10708774 0.13096151 -0.20455046 -0.22249125
000050 5d 24 86 bd 0e e5 43 3e a3 a5 89 3e c7 27 b2 3e
       -0.065499045 0.19130346 0.26884183 0.34795973
000060 80 b5 89 be 70 30 d9 bd 96 03 ad 3d 98 6a 36 be
       -0.26896286 -0.10604942 0.084479496 -0.178141
000070 18 74 2c be 34 0c 14 be 79 13 0b bd 1a 1e 19 3e
       -0.16841161 -0.1445778 -0.033954117 0.14952889
000080 d8 3f b3 bd 84 d1 c9 bc 97 8c 3f 3e 8f 91 a6 bd
       -0.087524116 -0.024636038 0.18705975 -0.08133232
000090 0a a3 3f be 78 d7 43 3e 9e e6 bd bd 83 2b 4d be
       -0.18714538 0.19125164 -0.09272502 -0.2003613
0000a0 f5 9d 32 be c4 8f 47 be a8 52 24 3e 8e ab a3 bd
       -0.17443068 -0.19488436 0.16047156 -0.07991706
0000b0 3c 46 74 3d 9f d5 ef bc d4 d6 5c 3c de c9 67 be
       0.059637293 -0.029276667 0.013478953 -0.226356
0000c0 e8 4e ca 3c a0 d6 7d bd 58 74 04 3e 01 47 37 bc
       0.024695829 -0.06197226 0.12935007 -0.011186362
0000d0 3f ab b5 3d d8 7d 61 3e 44 ad 32 3e 09 6e 42 be
       0.08870553 0.22020662 0.17448908 -0.18987288
0000e0 42 39 5a 3e a0 29 36 3e 3b af d0 3d ff 56 42 3e
       0.21310905 0.17789316 0.101896726 0.18978499
0000f0 4e ec 24 3d 68 49 61 be ab 25 3b 3e d5 e4 8f bd
       0.04026442 -0.22000659 0.18276088 -0.07026068

actor.2.weight f4 [64, 64]
000000 7e 2e b2 3d d6 1e bf bd 81 bf 59 bd af cd 9b be
       0.08700274 -0.09332053 -0.053161148 -0.30430362
000010 7e 1f 0d 3e 98 b0 33 3d 44 dc ec 3d b9 ae 0d be
       0.13781545 0.043869585 0.1156545 -0.13836183
000020 31 b0 95 3c f3 a9 c4 bd da a7 49 bd 53 c4 90 bd
       0.018272491 -0.09602728 -0.04923234 -0.07068696
000030 81 c0 76 3d 69 ee 42 3e 40 50 00 3f 31 86 97 3d
       0.06024218 0.19036259 0.5012245 0.07398642
000040 f2 cd e4 3d 8e 86 5b 3e 9d 30 5e bb 16 52 cb bc
       0.111720935 0.21438047 -0.0033903487 -0.024819415
000050 94 0b 06 3d 00 5b 15 3e 5a 07 b3 bd 0d 76 eb be
       0.032725886 0.14585495 -0.087416366 -0.45988503
000060 a4 2a fd 3d d2 3c f0 bd 25 cc d0 3d 97 9f 4c 3d
       0.12361649 -0.117303506 0.101951875 0.049956884
000070 ea 2a 02 bd ed 66 5c 3e a2 d7 6f bd df 5c 94 bd
       -0.031779207 0.21523638 -0.058555253 -0.07244276
000080 f0 c6 e6 bc ff 92 80 3e 97 23 09 bd 18 8e e9 bd
       -0.028171033 0.2511215 -0.033481207 -0.11404055
000090 7f 89 99 3d 2e b8 05 bc 5d c4 16 3d e7 da e2 bd
       0.074969284 -0.008161588 0.03680836 -0.110769086
0000a0 e8 e7 21 3e b4 1a 85 3c 66 5f ae bc 8b 11 96 3e
       0.15811121 0.016248085 -0.021285724 0.2931026
0000b0 a7 d2 b5 bd 4a 61 5e be 37 50 ed 3c 8b 29 9d 3e
       -0.08878069 -0.217168 0.028968913 0.30695757
0000c0 3c e2 cf bd 96 85 89 bd 89 07 b3 bc 64 73 dd bd
       -0.10150573 -0.067149326 -0.021854179 -0.10813025
0000d0 a7 33 e2 3d 87 24 8e bd 74 ce 6a ba 0b 96 04 3f
       0.11045008 -0.06940561 -0.00089571555 0.5179145
0000e0 1b b9 28 3e b6 e6 c6 be ae 4f 0f 3e 48 67 af 3d
       0.16476862 -0.38847893 0.13995239 0.08564621
0000f0 dc 2e 03 be 7d 4f 2b 3e 44 0d fb 3c 18 3d 43 3c
       -0.12810844 0.16729541 0.030645974 0.011916421
000100 39 74 6c ba f1 8f 66 3e a7 fd 8d 3c e6 10 10 be
       -0.0009020004 0.22515847 0.017332865 -0.14068946
000110 e8 76 48 bd e3 35 cb 3d e4 25 dd bd cd e1 85 3b
       -0.048941523 0.099223875 -0.10798243 0.0040857554
000120 ef bf 01 3e ee 1a 9b 3c 7a 5e 7b bd 7e 18 c1 3d
       0.12670873 0.01893374 -0.061369397 0.094285
000130 ea 9f c4 bd 87 05 31 3e ea c6 06 be b9 6b 87 be
       -0.09600814 0.17287265 -0.13161817 -0.26449373
000140 35 be 98 3b 52 55 02 3a be b5 55 3d 4a 61 05 be
       0.0046613463 0.000497182 0.052175276 -0.13025394
000150 44 db 5b bd b8 95 10 bd b5 de ce 3d 27 bc d9 3c
       -0.053675905 -0.035299033 0.10101072 0.026578976
000160 4b 0b 8e bd c3 c4 2d 3d 44 25 a9 bc cc 91 8f 3d
       -0.06935748 0.042423975 -0.020647652 0.070102304
000170 14 65 dd 3d 9e dc bd 3b 71 fc c2 bd fb 50 d5 3c
       0.10810295 0.005794122 -0.095208056 0.026039591
000180 77 48 23 bd e7 67 fc 3d 83 35 75 3e 6b 46 12 3d
       -0.03986403 0.12324505 0.23946194 0.035711687
000190 a7 c2 3b be 85 5c 8a 3d 58 55 c4 bc 5c ef ad 3a
       -0.18335973 0.06755928 -0.023966476 0.0013270187
0001a0 9b f6 dc bd c8 4d 95 bc 5c ff 6f 3d c2 61 6b 3a
       -0.10789224 -0.018225566 0.05859314 0.00089791056
0001b0 9e e8 55 3d aa 33 a4 3d 71 69 c9 3c 2b b8 16 bd
       0.052223794 0.08017667 0.024586411 -0.03679673
0001c0 f6 62 9c bd 30 5a 7c 3d 88 f6 ec bc 47 9a 51 bd
       -0.07636063 0.061609447 -0.028926149 -0.05117252
0001d0 b9 41 7b bd cc 81 54 3d 77 da a1 3d f1 6c 67 be
       -0.061341975 0.051881596 0.07902997 -0.22600152
0001e0 bd d1 18 3e 8f 8e 34 bd 3c f1 ae bd 44 42 51 be
       0.14923759 -0.044081267 -0.085421056 -0.20435435
0001f0 4a 3f ac 3d 20 7c be bc 3e 0b d2 bd af d1 c6 3c
       0.08410509 -0.023252547 -0.102560505 0.024269907
000200 26 97 8a bd 0e c5 b0 bd e0 56 25 3e 8f eb 17 3e
       -0.067671105 -0.08631335 0.16146421 0.14835952
000210 8f 42 ca bd 3a 87 31 be ac cf 85 bc e2 9e c3 3d
       -0.09875976 -0.17336741 -0.016334377 0.09551789
000220 78 0f 86 3d 67 71 5c bd d5 69 23 3d 55 e9 ce bd
       0.06545919 -0.053819086 0.03989585 -0.10103098
000230 54 6f 00 3d 1f a7 22 be 80 94 24 be 57 87 5b 3e
       0.03135617 -0.15884064 -0.16072273 0.21438347
000240 36 bd 16 bd 94 c7 82 bd 78 a5 53 3d 2f 3d 96 bd
       -0.03680154 -0.06385723 0.051671475 -0.073358886
000250 16 2a e4 bc fa 7f 75 bd da 00 2d be 32 af e0 bd
       -0.0278521 -0.0599365 -0.16894856 -0.10970916
000260 10 e4 e6 bd 1d ee 8d 3d 8f 7c b8 bd 2c 03 fc 3c
       -0.11273968 0.06930182 -0.09008133 0.030763231
000270 6a 90 75 bd 77 3d b3 bc 2b e5 d2 3d e6 70 be 3c
       -0.059952177 -0.021879895 0.102976166 0.023247194
000280 18 12 85 3d 10 e7 03 be 4e fd 87 3d 96 4e e3 bd
       0.06497592 -0.12881112 0.06640111 -0.110989735
000290 da d2 c1 3d fd b2 e8 3b 74 57 9b bd b4 c7 7a bd
       0.09464045 0.007101415 -0.0758504 -0.061225608
0002a0 4d 6a be bc b1 27 69 3d aa 2a a0 3d 45 d7 9f bc
       -0.023244048 0.05692262 0.078206375 -0.019511828
0002b0 b4 05 04 3d eb 25 05 3d b2 cd 4b bd 57 4e 4f be
       0.032232 0.032506865 -0.049756713 -0.20244728
0002c0 9f 34 02 ba 98 61 b9 3d cd c1 83 bd 91 b5 27 be
       -0.00049669476 0.09051818 -0.06433449 -0.16377856
0002d0 e6 4c 8f bd 6c db 00 be 68 02 45 bd b1 4d 1a bd
       -0.06997089 -0.12583703 -0.048097998 -0.03767175
0002e0 1d fc 8c bc 72 fb 34 bd b5 bd 29 3d d8 11 25 3a
       -0.01721006 -0.04418511 0.041440684 0.00062969094
0002f0 27 be 95 3d d2 0e e9 3a 20 83 08 bd 01 38 28 bc
       0.07311659 0.0017780906 -0.033328176 -0.010267259
000300 6f 02 e8 3c e3 44 20 3e 2f cb 85 3b 99 dc 81 3d
       0.028321473 0.15651278 0.0040830593 0.06340904
000310 9c e4 66 3d d5 61 70 3b 65 e2 26 3d da e3 06 be
       0.056370363 0.0036679406 0.04074325 -0.13172856
000320 de 8b 23 bd b2 d2 9a 3d 33 53 dc 3d c2 46 fb 3d
       -0.03992831 0.07559718 0.107580565 0.12269355
000330 90 4f a4 3d 39 08 ad bd 7f 59 a6 bd 76 07 e2 bd
       0.08022988 -0.08448834 -0.08122539 -0.11036579
000340 20 7f a2 3d 7d 5c 4f 3d ad 01 09 be 81 7f b0 bc
       0.079344034 0.050625313 -0.13379546 -0.021545174
000350 45 23 16 3e cb 05 84 bc 53 e7 b3 3d a0 cf ec 3d
       0.14661892 -0.016116044 0.08784356 0.11563039
000360 6e 9a b7 bc f6 0b e8 3d 32 7a d5 3b 33 18 83 bb
       -0.022412505 0.11330406 0.006514811 -0.0040006875
000370 18 a0 c9 3c 1a 17 d8 bd f3 e0 00 3c f5 7f a4 3d
       0.024612471 -0.10551281 0.007866132 0.08032218
000380 70 8a d8 bc 5a 91 db 3d 66 aa 9a 3d 59 fc 1a 3d
       -0.0264332 0.10721083 0.07552032 0.037838314
000390 64 82 00 ba f0 63 04 3e 9a de c1 bb d8 74 af 3d
       -0.0004902242 0.12928748 -0.0059164288 0.08567208
0003a0 21 0e 06 be 0d 5d f8 3c 04 1c 60 3d 9a 03 19 be
       -0.13091327 0.030317808 0.054714218 -0.1494278
0003b0 74 5e 8e bc d5 3a 8b bd 47 5b 85 3c dd 75 b9 bc
       -0.017379023 -0.06798331 0.016278876 -0.02263921
0003c0 e9 67 19 3c 8d 12 3d bd ed be 4b bd 95 ff 59 3d
       0.009363153 -0.04616027 -0.049742628 0.053222258
0003d0 35 f7 24 3d 33 95 60 3c 4b c0 c0 3d 57 48 56 be
       0.040274817 0.013707447 0.09411677 -0.20926033
0003e0 fd 40 3f 3d 1a 12 b8 bd 41 4c 1d be d0 d7 2f be
       0.046692837 -0.089878276 -0.1536112 -0.1717217
0003f0 63 9c 29 bd d4 10 a4 bd 17 69 b5 bd 61 c5 54 3d
       -0.041408908 -0.08011022 -0.08857935 0.051946048

actor.2.bias f4 [64]
000000 0f ac 88 bd 6a 30 b5 3d 75 92 6a 3d 4b 1f bc bc
       -0.066734426 0.08847125 0.05726858 -0.02296414
000010 77 fe 84 3b a7 51 e4 3d aa b2 61 bd b0 2c eb bd
       0.004058655 0.111483864 -0.055102028 -0.11483133
000020 3c fe 0d be 9a 94 b7 3d 25 d8 ab 3d 9f 3e cb bd
       -0.13866514 0.089638904 0.08390836 -0.099240534
000030 6e 7b 3c 3d f1 26 0f bc 63 0c e5 3c ac 3d 91 3d
       0.04601615 -0.008737312 0.027960008 0.07091841
000040 6f c7 e9 3c c7 68 05 bd d4 52 86 bd e6 87 a8 3d
       0.02853748 -0.032570627 -0.06558767 0.082290456
000050 88 87 0b 3e 8c 27 50 3d 7a 27 6e bd bd ef 85 3d
       0.1362592 0.050818965 -0.058143117 0.06539867
000060 f4 da 10 be d6 85 6c 3d e9 49 9b 3d be 6f 00 be
       -0.14146024 0.057744823 0.075824566 -0.12542626
000070 ae 59 60 3d 5a c9 8e 3d ad 96 0d be 28 55 78 bd
       0.054773025 0.069719985 -0.1382701 -0.060628086
000080 9d dd 05 be 39 37 b5 bc 07 fc 89 3d 53 af 13 be
       -0.1307282 -0.022121059 0.067375235 -0.1442235
000090 cd 77 26 3e 30 84 cb bd 12 23 e7 3b 04 b3 02 3e
       0.16256638 -0.09937322 0.0070537413 0.12763602
0000a0 b8 ec 07 be 42 8f 2b bd a3 ef 85 3d 79 f4 da bd
       -0.13273895 -0.04188467 0.06539848 -0.10691161
0000b0 80 31 be bd 81 14 cf bd db 51 0c bd 46 a1 3a bd
       -0.09286785 -0.10111333 -0.03425775 -0.04556396
0000c0 73 d6 f1 3d ec 3f 13 bd 57 7c 80 3d fa 6d 5b bd
       0.11808481 -0.035949633 0.06273716 -0.05357168
0000d0 89 4f d3 3d 98 b0 ca 3a 58 11 a5 3d da 88 7d 3d
       0.103179045 0.0015464006 0.08059949 0.06189809
0000e0 2f b0 86 3d b5 d7 39 3e cb 5b 55 bd 7c f1 01 be
       0.06576573 0.18148692 -0.052089494 -0.12689775
0000f0 07 74 ed 3d 53 75 d0 bc e2 1d 8d 3d 24 e3 c9 bd
       0.11594396 -0.02544657 0.06890465 -0.09857777

actor.4.weight f4 [2, 64]
000000 23 11 8d bd a3 2f 60 3e 04 f0 08 be 50 c5 b2 3d
       -0.06888034 0.21893172 -0.13372809 0.087290406
000010 28 25 60 3e d6 d9 e1 bd ee 02 9d 3e bb b1 c3 be
       0.21889174 -0.11027877 0.30666298 -0.38221535
000020 59 e2 08 be 1b 53 91 3e b4 d7 3a 3d 9d 8b d1 3d
       -0.13367595 0.28383717 0.045615867 0.10231707
000030 f0 29 6a 3e 33 ae 48 3e 62 c5 7c 3e dc 72 1c 3e
       0.2286756 0.19597702 0.2468467 0.1527819
000040 22 e2 2c 3e 68 10 50 be d1 79 b1 3e 13 e2 25 3d
       0.16883138 -0.20318758 0.3466325 0.040498804
000050 cf c2 6d 3e f2 1e d6 3e 8e 04 a5 be 47 8b 06 be
       0.23218845 0.41820484 -0.32230037 -0.13139068
000060 67 6c 9d be 56 cb 5b 3e e6 b7 9f 3d 1d 24 ac be
       -0.30746767 0.21464285 0.07798748 -0.33621302
000070 81 2e 4c 3e f4 9f 45 3e a8 00 74 bc fb f2 a0 3e
       0.19939615 0.19299299 -0.014892735 0.3143538
000080 54 e6 30 3e 9e 10 70 3e 94 44 73 be e6 b2 0c bf
       0.17275363 0.23443839 -0.23756629 -0.5496048
000090 49 5e 92 3e 07 36 38 be 61 73 73 bc 12 03 23 3f
       0.2858756 -0.1798936 -0.014859051 0.6367656
0000a0 88 d9 e2 bd 01 04 e6 3e e8 86 a1 3e 2f e4 30 3e
       -0.11076647 0.4492493 0.31548238 0.17274545
0000b0 77 88 41 be 93 96 d9 3e 47 4c 03 be 05 b1 30 bd
       -0.18899713 0.42497692 -0.12822066 -0.04313757
0000c0 a1 13 d9 3d 5e c7 9d bd c4 96 81 bd 1e 32 37 bd
       0.10599447 -0.07704042 -0.063275844 -0.04472553
0000d0 68 65 32 3e f8 a6 24 3e 1a 2c c7 bd 88 7c 52 be
       0.17421496 0.16079319 -0.097252086 -0.20555317
0000e0 6a cd 14 be 6d dd a2 3d bc 5f 38 bd 9d 18 be bd
       -0.14531484 0.0795239 -0.045013174 -0.09282038
0000f0 19 c1 c8 3e 16 ab 1d 3d c4 ce 96 be c2 23 26 be
       0.39209822 0.03849324 -0.29454625 -0.16224578
000100 23 5b a1 3e 81 67 20 be 73 61 31 be a8 4d 11 be
       0.31514844 -0.15664484 -0.1732233 -0.1418978
000110 ad e2 a1 3e fd 2d 9e be 8d 1b b4 3e a1 a2 7a 3e
       0.31618252 -0.3089446 0.3517727 0.244761
000120 d1 cf bf 3e 67 b5 99 bc f1 96 b6 bd 15 0e 14 3e
       0.3746324 -0.018763257 -0.089155085 0.14458497
000130 50 22 cd ba b1 b1 96 bd 6f cb 52 3e f0 12 b8 bd
       -0.0015650485 -0.07358111 0.20585416 -0.08987987
000140 e1 70 0d 3e ef 00 e5 3d ce ac e1 3d 8b 29 e4 bd
       0.13812591 0.11181819 0.11019288 -0.11140736
000150 e4 42 3a be 79 73 18 3e 03 b6 cf 3c 62 fa 8e 3d
       -0.18189579 0.148878 0.025355345 0.069813505
000160 48 44 2e bd 52 f6 b2 be e9 75 ed bd b4 e9 f2 3c
       -0.042545587 -0.34953552 -0.11594755 0.029652454
000170 fd bf dd 3d ea af 0a be b5 c0 55 3e 97 e7 18 bd
       0.108276345 -0.13543668 0.20874293 -0.037330236
000180 e2 b2 82 3e 19 36 21 3e 27 60 fa 3d 58 bf 55 3e
       0.25527102 0.15743293 0.12225371 0.20873773
000190 82 79 26 be 19 e5 04 be 0c ac 28 be ef 3d 88 bb
       -0.16257289 -0.12978019 -0.1647188 -0.0041577737
0001a0 85 4f d1 3c 9c e3 a6 bd 23 2c 59 3d a8 0c ec 3d
       0.025550613 -0.08148882 0.053020608 0.115258515
0001b0 90 b3 dc 3d 8f 89 99 3e 03 75 1b bd 1b e3 98 bd
       0.10776436 0.2998776 -0.037953388 -0.07465192
0001c0 87 fc 5c bd 5c 9d c5 be 8b a6 49 3e 2d 5c 85 3d
       -0.053951766 -0.38596618 0.19692437 0.06511722
0001d0 4e 47 42 be ad 63 b1 be 90 b2 61 be 54 7b 00 be
       -0.18972513 -0.3464636 -0.22040772 -0.12547046
0001e0 4c d3 17 3d aa 7e 42 bf d4 72 ee 3c f9 65 e5 3d
       0.037066743 -0.75974524 0.029107489 0.1120109
0001f0 30 4f a0 3d 0f c2 8e bc 1f 19 0b be bb a0 c7 bd
       0.07827604 -0.017426519 -0.13583802 -0.09747454

actor.4.bias f4 [2]
000000 b3 3b 96 bd 7e dc ac bd
       -0.073356055 -0.08440493

critic.0.weight f4 [64, 17]
000000 52 f5 09 bd 97 99 09 bd 8b 08 16 3f 49 e7 1c bd
       -0.03368122 -0.03359374 0.58606786 -0.03830651
000010 c2 16 07 3e 9d ad d6 bd ba 12 82 bd 1c 7c 22 3b
       0.13192275 -0.10482333 -0.06351228 0.0024793213
000020 c9 4a be bd 21 e0 bb bd c7 5a 57 3e 19 8e 21 3e
       -0.09291608 -0.091736086 0.21030723 0.15776862
000030 57 4d f3 bd 0b f3 d2 3e 59 b9 2c 3e 5b cc 28 3e
       -0.11879986 0.41201052 0.1686758 0.16484205
000040 2b d8 09 3f 2d 45 76 3e 07 6d 80 3e 6d 91 dc 3c
       0.5384547 0.24049826 0.2508318 0.026924813
000050 f7 d4 11 3d b2 4f ec bd 71 0c 2f 3d b6 df 61 bc
       0.03560349 -0.11538638 0.042736474 -0.013786247
000060 a1 6f fa 3d a5 82 eb bd 4c f0 57 3e a2 bf a4 be
       0.12228323 -0.11499528 0.2108776 -0.32177454
000070 9d 35 10 3d 55 f2 1a be f8 bd 86 be 3b 29 5b 3c
       0.03520738 -0.15131505 -0.2631681 0.013376529
000080 1b 46 ae 3e 7b 60 3b be 08 16 c5 3d 4d f4 37 3d
       0.3403786 -0.18298523 0.09623343 0.044910718
000090 b1 40 87 3e d8 71 e0 bd 50 7b 95 3e 8b c7 8a bd
       0.26416543 -0.10959214 0.29195642 -0.06776341
0000a0 fd e3 bb bd dc fa 6e bd 3e 66 32 3e 4a 78 87 3d
       -0.09174345 -0.058344707 0.17421815 0.0661474
0000b0 ae 1a 4d be fb dc b1 3d d8 53 c0 bb 3a a7 72 3e
       -0.20029709 0.08684727 -0.00586937 0.23696604
0000c0 b8 a4 9d 3b 3d d4 50 3d a3 95 01 3c 84 ea 1f be
       0.004810896 0.050983656 0.007909211 -0.15616804
0000d0 f3 1b e2 3e 6e 7d b8 bd d1 41 ff bc 28 dd 99 3c
       0.4416195 -0.09008299 -0.031159313 0.018782213
0000e0 5f 45 78 bd f9 e5 17 3d ae 62 28 3e 38 d1 1c 3e
       -0.060613032 0.037084553 0.16443893 0.15314186
0000f0 4d e5 35 3e 37 88 4b be b0 a5 9d 3e ba 7a fa bd
       0.17763253 -0.1987618 0.30790472 -0.122304395
000100 86 0e 50 bf 7d d3 1c be b7 00 45 3f b9 a2 f1 be
       -0.8127216 -0.15315051 0.76954216 -0.4719446
000110 fc 46 6e 3e b5 b5 b5 be 8f 3c 23 3e 25 df f9 be
       0.23269266 -0.35490194 0.1594107 -0.48803058
000120 da 71 b8 3e a4 95 ca bd d9 96 bc 3d c8 fa 0a bd
       0.36024362 -0.09891823 0.092084594 -0.03393057
000130 7c 9f 30 3d 73 c3 1d be 2a 2a 6f 3d 5b 6c 0d be
       0.043120846 -0.15406589 0.05838982 -0.13810866
000140 32 11 d2 bc e1 b5 c6 3e f4 a0 ae 3e 01 14 bb bd
       -0.025642965 0.38810638 0.34107172 -0.09134675
000150 ed d1 7f 3e 1b 8e a1 be 39 54 09 bf 3a cf ad 3c
       0.24982424 -0.3155373 -0.5364414 0.021216977
000160 c4 94 8c 3b 41 cd 1d bd f2 dd 09 bd 49 49 30 3e
       0.004290195 -0.038525824 -0.03365893 0.17215456
000170 c8 7f 20 bd 51 06 20 bc 66 c5 c0 3b e7 6e e9 bd
       -0.03918436 -0.009767131 0.0058829067 -0.11398106
000180 e5 b7 ab be ea 24 f8 3d 6d db f3 3e 6f 76 8a be
       -0.33538738 0.12116416 0.47628346 -0.27043483
000190 e9 5f c0 be c8 c4 86 3e c6 6e 39 bc 6c 03 b6 3d
       -0.37573174 0.26322007 -0.011317914 0.088873714
0001a0 44 1f 5f 3e 98 ef aa 3b fd 22 91 bc 78 ec 00 3e
       0.2178927 0.00521655 -0.017716879 0.12590206
0001b0 c2 4f 17 3e f7 7c 75 bd a7 5d 99 3d e1 0e ed bd
       0.14776519 -0.05993363 0.07488566 -0.115751036
0001c0 40 2b 12 be b9 78 46 3e aa 93 2d be e7 f2 78 be
       -0.14274311 0.1938199 -0.1695086 -0.2431141
0001d0 7f 2d 05 be b8 15 82 bd 61 00 93 3d a8 f4 dd bd
       -0.13005637 -0.06351799 0.07177807 -0.1083768
0001e0 47 78 f6 be d0 91 9d 3e 88 b5 16 3c a2 22 98 bc
       -0.4813864 0.3077531 0.009198554 -0.018571202
0001f0 c6 11 b5 be b5 b8 0f bd ad e7 80 be 06 9f a9 bc
       -0.35365123 -0.03508826 -0.25176755 -0.020705711
000200 77 40 e2 bd 2a a0 88 3e b1 30 0c be 1a c5 f2 bd
       -0.11047452 0.26684695 -0.1369045 -0.118540004
000210 21 9f 26 3f 5f 9a 13 be 66 84 13 bf 1d d1 9b 3e
       0.6508656 -0.14414357 -0.576239 0.30432978
000220 eb 63 a9 be 64 86 15 be d0 33 14 3d b0 58 1a 3d
       -0.33084044 -0.14602047 0.036182225 0.037682235
000230 cd a7 3d 3e c6 57 7e bd 5d 58 86 bc 73 63 19 3d
       0.18521042 -0.062095426 -0.016399557 0.037448358
000240 b3 16 d0 3e 35 ce 01 be 71 5c 62 3d e5 30 ea bb
       0.40642318 -0.12676318 0.05526394 -0.007146942
000250 aa b6 71 3e a2 f8 2e 3f b1 9f 40 be cc 03 74 be
       0.23604837 0.68348134 -0.18810917 -0.23829573
000260 5d 50 3e 3e 71 87 b5 3d c5 8e 28 3f 69 eb ae bd
       0.18585344 0.08863724 0.6584285 -0.08540995
000270 09 0a 57 bc 18 db 2d 3c 1e fd 82 3e ec 75 82 bc
       -0.013124951 0.010611318 0.25583738 -0.01592537
000280 6f b7 0c 3e d8 4d c7 3d 8e e3 a5 3e 22 6c 61 be
       0.1374185 0.097316444 0.32400173 -0.22013906
000290 ab 46 54 3e 2a ab 32 3e 70 62 2f bf 90 5f 1c be
       0.20730083 0.17448106 -0.6850958 -0.15270829
0002a0 68 64 e8 3e 73 06 e9 3d 9a 3d 33 3d 23 b6 3e 3d
       0.45389104 0.11378183 0.04375992 0.046560418
0002b0 b1 e2 c6 3c af 49 40 bf 20 47 81 3f 1e 49 ed bc
       0.024278017 -0.7511243 1.0099831 -0.028965529
0002c0 22 ce 1b be 86 72 40 3d a6 84 a5 3c 4c 88 b3 bb
       -0.15215352 0.046984218 0.020204853 -0.0054788943
0002d0 39 17 29 be 55 20 93 3e 75 35 2f 3d d4 23 3e 3e
       -0.16512765 0.28735605 0.04277559 0.18568355
0002e0 8f 39 63 3b 5f e1 c8 3d 22 50 60 3d 6c ea 7c 3e
       0.0034671759 0.09808611 0.05476392 0.246988
0002f0 3c cd 8e be a2 cd 6f 3e d2 a7 62 3e 44 fd b3 bf
       -0.27890956 0.23418286 0.22134331 -1.4061666
000300 e1 6f 4e be 5b f5 0f bd f3 3b 7f 3d 74 5d 99 be
       -0.20159866 -0.0351461 0.06231303 -0.29954112
000310 06 54 8f 3c ae cc 8b be c5 0e 4e be cb a2 15 3e
       0.01749612 -0.27304596 -0.20122822 0.14612882
000320 58 cb 95 3e b8 72 45 3e 66 12 d3 be 69 f6 ec bd
       0.292567 0.19282043 -0.41224974 -0.115704365
000330 2b 4f 10 be 0a 74 15 be 0c 96 fe 3d aa 3d 49 3f
       -0.140927 -0.14595047 0.12430963 0.78609717
000340 e8 3d 81 bf 0e 77 b9 bc 1f 82 40 3e 33 3f 55 3e
       -1.0097017 -0.022639778 0.18799637 0.2082489
000350 0e 1e 2e be 55 7b 5c be 39 69 48 be 9a ff bc bb
       -0.17003652 -0.21531422 -0.1957139 -0.005767775
000360 e6 61 24 be 1d a1 e8 3e a7 b8 40 3e 89 53 d9 be
       -0.1605297 0.4543542 0.1882044 -0.42446545
000370 63 69 94 3e 3a 92 80 bc fd 95 be be 54 09 39 be
       0.28986654 -0.015694726 -0.37223807 -0.18069965
000380 61 5c 59 3c 82 54 18 3c bc cd 7f 3d e8 a6 a6 bd
       0.013266654 0.009297492 0.062452063 -0.081373036
000390 ac 92 3f be 26 bd 1b be a6 ea ab bd f5 b2 97 bd
       -0.18708295 -0.15208873 -0.08394365 -0.0740718
0003a0 03 8a 87 be 84 4a 90 be 18 8b 50 3f cf 73 33 bc
       -0.26472482 -0.2818185 0.8146224 -0.010952904
0003b0 c7 17 df be ba 95 fe bc 3e 80 23 be 4d 1a 8c be
       -0.43572828 -0.031077255 -0.1596689 -0.27363816
0003c0 fb e1 fb bd ff 0c b2 3d bc fc ee be 1a 56 f0 bd
       -0.12298962 0.08693885 -0.46677196 -0.117351726
0003d0 60 9d 07 be b5 9d fa bd 76 c5 9e bd fe 70 47 be
       -0.13243628 -0.122371115 -0.077525064 -0.19476697
0003e0 e3 01 3c 3e 1a 22 57 be 6a fe e9 bd ad 85 c3 be
       0.18360095 -0.21009102 -0.11425479 -0.38187924
0003f0 73 43 c2 3d 71 f9 c4 be 50 0b 76 be e3 04 02 3e
       0.09485521 -0.3847156 -0.24027753 0.12697177

critic.0.bias f4 [64]
000000 68 69 c9 bd 63 e2 89 3e 49 04 2e bd ff 7e 92 3f
       -0.09834558 0.26930532 -0.042484555 1.1445006
000010 74 91 96 be 34 c7 65 bf 2c 3e 81 3e fc 6a 6f bf
       -0.29407847 -0.89757085 0.25242746 -0.9352262
000020 21 b4 ed be 7c c1 4d 3f 48 71 aa 3d 99 c7 93 bc
       -0.4642649 0.8037336 0.08322388 -0.018039512
000030 c3 7b 27 be 09 07 4d bf da ee d9 3b 33 fe 34 3f
       -0.16355805 -0.8008886 0.006650788 0.7070038
000040 5a a0 24 3d ee 83 f8 be 51 0e 58 bf 0e 43 00 be
       0.040191986 -0.48538154 -0.84396845 -0.1252558
000050 df e2 40 bd 62 83 48 3e 30 db a6 bd 1d 31 58 bf
       -0.04709136 0.19581369 -0.081472754 -0.8444994
000060 ca 6a 6c bf 35 7a 71 bf 23 44 25 3e 8b 9c 80 be
       -0.9235045 -0.943271 0.16139273 -0.25119433
000070 03 35 0d 3f 2f 6f 81 bf 83 c6 ed be ed c5 70 3f
       0.55159014 -1.0112056 -0.46440515 0.9405201
000080 66 a5 60 3c 73 bb 38 3f dc 33 96 be d6 24 5e 3f
       0.013711309 0.72161025 -0.2933644 0.8677496
000090 c0 65 83 be ad ef 89 bf cc 14 83 be f7 9f 82 bf
       -0.25663567 -1.0776268 -0.25601804 -1.0205067
0000a0 d4 e5 06 3f f9 c9 11 3f f4 58 bb 3e ae b6 c6 3e
       0.5269444 0.5694881 0.36591303 0.3881125
0000b0 2f e7 26 3f 2b e9 94 3e 2d 59 d4 3e 7c b6 29 3f
       0.6519651 0.29084143 0.41474286 0.66294074
0000c0 f5 78 81 bf 63 15 d5 3d ec 23 a7 be be 17 10 3f
       -1.0115038 0.1040447 -0.32644594 0.5628623
0000d0 4a 15 66 3f 32 51 cc bd 1e dd 02 3f a4 30 85 bf
       0.89876235 -0.09976424 0.5111865 -1.0405469
0000e0 60 dd 12 3f ae 1d 9d 3d 0d eb 9b be e5 43 7c bf
       0.5736904 0.076716766 -0.30452767 -0.985411
0000f0 0a 01 24 3e c2 53 8e 3e 10 12 52 bf 6f 3a da 3e
       0.16016021 0.27798277 -0.8205881 0.42622706

critic.2.weight f4 [64, 64]
000000 21 7b d3 be 9a 24 9d be 9f 18 ba be dd 3b e8 be
       -0.41304877 -0.30691987 -0.3634691 -0.45358172
000010 65 8d 53 3b e9 5a 28 3f 79 d4 29 bd 9c 3d 8a 3f
       0.0032280323 0.6576372 -0.041462395 1.0800052
000020 6a 9b d4 3e a1 8a 69 bf 1f 36 80 bd 09 95 9d 3d
       0.41524822 -0.91227156 -0.06260323 0.07694442
000030 27 c0 23 3e 37 88 07 3f 38 34 c2 3e 19 c7 ca be
       0.15991269 0.5294222 0.37930465 -0.39605024
000040 31 d1 37 bf 35 a1 a9 3e 37 81 13 3f f8 01 35 3e
       -0.71803576 0.33130804 0.5761904 0.17676532
000050 ef 35 db 3e 9a 0a 96 bd db ac 86 be 39 bd b4 3e
       0.42814586 -0.07326241 -0.26303753 0.35300615
000060 cc e3 1b 3f 1b ad 5e 3f f5 ec bc 3d 53 8d 90 be
       0.60894465 0.8698289 0.092248835 -0.28232822
000070 ec 56 0f bf c5 2c 3e 3f f6 0c 9c 3d dc fa 56 bf
       -0.5599201 0.7428706 0.076196596 -0.8397653
000080 85 17 12 bf 3f 92 e4 be 43 ce 90 3e 19 86 3a bf
       -0.5706714 -0.44642827 0.28282365 -0.72860867
000090 25 f7 a8 3e 8a e0 62 3f f0 cd 39 3f 55 fc 66 3f
       0.33001056 0.8862387 0.7257986 0.9022878
0000a0 fc b9 b1 be 6b 61 09 bf c6 d1 9f bd 70 70 24 bf
       -0.34712207 -0.53664273 -0.07803683 -0.64234066
0000b0 d1 d6 fd be 60 21 21 3f 78 e4 91 be 63 eb 47 bf
       -0.49577954 0.6294155 -0.2849462 -0.78093547
0000c0 c0 60 52 3f c7 70 f1 3d 71 f5 44 3e 4d 27 59 be
       0.8217888 0.11789089 0.19234253 -0.21206398
0000d0 fb 25 6e bf c4 f8 87 3e 19 74 44 be 9f 58 49 3f
       -0.93026704 0.2655698 -0.19184913 0.7865085
0000e0 f4 e0 9d be 71 f1 14 be 1f a0 bb bd 24 02 b0 3e
       -0.30835688 -0.14545228 -0.091614 0.34376633
0000f0 3b 88 e8 be 08 41 9d be e6 3b 2b 3f 8c 30 26 3c
       -0.45416436 -0.30713677 0.6688827 0.01014341
000100 63 f3 ba 3d c2 31 9e be c2 15 ec bd 74 94 b6 bd
       0.091284536 -0.30897337 -0.115275875 -0.08915034
000110 e9 f6 bd 3d 5b c9 2f 3f f7 26 16 bc 40 be e8 3e
       0.0927561 0.6866662 -0.009164563 0.4545765
000120 0a e4 cd 3e cf bd 95 be e7 41 37 be af 8a 78 3f
       0.40213042 -0.29246375 -0.17896233 0.97086614
000130 26 bf 73 3f e9 5f 00 3f 6c 94 25 3e 01 04 08 bf
       0.95213544 0.5014635 0.161699 -0.5313111
000140 f1 5a 94 3e 43 b8 e3 3e 57 d6 91 3e 93 43 32 be
       0.28975633 0.44476518 0.2848384 -0.1740859
000150 6a 60 29 3e 51 b8 82 be 51 db 11 bd b4 7e 1c 3f
       0.16540685 -0.25531247 -0.035609547 0.61130834
000160 fa 98 8b 3f 0d 62 2e 3f 14 e9 af 3d 76 b5 51 be
       1.090606 0.68118364 0.08589378 -0.20479378
000170 96 6d 84 be 9d a6 35 3f cb 28 6c 3e 4b 67 35 bf
       -0.25864857 0.70957357 0.23062436 -0.7086074
000180 90 95 22 3e 98 a1 1c bf 2b 06 23 3f af b7 c2 be
       0.15877366 -0.6118407 0.63681287 -0.38030764
000190 e1 a3 0f 3c e6 c6 2c 3f 5b 9b c6 3e b0 1a 53 3f
       0.008767099 0.67490995 0.38790402 0.82462597
0001a0 92 5b b7 be f6 46 06 bf 38 71 25 bf dd 10 7a be
       -0.3581205 -0.5245203 -0.64625883 -0.24420495
0001b0 79 bc 2d bf 8c 0a 34 be 8c a9 01 bf 9a d2 a7 be
       -0.6786571 -0.17582148 -0.50649333 -0.32777864
0001c0 04 08 5a 3f 5f ed 84 bd 98 a4 b4 3c 21 1e c1 be
       0.8516848 -0.064905874 0.02205114 -0.377183
0001d0 4e d2 ed be 66 35 fc bd e3 71 d8 be 0a fc 70 3f
       -0.46449512 -0.123148724 -0.4227439 0.9413458
0001e0 a5 94 0b bf 2d 2c f3 bd 31 40 a4 be 82 74 05 3f
       -0.5452369 -0.1187366 -0.32080224 0.521309
0001f0 a9 b6 3f 3e f0 e0 13 be 47 2f 1d 3f 5a 45 c1 be
       0.18722023 -0.14441276 0.61400265 -0.37748224
000200 cd 2f 03 be 7e a6 72 be 8c 0f 25 be 99 7f a2 bf
       -0.12811203 -0.23696324 -0.16119212 -1.269519
000210 bb 98 c8 3d 55 5b 99 3f 96 8c 2d be 10 26 97 3f
       0.09794756 1.1980997 -0.1694816 1.1808491
000220 ee f6 db 3d cc aa 8d bf cf 2c 2e be 1d 6b 15 3e
       0.107404575 -1.1067748 -0.1700928 0.14591642
000230 3a 1d 83 3e c7 26 41 3f 84 37 81 3e d4 10 ef bd
       0.25608236 0.75449795 0.25237668 -0.116731316
000240 92 eb 05 bf 30 b5 1c 3e 18 1a 88 3e fe 93 0e 3e
       -0.52312577 0.15303493 0.26582408 0.13923642
000250 15 42 c7 3e 79 36 ce bc 45 18 b8 3e 19 0f bf 3e
       0.38917604 -0.025172459 0.35956016 0.37316206
000260 9c 31 96 3f 54 40 a0 3f cd 72 9d 3d cb c2 86 3d
       1.173389 1.2519631 0.07687912 0.065801226
000270 ca 58 2d be 74 ec b1 3f 24 6b 00 3d 44 47 b5 bf
       -0.16928402 1.3900285 0.031352177 -1.4162374
000280 a0 60 0b bf 47 03 82 be 0d b2 75 3d bc 74 8f bf
       -0.54444313 -0.25393125 0.059984256 -1.12075
000290 6e 0a a5 3e da 41 8f 3f 61 b5 3c 3f 56 db af 3f
       0.3223452 1.1191971 0.7371426 1.3738811
0002a0 92 6c cb be a2 ec fa be f8 ce 0f 3e 76 ad 4b bf
       -0.3973127 -0.49008662 0.14043796 -0.79561555
0002b0 ce de cf be 76 87 96 3e ad d1 e6 be 23 b5 91 bf
       -0.40599674 0.29400223 -0.45081845 -1.1383404
0002c0 89 95 94 3f 17 e0 4c 3e 6d 9a 31 3f 7c 49 ca bd
       1.1608135 0.20007358 0.6937626 -0.09877297
0002d0 8c 3c a1 bf ec 63 60 3e 3f 9a 0f bd b8 6f ca 3f
       -1.2596602 0.21913117 -0.03505921 1.5815344
0002e0 38 17 8c bd 3c 1a e3 bc 58 b4 3d bc ba f8 40 3e
       -0.06840366 -0.02772247 -0.011578642 0.18844882
0002f0 46 37 a1 be 2b c2 40 be 68 5f 95 3f 9d 9a 2b be
       -0.31487483 -0.18824069 1.1669741 -0.16758199
000300 79 6b e3 be 5e ae dc be 07 e0 e9 be e4 5a f4 be
       -0.44417933 -0.43101782 -0.45678732 -0.47725594
000310 dc 31 33 3b 7f 45 21 3f 6e db 97 bd e9 63 82 3f
       0.002734295 0.6299667 -0.074149 1.018674
000320 15 d6 85 3e 39 e0 87 bf 52 d2 59 be 74 67 45 bd
       0.26139894 -1.0615302 -0.21271637 -0.048194364
000330 89 aa 46 3e 04 13 1a 3f d8 8c c0 3e 4e 46 b3 be
       0.19400991 0.60185266 0.37607455 -0.35014576
000340 16 28 24 bf b9 6a 80 3e 87 59 02 3f e3 4c 4b 3d
       -0.64123666 0.25081423 0.5091786 0.04963387
000350 0a 90 85 3e 36 c8 75 bc d0 cb b4 be a9 1d ad 3e
       0.26086456 -0.015001347 -0.35311747 0.3381169
000360 d6 e7 11 3f 92 6d 93 3f 19 7e 04 3e 36 ad 89 be
       0.5699438 1.1517813 0.12938727 -0.26889962
000370 b1 ff 0d bf 09 00 64 3f 3f b5 85 3c d6 95 3c bf
       -0.5546828 0.89062554 0.016321776 -0.7366613
000380 70 19 38 bf 6e 22 a8 be 03 7c a5 3e 2f 56 31 bf
       -0.71913815 -0.32838768 0.32321176 -0.6927213
000390 af 9b 9b 3e c5 4b 8c 3f ea d2 45 3f f4 73 66 3f
       0.30392215 1.0960623 0.77274954 0.9002068
0003a0 33 b4 e6 be 40 07 19 bf 01 38 1d be ea 1f 3c bf
       -0.45059356 -0.5977669 -0.15353395 -0.73486197
0003b0 b0 71 ef be 02 26 1a 3f b6 e9 e1 be fa 07 75 bf
       -0.46766424 0.60214245 -0.4412362 -0.95715296
0003c0 62 bc 59 3f 27 78 a4 3e 9d 2e a8 3e 9f 93 f8 bd
       0.85053074 0.3212292 0.32848063 -0.121375315
0003d0 13 f8 5e bf 66 dd 90 3d c6 22 71 bd 5b 05 71 3f
       -0.8709728 0.070734784 -0.058871053 0.94148797
0003e0 7e f5 8f be ac c1 17 bd ce c8 7c bd 62 e2 b2 3e
       -0.28116983 -0.037049934 -0.06171494 0.3493834
0003f0 1b da 10 bf 0c 16 ce be d0 e1 43 3f ab 85 bb bd
       -0.565828 -0.40251195 0.7651644 -0.091563545

critic.2.bias f4 [64]
000000 3e de 77 be fa 43 31 3e a6 7f 6e be c9 85 44 be
       -0.24205872 0.17311087 -0.23290882 -0.1919166
000010 d6 20 55 3d a4 53 8d 3d 97 d4 a0 be db 82 8d 3e
       0.052033268 0.06900719 -0.31412193 0.27638897
000020 38 e9 4a 3d 0e d2 86 3e a3 74 1a 3e 56 dd c1 3e
       0.04953882 0.26332134 0.15083556 0.37864178
000030 79 32 9d 3e 3a eb a1 3e e8 43 ac be b9 36 a0 be
       0.3070257 0.31624776 -0.33645558 -0.3129175
000040 48 5e 60 be a0 4a 02 3d d6 5f 82 be 3c 8e 4e bc
       -0.21910965 0.03180945 -0.25463742 -0.0126071535
000050 10 61 a7 be 60 89 22 be 20 5e 0e 3e f4 ef 53 3d
       -0.3269124 -0.15872717 0.13903093 0.05174251
000060 a0 51 88 3e 77 2e 7e be cb 18 f0 3d 22 fd ef bd
       0.26624775 -0.24822412 0.11723479 -0.11718203
000070 13 2d 4a be 1f e8 f5 bc 3f 1e 48 be 8a c4 b8 3c
       -0.19743757 -0.03001791 -0.19542788 0.022554655
000080 08 63 a6 be 32 a7 0d be 57 c7 00 be 0d 9a a3 be
       -0.3249743 -0.13833311 -0.12576042 -0.3195347
000090 25 11 22 3d 3a c6 82 3e 81 d2 26 be ad 23 66 be
       0.03956713 0.2554186 -0.16291238 -0.22474547
0000a0 21 c4 ad be c2 b8 bd bc 67 74 a7 3d 6a d3 53 3e
       -0.33938697 -0.023159388 0.08176499 0.20686117
0000b0 d0 9a da 3d 9a f9 13 bd ee 1d c7 be 1e 85 14 bc
       0.106740594 -0.03612671 -0.38890022 -0.009064941
0000c0 a3 2d 3b 3e d9 6e 92 3e 6c a3 52 be 50 a0 56 be
       0.18279128 0.28600195 -0.20570153 -0.20959592
0000d0 7a e9 12 3e 44 fb a1 be 62 36 76 3e ae fd 80 3e
       0.14346877 -0.31637013 0.24044183 0.25193542
0000e0 33 2f a6 bd 94 8d aa 3e 66 e7 9a 3e de 2d 49 3e
       -0.08114471 0.3331114 0.30254668 0.19646403
0000f0 ab cb a4 bd 87 d6 02 be 01 3e 4a 3e 07 35 3e 3e
       -0.08046659 -0.12777148 0.19750215 0.18574916

critic.4.weight f4 [1, 64]
000000 fd d7 c5 be 42 f5 f9 3e 08 02 9c be bf 8a d3 be
       -0.38641348 0.4881993 -0.304703 -0.41316792
000010 87 0e c1 be 6e 93 8c 3e 81 af b3 be 8d cb a9 3e
       -0.37706396 0.2745623 -0.35094836 0.3316311
000020 b1 8a ba be 3b 35 63 3e e5 42 96 3e 06 88 24 3e
       -0.36433938 0.22188275 0.2934791 0.16067514
000030 24 23 a0 3e 79 9b b9 3e 99 7a 0f bf eb 3a 1f bd
       0.3127681 0.3625143 -0.56046444 -0.038874548
000040 63 a1 b0 be a7 66 b9 be 47 d6 b4 be 1a db aa 3d
       -0.34498128 -0.3621113 -0.3531973 0.083425716
000050 57 72 da be 3c 9a 90 be 0e 81 33 3f 33 97 69 3e
       -0.4266536 -0.2824267 0.70118797 0.22811584
000060 9d 31 2c 3e 5f 63 8d bd 28 62 c1 3e d2 1c 32 bf
       0.16815801 -0.06903719 0.377702 -0.69575226
000070 51 1a 94 be d2 93 a8 be a5 03 c5 be 2f bc 4e bf
       -0.28926328 -0.32925278 -0.38479343 -0.80755895
000080 32 74 6e be 87 a9 b5 be a9 43 a5 3e 07 d1 b2 be
       -0.23286512 -0.35480902 0.32278183 -0.349251
000090 5b 82 ba 3e b7 f7 ae 3e e3 67 86 be bb 38 ae bd
       0.36427578 0.34173366 -0.26251134 -0.08506914
0000a0 d9 bb 6e be f7 ce 05 3f f3 17 a1 3e e0 61 c3 3e
       -0.23313846 0.5226893 0.31463584 0.3816061
0000b0 54 22 df 3e 23 50 de be 08 e5 24 bf a7 40 eb 3e
       0.43580878 -0.43420514 -0.64411974 0.45947763
0000c0 fc 40 99 3d 38 bc 35 3e bb fd f3 be 02 94 d0 be
       0.07483098 0.17747581 -0.47654518 -0.4073792
0000d0 3d 77 bb 3e 93 7e b2 be 7f bd b7 3e 89 62 9c 3e
       0.3661441 -0.34862193 0.35886762 0.30543926
0000e0 40 6c a9 be 89 72 b9 3e 9b ef a7 3e 86 79 a4 3e
       -0.330904 0.36220196 0.32799992 0.32123965
0000f0 be 35 e7 be 04 6a c0 bd 06 91 92 3d e8 69 ab 3e
       -0.4515819 -0.09395221 0.07156567 0.33479238
