examples/saved_models/old/PPO_MultiRobotCarry_42_0.pth (torch, 47663 bytes, 11 tensors)

actor.0.weight f4 [64, 17]
000000 a1 df 57 be cb 9c b7 3c e3 1f 47 bd 06 ae 64 be
       -0.21081401 0.022413632 -0.048614394 -0.2233201
000010 33 a1 39 be c7 81 89 3c 7e ab a2 bd c2 c7 c8 bd
       -0.18127899 0.016785515 -0.07942866 -0.09803726
000020 13 37 35 3e b3 df 6c be 77 23 dc b9 fd 12 bf 3d
       0.1769679 -0.2313221 -0.00041988093 0.093297936
000030 5a e1 5a 3d 21 27 5b 3e 86 63 5f 3d 0a 35 f0 3d
       0.05343757 0.21401645 0.054538272 0.117288664
000040 6f 1b 9f 3d 5d 2e 32 be c9 37 2f be 58 08 f5 bd
       0.077689044 -0.17400499 -0.17111124 -0.11964482
000050 75 7a ce bd f1 be 7b be 03 04 77 3d 38 a4 34 be
       -0.100819506 -0.24584557 0.06030656 -0.1764077
000060 84 a1 67 be 2d dd 90 bd f2 62 8e be d9 92 0e be
       -0.22620207 -0.07073436 -0.27809864 -0.13923205
000070 e7 c0 d2 bd 5f 19 3f bc 3d f9 f6 3d 88 65 4f 3e
       -0.102906995 -0.011663764 0.12059257 0.20253575
000080 66 6a 30 bc 4e a0 11 be 1b 7f 44 be 44 f9 55 be
       -0.010767555 -0.14221308 -0.19189112 -0.20895869
000090 27 fd 46 3e 44 2a 5e 3e 45 dd ef bd 72 b6 af 3d
       0.19432507 0.2169581 -0.11712126 0.085797206
0000a0 42 3d f5 3d 75 76 2f 3e f8 72 34 3e 10 63 2d 3e
       0.119745746 0.17135032 0.17621982 0.1693232
0000b0 ae 50 fc 3d 92 1e 1d 3d ee 54 72 bd 80 b7 28 3e
       0.12320076 0.038359232 -0.059163027 0.1647625
0000c0 7b 49 ee 3c 73 6a ef 3d 20 b1 89 3e 00 d1 57 3e
       0.029087773 0.116902255 0.26892948 0.21075821
0000d0 f0 5f 2b 3e 7d d6 a1 3d f2 f5 92 be c6 a2 f5 bb
       0.16735816 0.079022385 -0.28703266 -0.0074962107
0000e0 07 0e 7c bb 17 42 f9 3d 78 2f 59 be cc b5 31 3d
       -0.003846051 0.12170809 -0.21209514 0.043386266
0000f0 44 7e ce 3d 84 8a 15 be 5d 89 07 be 71 b5 00 be
       0.10082677 -0.14603621 -0.13235994 -0.12569214
000100 7a 66 8b 3e 03 0f 90 3c 41 91 44 be a1 50 79 3c
       0.2722662 0.017585283 -0.19196035 0.015216977
000110 40 78 5c be 4c 04 26 be be d1 ce 3d 36 70 9c bd
       -0.21530247 -0.16212577 0.10098599 -0.0763859
000120 64 26 33 bd 3e 3f 33 3e 18 d6 93 3c 11 f9 1e 3c
       -0.043737784 0.17504594 0.018046424 0.009702937
000130 ec 77 07 3c 8b 0a 22 3e e8 91 f2 3a 66 41 3f 3d
       0.008268338 0.15824334 0.0018506618 0.04669323
000140 36 db 4a be ee d7 16 be 39 8c 81 be 5f 91 74 3e
       -0.19810185 -0.14730808 -0.25302294 0.2388358
000150 f4 45 13 3e 99 59 ad 3d c2 43 d4 3d 71 76 a5 3d
       0.14382154 0.08464355 0.10364486 0.080792315
000160 7e a2 97 3e ad 50 15 3e 0b 01 a1 3e 2a 2c 3d be
       0.2961616 0.14581557 0.31446108 -0.18473879
000170 88 bd 51 be f5 59 de bd 26 39 0c 3e 89 f5 24 3c
       -0.20482457 -0.10857002 0.13693675 0.010068306
000180 74 11 09 3e 47 08 66 bc 56 34 f0 3c 3c 5a ca 3c
       0.13385564 -0.014040059 0.02932183 0.02470123
000190 28 3b 50 bd 45 46 c2 3e 35 f8 8c 3e 30 54 60 be
       -0.050837666 0.37944236 0.27533117 -0.21907115
0001a0 87 4f 5b 3d 09 35 a9 3e 47 0f 41 3e 39 1f e9 3d
       0.05354264 0.33048275 0.18853484 0.113829084
0001b0 3c 1c c2 3d 3b 4a 04 bd e1 59 ac be 19 68 0c be
       0.094780415 -0.032297354 -0.33662322 -0.13711585
0001c0 b2 82 8c 3d 07 e4 e0 bd de 41 c7 bd b0 f3 db 3c
       0.06860866 -0.10980993 -0.0972936 0.026849598
0001d0 8d 79 28 bd d7 4f 99 3d 94 e0 75 3e aa 04 a1 bd
       -0.041131545 0.07485931 0.24011451 -0.07862218
0001e0 ea 0e 81 3d 6e 68 86 3e cc b2 96 3e 33 f3 10 3e
       0.06301673 0.2625155 0.29433286 0.14155273
0001f0 99 e3 aa bb 2b 2a 07 be 0d 11 40 be a7 b3 97 3d
       -0.00521512 -0.1319968 -0.18756504 0.07407313
000200 83 b6 6b 3d dc 5f 29 3e 14 86 97 bc 89 43 49 3e
       0.057547104 0.16540474 -0.01849655 0.19654669
000210 fb e3 23 3e d3 d7 23 3d a8 d0 14 be 74 22 e0 bd
       0.16004936 0.040000748 -0.14532721 -0.109440714
000220 ed 5b f5 3d 04 31 82 be 2e 77 ae 3d 76 7b 09 bd
       0.11980424 -0.2542802 0.085188255 -0.033565007
000230 47 d7 ae bd 52 10 e9 3d 04 92 46 be 84 aa 1a 3e
       -0.08537155 0.11380066 -0.19391638 0.15104109
000240 77 db 70 3d 15 67 06 3e 1a af d6 3d 24 b5 d3 3d
       0.058803048 0.1312526 0.10482617 0.10337284
000250 e6 0d f8 bd 90 6b a9 bd f9 3f 81 3d 01 be 7b be
       -0.12112026 -0.08272469 0.0631103 -0.245842
000260 6a cf 4a be 81 ae a7 bc fa c8 92 3e b1 ba 91 3d
       -0.19805685 -0.020468952 0.28668958 0.07115687
000270 e5 fa 22 be e5 cb 1a 3e e5 63 00 3e 9d c3 ec 3d
       -0.15916021 0.15116842 0.12538107 0.11560748
000280 08 21 75 3e 14 8b 59 3e d2 63 c6 3d 92 23 61 be
       0.23938382 0.2124446 0.09687008 -0.21986225
000290 93 6f ee 3d fe 6e 2c 3e 82 31 3d be e7 14 f8 3d
       0.11642375 0.16839215 -0.18475917 0.12113362
0002a0 91 3e a1 3e b5 22 b5 3d 49 9b 46 3e 8b aa 0c 3e
       0.31493047 0.088445105 0.19395174 0.13736932
0002b0 41 22 ff bd 21 4e bf be da 73 fc bd eb aa 9b 3d
       -0.12457705 -0.37364295 -0.123267844 0.076009594
0002c0 d0 c8 5a be b9 c6 5c 3e 27 de 91 3c 83 19 a1 bd
       -0.21365666 0.21560182 0.017806126 -0.07866194
0002d0 bd 19 20 3e ae 9e 48 be 6d 82 33 bd 06 e2 8a be
       0.15634818 -0.19591781 -0.043825556 -0.27125567
0002e0 8c d4 12 3e 3d f5 de 3c 6d 43 9c 3d 5a 92 93 bd
       0.14338893 0.027216548 0.07630048 -0.07205649
0002f0 f2 35 46 3e 07 97 43 be 38 97 8f 3e 6e 21 e6 3d
       0.19356516 -0.19100581 0.28045058 0.11236845
000300 45 51 a5 3d 46 66 73 be 35 f2 06 be d9 bc bd bd
       0.080721416 -0.23769483 -0.13178332 -0.092645355
000310 9e 20 ff 3d 04 5c fc 3d 03 74 61 3e f4 64 e3 3d
       0.12457393 0.12322238 0.22016911 0.1110324
000320 aa e6 c8 bd f7 81 1f be a5 b1 6c 3c b2 88 ad 3d
       -0.09809621 -0.15576921 0.014446651 0.08473338
000330 f8 09 50 be 36 0a 28 3e d1 ab ea bc bc a1 5c 3e
       -0.20316303 0.16410145 -0.028646382 0.21546072
000340 3b ad 55 3c 8a 02 fb bd cd 58 f0 bd 30 5c 28 be
       0.01304179 -0.12256344 -0.117356874 -0.16441417
000350 08 fd ac 3e 13 2e 6c bd dc 4c 2b 3e 82 0c 3f bd
       0.33786798 -0.057661127 0.16728538 -0.046642788
000360 b4 3c ed 3d f9 76 83 be 93 59 e6 3b 97 2e 85 3e
       0.11583844 -0.25676706 0.007029721 0.26012108
000370 de 90 01 3e 95 64 dd 3c 42 a5 13 be f3 61 1e be
       0.12652919 0.0270255 -0.1441851 -0.15467052
000380 20 85 68 be 62 34 36 3e 18 7a 4a bc ad 3b 89 3d
       -0.22707033 0.1779342 -0.012358211 0.067008354
000390 3d 56 e9 bd 40 6e d1 3d 05 f7 c2 3d 85 8b 44 be
       -0.11393402 0.10226107 0.095197715 -0.19193847
0003a0 be 16 7d be 6d f2 7d bd a8 6b e7 3d 83 90 09 bd
       -0.24715707 -0.061998773 0.11299831 -0.033585083
0003b0 7b e2 23 3e b6 57 d2 3d 7a 1d 44 3c 95 5e 4e be
       0.16004364 0.10270636 0.011969918 -0.20153268
0003c0 b7 59 8f bd 65 18 47 3e 71 c7 52 bd b2 7f 1e be
       -0.069995336 0.194429 -0.051459733 -0.154784
0003d0 c6 9d 69 bc 9f fe 1d 3e 02 18 cf 3d b7 32 07 be
       -0.0142588075 0.15429161 0.10112001 -0.1320294
0003e0 53 a4 7a 3e d3 cf 97 bd 83 2a 7b 3e a7 de 84 3e
       0.24476747 -0.07412686 0.24527936 0.2595112
0003f0 7b 2b 65 be 91 c2 34 bd ec ab 87 3e aa 1f 86 be
       -0.22379868 -0.044130865 0.26498353 -0.26196033

actor.0.bias f4 [64]
000000 b4 d6 4e be aa d2 3e 3d b7 c3 a7 bc cd 44 21 3e
       -0.2019909 0.046587624 -0.020479066 0.15748902
000010 75 35 d2 3d 69 06 f5 bd 12 b8 e6 bd 14 19 13 3e
       0.10264102 -0.11964113 -0.112655774 0.14365035
000020 dd 9e 20 be 50 35 90 3e 90 54 72 3c 4e a3 b0 3d
       -0.15685602 0.28165674 0.014790669 0.08624898
000030 dc a8 8e 3e e5 41 9f be 46 ad 10 3e 69 f3 36 3e
       0.27863204 -0.3110496 0.14128599 0.17866291
000040 f7 24 38 3e dc ab f5 3d bd 3e 1c bd 6b cd 54 be
       0.17982851 0.1199567 -0.03814577 -0.20781486
000050 05 f6 08 3e cf 61 19 3e 7b f2 87 3e 1d e4 35 3e
       0.13375099 0.14978717 0.26552185 0.177628
000060 e5 35 0e be 84 91 2e 3e 19 f0 90 3c 15 e9 89 be
       -0.13887747 0.17047697 0.017692612 -0.2693564
000070 19 35 20 3d 07 db 00 be de 8a a0 bd 56 19 99 bd
       0.039113138 -0.12583552 -0.07838987 -0.074755356
000080 f8 d8 85 be 8f ca 4d be a1 48 48 3e a6 c4 21 be
       -0.26142097 -0.20096801 0.19558956 -0.15797672
000090 bb 0b 00 bd 3f 3f 50 bd 9a 3e 65 3e 58 b5 1d 3e
       -0.031261187 -0.050841566 0.22387162 0.15401208
0000a0 d8 d7 02 bd 08 11 d6 3c b8 de 77 ba 77 ec dd 3d
       -0.031944126 0.026131168 -0.000945549 0.10836118
0000b0 70 30 0a be b6 e9 32 be a0 d6 82 bd 10 99 3a be
       -0.1349504 -0.17471966 -0.06388593 -0.18222451
0000c0 80 e3 1e bd 12 d2 ee 3d 0f 37 1d bd 44 cb 88 be
       -0.03879118 0.116611615 -0.038382586 -0.2671758
0000d0 34 bf 3e be c3 29 f9 bd df c1 1f 3e 0b ca 30 be
       -0.18627626 -0.121661685 0.156013 -0.17264573
0000e0 ab 27 a8 bd c1 5d 9d 3d a3 c2 97 be 9c cb 09 3e
       -0.08210691 0.07683898 -0.29640684 0.13456577
0000f0 c3 51 ed 3d 95 73 47 3e 7d 1f d9 3d d7 a4 96 bd
       0.115878604 0.19477685 0.10601709 -0.073556595

actor.2.weight f4 [64, 64]
000000 e8 73 be 3e 52 73 25 be 45 85 5f 3d 9c bc e5 3b
       0.37197804 -0.16157272 0.054570455 0.0070110094
000010 b9 cb 16 be e9 7c e3 3e 44 3e 8c 3e b1 5e 7f 3e
       -0.14726152 0.44431236 0.27391255 0.24938466
000020 af 17 86 bc d1 d5 f4 bd eb b7 ed 3d df 8d 08 3d
       -0.016368715 -0.11954845 0.11607345 0.033338424
000030 e7 80 d7 3d 3c a7 3e 3d 42 87 aa 3d 3d 62 91 3d
       0.10522633 0.046546206 0.0832658 0.070988156
000040 4b e5 0d 3e 90 d2 33 3d 70 bd 67 3e cd d1 7a 3e
       0.13857 0.04390198 0.22630858 0.24494095
000050 79 ee 70 bd 54 a2 e9 bd d8 2a 2b be e4 85 ac bd
       -0.058821175 -0.11407915 -0.16715562 -0.08423975
000060 d4 e6 7c 3d 07 fb 01 3e d7 31 90 bd 32 08 3d 3e
       0.061743572 0.12693416 -0.07040756 0.18460158
000070 a8 34 c0 bd 59 80 19 3d 69 da 10 3d 30 4a 8c 3e
       -0.093850434 0.037475917 0.035364542 0.2740035
000080 e8 7f dc 3c e1 e8 18 3e a1 cb 43 3d e4 05 db 3d
       0.02691646 0.14932586 0.047801618 0.10694483
000090 f6 c8 e9 3d 7f 1b d0 3d 1e d3 56 bc 72 1d 53 3d
       0.114152834 0.101614945 -0.013111858 0.051541753
0000a0 64 75 e6 3c 6a 09 d1 3d f5 cc c6 3d 5f cb 51 bd
       0.028132148 0.10206874 0.09707061 -0.05121934
0000b0 b7 9f 4c bc 1b 93 b0 3c 83 c1 bf bd a3 66 f3 3c
       -0.012489251 0.02155452 -0.09363081 0.029712027
0000c0 2c 66 f6 3d 6f 13 db bd da 64 8b bd 0e 19 ee bd
       0.120312065 -0.10697066 -0.06806345 -0.116258726
0000d0 91 fc 27 3d 35 3a 8a 3e e2 5f d2 bd 52 73 f6 3c
       0.04101235 0.26997533 -0.102721944 0.030084286
0000e0 47 8a b5 3d f9 f6 33 3e 7f a9 b5 3c 7d 5a 4c bd
       0.08864265 0.17574681 0.022175549 -0.049890984
0000f0 ec d4 38 bd 89 88 d6 bd c8 64 06 3e 03 b1 31 3e
       -0.045124933 -0.10475261 0.13124382 0.17352681
000100 56 05 88 bd 53 c3 d4 bd 59 5a f0 3d 5f 15 56 3d
       -0.06641643 -0.10388818 0.117359824 0.052266475
000110 bc ea a5 3c 51 71 a1 3d fc f9 cb bd 47 2c 0d 3c
       0.020253532 0.078829415 -0.0995979 0.008616514
000120 18 0e bc 3b e4 bf 7f 3d 39 5a 25 3d 50 8b 14 bd
       0.005738985 0.06243886 0.040369246 -0.03626567
000130 fd d4 37 3d b2 7a 8a 3c 92 7c 5e bd 08 c0 37 3c
       0.044880856 0.016904209 -0.05431802 0.011215217
000140 64 d7 e2 3d 4a 23 0b be 9c be de 3d 08 42 e0 bd
       0.11076239 -0.1358768 0.108761996 -0.109500945
000150 a1 0f ba bd 40 9d 51 be 6a 9f 56 3d 04 77 1d bb
       -0.09085012 -0.20470142 0.052398123 -0.0024027238
000160 73 ed a8 bd 4b f0 b1 bd b4 d5 ae 3d 70 bc f4 3d
       -0.08248415 -0.0868841 0.085368544 0.11950004
000170 09 6a 11 bb 09 89 4f 3c ca 21 53 bd 3f 0f a3 3d
       -0.0022188446 0.012666949 -0.051545896 0.07961892
000180 98 a7 bc 3d 8a db ee bd 25 1e ed 3d ad 35 bb 3d
       0.092116535 -0.116629675 0.11578015 0.09141097
000190 d5 19 ea 3d c3 8f 35 3c ae 43 5b bd 01 54 d8 3d
       0.11430708 0.011081639 -0.05353134 0.105628975
0001a0 2d 66 be bc d7 f8 05 be 20 74 04 3c 8c 81 9b 3c
       -0.02324208 -0.13083206 0.008084327 0.018982671
0001b0 50 ad 06 bd 74 3a f2 bc 24 d8 62 3d 86 77 de bb
       -0.032880127 -0.029568888 0.05538191 -0.0067891506
0001c0 79 3e 0f be bd ce 0b be fd 51 6a bd 0a 95 51 3d
       -0.13988675 -0.13653083 -0.057207096 0.051167525
0001d0 e5 c9 f2 bd 5b 95 6a bd a5 13 81 bc 89 3d 82 3d
       -0.118549146 -0.057271343 -0.015756438 0.06359393
0001e0 86 1c 8e 3d 52 8c 3b bd d0 86 0d bc ad 7d 0c be
       0.06939034 -0.045788117 -0.008638099 -0.13719817
0001f0 92 87 d6 bb c5 58 ae bd 58 4c 2a 3d ae c2 51 3b
       -0.006546923 -0.08513025 0.041576713 0.0032006907
000200 40 cf 3e 3e e5 72 9f bc 1c 83 8c 3d c4 27 14 3e
       0.18633747 -0.019463966 0.06860945 0.14468294
000210 6c fe 06 3e 0e 70 1f 3d df 86 97 3c 9b 28 64 be
       0.13182992 0.038925223 0.018496929 -0.22281115
000220 f8 14 44 bd 8e 72 54 3d 05 5c 11 3d bf df f4 bd
       -0.04787156 0.05186706 0.035488147 -0.11956739
000230 51 a4 09 be c8 91 82 3e b1 78 29 be 28 2b 30 be
       -0.13441588 0.25501847 -0.16549946 -0.17203963
000240 9a 6a a3 bd 5e 6f e5 bc b3 f6 54 3e 73 82 3f be
       -0.07979317 -0.028007206 0.20797233 -0.18702106
000250 6d 3b e5 bb 81 fa 0f 3e c0 7d 68 3e b9 5f a0 3c
       -0.0069956095 0.14060403 0.2270422 0.019576894
000260 89 fc fd bd 2f de f0 bc a8 76 b9 3c 24 39 cd bd
       -0.12401683 -0.02940282 0.022639588 -0.10020664
000270 af bb 30 3e 29 bf 25 3e 63 c1 01 3e b1 7f ef bd
       0.17259096 0.16186203 0.12671427 -0.11694277
000280 c8 4d 34 3d 60 fa 0d be 9f 50 0a be 29 ac 9b 3d
       0.04401949 -0.13865042 -0.13507317 0.07601196
000290 32 4e 1b 3e 4c 84 a7 3c bd ef 7f 3d b7 33 68 bd
       0.15166548 0.020448826 0.06248449 -0.056689944
0002a0 5f 04 75 3d b1 4f 87 3d 27 8d 87 3e e1 17 69 3e
       0.05981862 0.06606997 0.26474878 0.22763015
0002b0 73 bb be 3d cd 0a c2 3d 25 89 f9 bd fa 22 ad bd
       0.09313097 0.09474716 -0.12184361 -0.08453937
0002c0 19 61 89 bd b1 22 54 3e f1 8b 17 3d 67 50 16 3e
       -0.06707973 0.20716359 0.036998693 0.14679109
0002d0 16 12 f1 ba 22 5a 9f 3e 42 fd c3 3d f7 27 19 3c
       -0.0018392231 0.31123453 0.095697895 0.009347907
0002e0 00 7e cc 3d e2 4e 22 3e 28 b6 1c 3e ef 3a 91 3d
       0.0998497 0.15850404 0.15303862 0.07091319
0002f0 42 41 42 3d 58 32 91 bc f2 f5 39 3d 55 79 81 3d
       0.047425516 -0.017724201 0.045400567 0.063219704
000300 61 51 15 be 05 e5 6e 3e a2 0d ed 3c 25 c2 7f 3d
       -0.14581825 0.23329552 0.028937165 0.06244101
000310 1f da ab bb 37 59 1a 3e d9 ec c3 3d de 14 37 3e
       -0.005244508 0.15073095 0.095666595 0.17879054
000320 cf d2 a8 bd f8 36 2e be c2 34 15 be cd ae 1e 3c
       -0.082433335 -0.17013156 -0.14570907 0.00968523
000330 3a 1c c0 bd 82 de ee 3d b8 ef 20 bc 23 8b 98 bc
       -0.09380384 0.11663534 -0.009822778 -0.018621033
000340 54 d8 17 3e e4 2d a6 3b a9 b8 0d 3e be 89 e2 3b
       0.14828616 0.0050713886 0.13839974 0.006913393
000350 8f da 34 3c 21 e8 72 3c 8e 75 52 be c1 5d 01 3d
       0.011038437 0.014825852 -0.20552656 0.03158355
000360 96 18 9f bc 05 ee ba bd 71 6d b1 bc ff 44 2d 3e
       -0.019420903 -0.0912743 -0.021658631 0.16920851
000370 c1 9f 6a be c0 1f a9 3e 19 d9 90 bd f1 d5 64 3e
       -0.22912504 0.33032036 -0.07072658 0.22347237
000380 93 78 26 be d2 24 14 bd e5 16 1b 3e f9 98 36 3e
       -0.16256933 -0.036167927 0.15145452 0.17831792
000390 0b 39 8b 3e ab 68 f0 bd 7b 63 2e 3d 36 39 3b 3e
       0.27191958 -0.11738714 0.04257534 0.18283543
0003a0 64 55 30 3e 1e fe 02 be d8 88 52 3e 9a 22 78 bd
       0.17220074 -0.1279225 0.20560014 -0.060579874
0003b0 48 1a eb 3d 83 0b 3d 3d 35 cf 0d 3e 0f 01 04 3e
       0.11479622 0.046153557 0.13848574 0.12891029
0003c0 06 7a 08 3e 01 cf 73 3d 0a 30 a5 bb e1 32 43 bd
       0.13327798 0.059523586 -0.005041127 -0.047655944
0003d0 f3 70 0f 3e 76 e3 93 bd 1c 50 d6 3c 17 0a 89 3d
       0.1400793 -0.07221119 0.026161246 0.066913776
0003e0 7a 12 89 3d 9d 4a aa bd de 48 9a 3d 4c 48 0d bb
       0.06692977 -0.083150126 0.075334296 -0.0021557985
0003f0 49 7f 3c 3d ca d3 bc 3b 6c d8 26 3c 20 4d ca 3d
       0.046019826 0.005762552 0.010183435 0.09877992

actor.2.bias f4 [64]
000000 e2 b3 81 bd 48 26 0d be 71 aa 5b bd 28 fc ed bd
       -0.06333138 -0.13784134 -0.053629342 -0.116203606
000010 e8 4c ab bd 6f 2f 88 3c b1 e6 b6 bd 63 12 91 bd
       -0.08364278 0.01662418 -0.0893072 -0.07083585
000020 ce 56 6e 3c 1e 42 4b 3c 25 52 83 3d cb 75 88 3d
       0.014547063 0.0124059 0.06412152 0.06663092
000030 7b 56 23 bd 86 3d 38 3d 2f 90 18 3d 0b c2 22 3d
       -0.039877396 0.04498055 0.03724688 0.039735835
000040 ce 32 88 3c 8c e5 4e 3e 48 40 9d bc 0c cf 9f bd
       0.016625788 0.20204753 -0.01919569 -0.07803163
000050 75 30 eb bd c2 85 3b bb 86 39 4e 3d 73 47 9a 3c
       -0.11483852 -0.0028613661 0.050347827 0.018832898
000060 9f 03 ef bd d8 f9 89 bb 2b 45 e3 3d d8 73 e2 bd
       -0.116706125 -0.004210692 0.11097177 -0.11057252
000070 f9 e4 08 bc 28 20 cf bb b4 b7 0c 3d 0b 47 55 3c
       -0.008355373 -0.006320972 0.03435488 0.013017426
000080 f7 86 cf 3c ae 15 ca bd df 66 cc 3d f8 0e 03 be
       0.025332911 -0.09867416 0.099805586 -0.12798679
000090 b4 3a d9 3d de 4f 6a bc 21 ca b3 3c f6 0a d2 3d
       0.106069 -0.014301268 0.021946969 0.10255997
0000a0 6c 0f 7c 3d 92 90 0e bd fa 66 85 bd 15 27 78 3d
       0.061538145 -0.03480584 -0.06513782 0.060584147
0000b0 28 76 d3 3d 16 e8 a5 ba 4e 39 a7 bc 27 31 0d be
       0.10325271 -0.0012657668 -0.020413067 -0.13788281
0000c0 a5 9b 24 3e 0e 97 68 bd 79 1c 90 bd e8 26 5f 3d
       0.16074999 -0.056784682 -0.07036681 0.054480463
0000d0 13 53 a4 bc fd af 24 3e 10 d8 09 3e 4f 66 c4 bd
       -0.020059144 0.16082759 0.13461328 -0.09589826
0000e0 dd 52 d7 3d 8a 91 79 3d 44 8d d5 bd 04 b7 8e 3d
       0.10513852 0.060929812 -0.10427335 0.06968501
0000f0 83 46 48 3d cd da f6 bd c2 14 3c 3c 1a 1e 07 3e
       0.04889537 -0.12053452 0.011479558 0.13195077

actor.4.weight f4 [2, 64]
000000 00 48 9e 3e 5e 67 83 3d a6 c2 7c 3e 6b e0 60 bd
       0.30914307 0.064162 0.24683627 -0.05490152
000010 1c e8 41 3e 70 23 f0 3d ea 5a 29 3d af a6 09 be
       0.18936199 0.11725509 0.041346468 -0.13442491
000020 bf fd b3 bd db ee fb bd ca fc 85 3e 32 3b 5e 3e
       -0.087886326 -0.123014174 0.26169425 0.21702269
000030 29 00 58 be d1 dc 93 3d ae a7 16 3e a5 fb 71 3d
       -0.21093811 0.07219852 0.14712402 0.059077878
000040 c4 10 fc 3d 9f 93 a3 bd 3d 25 de 3d b9 7b 80 bd
       0.12307885 -0.07987141 0.108469464 -0.06273598
000050 37 51 23 3e b1 f1 50 be e1 53 52 3e b1 be a0 bc
       0.1594895 -0.20404698 0.2053981 -0.019622179
000060 43 f8 9e 3d 93 70 73 3d 4c f7 d4 3c d2 6a 85 bd
       0.07762196 0.05943353 0.025996827 -0.06514515
000070 5e 10 fc bd ac 63 b4 3d c1 ca 0b be c5 96 3e 3d
       -0.12307809 0.088080734 -0.13651563 0.046530504
000080 f2 8b 70 3e 12 1a 1e bc 11 43 09 3e ae 07 3e bd
       0.23490885 -0.00964977 0.1340449 -0.046394043
000090 92 81 3b be b1 bf e1 bd b1 fa 15 3d 96 65 0e 3c
       -0.18311146 -0.1102289 0.03661603 0.008691212
0000a0 64 e8 fb bd 5f 20 84 bd 6c 40 13 bd 5d 4c 37 3e
       -0.12300184 -0.06451487 -0.03595011 0.17900224
0000b0 f5 9c 1d be e6 0b 39 3e a9 0d 46 3e 5e b7 5e bd
       -0.15391906 0.18070945 0.19341148 -0.05437409
0000c0 f6 f4 4b bd 41 88 c1 3d f2 8a 3b 3e bb 31 14 3d
       -0.04979416 0.094498165 0.18314722 0.03618024
0000d0 5f ed 2f be 8f 79 81 3d 9a dd 35 be e1 ec 6a bd
       -0.17180394 0.063220136 -0.17760316 -0.05735481
0000e0 ae 36 f4 bd 4f 6d eb 3d 10 01 ee 3d 5c 70 bf 3e
       -0.11924492 0.11495458 0.116212964 0.3739041
0000f0 4b ec 1c be 70 1e 30 3d f6 ba 3c bd f8 bd 0c be
       -0.15324514 0.042997777 -0.046076737 -0.13744342
000100 33 c5 17 3e 81 ca 3a 3e 22 95 42 be 3e 68 5b be
       0.1482132 0.18241312 -0.19002202 -0.21426484
000110 f3 4e 16 3e 54 c6 4c 3e 77 15 e1 3d e8 39 fa 3d
       0.14678554 0.19997531 0.10990422 0.12218076
000120 17 c2 8b bd 7f 01 be 3d 1f d1 28 bd c0 4e 0d 3d
       -0.06824129 0.09277629 -0.04121506 0.03449893
000130 c0 3c f4 bd e8 61 f9 3d 35 ff 0f 3e 1c b2 20 be
       -0.1192565 0.12176877 0.14062198 -0.15692943
000140 45 66 ab 3d 8e a1 e9 3d a4 73 f8 3b 22 a7 a9 bd
       0.08369116 0.11407767 0.007582145 -0.08283831
000150 17 bf 0a bd 38 3b 86 bc 32 2c 06 3e ee f4 88 bd
       -0.033873644 -0.01638566 0.13102797 -0.06687342
000160 ea 7b 07 be 9f e6 49 be 32 31 c5 bd 2d 40 a6 bd
       -0.13230863 -0.19716881 -0.09628524 -0.08117709
000170 3a 0b 8f be 2e 53 c1 bd 7a e4 08 be 92 31 4a bd
       -0.27938253 -0.094396934 -0.13368407 -0.04936368
000180 f1 92 a3 bc f3 fb 3c 3d d2 7b 59 3e 12 a3 b5 bb
       -0.019967528 0.046138715 0.2123864 -0.005543121
000190 bb e1 64 3d 2c 29 e5 bd 0a 9b 5b 3e 4b 1b 3d 3e
       0.055879336 -0.111894935 0.21445861 0.18467443
0001a0 19 1e a7 bd 09 50 13 bd 68 e5 ad bd 47 2b e7 3c
       -0.081600375 -0.035965 -0.084910214 0.028218878
0001b0 9c 14 d6 3c 70 4b 2e 3e 17 b8 2c bd 23 3e 8b be
       0.026132874 0.17020965 -0.04216775 -0.27195844
0001c0 19 73 6b 3d 7a 2d 1e 3c f0 7a f6 3d d7 81 8f bd
       0.057482813 0.009654397 0.12035167 -0.07007187
0001d0 d8 c7 a8 3b 23 c9 73 3e 64 1b ec 3d bf 0b 9d 3d
       0.0051507764 0.23807196 0.11528662 0.07668256
0001e0 50 2c 9a 3d aa f5 ec 3c 0e 1c c8 3d f1 a1 39 3e
       0.07527983 0.028925736 0.09770976 0.18128182
0001f0 d8 50 a5 3d f1 18 bd 3c 3f 7c 50 3d 5b 72 6c bd
       0.0807206 0.023083182 0.05089974 -0.057726245

actor.4.bias f4 [2]
000000 dd 8d 5f 3d f7 11 0c 3d
       0.05457865 0.03419682

critic.0.weight f4 [64, 17]
000000 49 33 29 be 2d 26 8f 3e 2b 10 0f 3e 98 32 cf 3c
       -0.1652347 0.27958813 0.13971011 0.02529268
000010 50 57 2b be 8a 83 de 3d ad 24 69 3c a6 93 26 bd
       -0.16732526 0.10864933 0.014229936 -0.040668152
000020 1a b6 6e be 36 eb 73 3e a6 0a 63 3d d9 25 8d 3d
       -0.23311654 0.23820195 0.055430077 0.068919845
000030 b0 59 be bd 02 01 78 3d e0 8b 8f 3d b5 7f bb 3e
       -0.0929445 0.060547836 0.07009101 0.3662087
000040 19 a1 91 3e 50 15 b2 bd da 54 e8 be c2 af 78 be
       0.2844322 -0.08695471 -0.45377237 -0.24285796
000050 2b 85 bb 3e b4 0b 8b bc ee 3a 04 3e 98 11 b7 bd
       0.36625037 -0.016973354 0.12913105 -0.089389026
000060 7b 1f b7 3c 5f 37 c8 3b 90 e4 e8 bd 99 6a 8b 3d
       0.022353878 0.0061101164 -0.1137172 0.06807441
000070 76 69 3a bd e1 61 d6 bd e1 40 2e 3d cd f1 08 be
       -0.04551073 -0.10467888 0.042542342 -0.1337349
000080 66 0d 8f be 5f b9 62 be ea 1a a9 bd 3f 19 af 3e
       -0.2793991 -0.22141026 -0.082570866 0.3419895
000090 e4 5c 73 bd 76 f0 21 3d 17 de 91 3a a2 63 80 3d
       -0.05941476 0.039535962 0.001112881 0.062690035
0000a0 2d f8 af bd aa d0 93 3c 94 3d 0e be 22 3e 45 3e
       -0.08592258 0.018043835 -0.13890678 0.19261983
0000b0 49 06 2c 3e de c8 53 3e 49 45 17 3c ec e0 ac 3d
       0.16799273 0.20682094 0.009232827 0.08441338
0000c0 d7 79 70 3d b6 5a 96 3e 96 61 5c 3e b8 8a d4 bd
       0.058709946 0.29366082 0.21521601 -0.10378021
0000d0 19 3f 6f bd 11 e6 7c 3e b4 41 eb 3d 77 77 ec 3d
       -0.058409784 0.24697138 0.11487141 0.115462236
0000e0 5d b7 21 be 6e 07 10 3b a3 70 e7 3d c5 1e ea bd
       -0.15792604 0.0021977085 0.113007806 -0.1143165
0000f0 f3 ae 16 be 38 1c 19 3e c0 fa 8b 3d 5b 4d 24 3e
       -0.14715175 0.14952171 0.06834936 0.16045134
000100 cf 3d a7 3e cc 54 15 be f4 84 a7 3e 18 91 8a bd
       0.32664344 -0.14583129 0.32718623 -0.06765956
000110 ef f2 81 3e 07 f1 85 3e e1 f0 e2 bd d7 35 32 3d
       0.25380656 0.26160452 -0.110811 0.043508377
000120 b4 c5 3d bc a4 5d 3a bd 36 cb 68 be aa 55 99 3d
       -0.011582781 -0.04549946 -0.22733769 0.07487042
000130 01 c7 8b 3d 51 b0 4c bd 8a 79 be be ec f3 d7 bd
       0.06825066 -0.049972836 -0.37202102 -0.10544571
000140 14 6f a1 be 2b 17 66 3e 1d 4a e3 bc d4 94 17 3d
       -0.31530058 0.22469775 -0.0277453 0.037007168
000150 70 cd c6 be cc 97 a9 bd 42 24 47 3c d9 b2 91 3e
       -0.3882861 -0.08280906 0.012154641 0.28456762
000160 a6 4a 0d 3e 70 82 1d 3e 16 da 50 3c 1f 66 b3 3c
       0.13798007 0.15381789 0.012747308 0.021899281
000170 c3 90 9e 3c 93 97 75 3d 05 a3 dc bd 37 a1 a3 3d
       0.019356137 0.059959006 -0.10773281 0.07989734
000180 89 60 dc bd f2 ae 5f 3c 40 24 9d 3e 40 c7 3c 3e
       -0.107606 0.01365255 0.3069172 0.18435383
000190 48 65 2a bd 31 69 7c 3d fc ef 80 be 2d 66 d9 3e
       -0.041600496 0.061623756 -0.25183094 0.42460766
0001a0 9d 9e bf 3e 20 2e 37 3e ed 06 ad be a1 27 c2 3e
       0.374257 0.17888689 -0.33794346 0.3792086
0001b0 8e 85 80 3e b1 6d 8c 3e 0d 73 ff bd dc 10 8b 3e
       0.25101894 0.27427438 -0.12473116 0.271613
0001c0 e6 64 35 be 98 53 fe bd 80 26 56 3e 7a e0 69 3e
       -0.17714271 -0.12418288 0.20913124 0.22839537
0001d0 b9 e0 bf bd 35 a6 93 3e d0 4e 93 3e ff 30 1b 3e
       -0.09369034 0.28837743 0.28771067 0.1515541
0001e0 03 1f e8 3e 3e 01 8a 3e 5f 8b 78 3d e0 6e 34 3d
       0.4533616 0.26954073 0.06067979 0.04405105
0001f0 b4 90 83 3e e6 0c 72 3d f1 a9 1c 3e bd cf 38 3e
       0.25696337 0.059094332 0.15299203 0.18047996
000200 7e 59 b4 3d 97 43 db bd e2 48 28 3e 87 36 07 3e
       0.08806132 -0.10706251 0.16434053 0.13204394
000210 da 03 15 3e cc 9d 3d bd 42 99 ad 3d 31 86 c8 bd
       0.1455225 -0.046293065 0.08476497 -0.0979122
000220 c8 39 ea 3d a6 8c c3 be 51 8d b8 3d 13 fa 4f bd
       0.11436802 -0.38193244 0.09011329 -0.0507756
000230 c5 21 12 bd d2 65 e0 bb 9f 85 0b be 2d f5 68 3c
       -0.035676736 -0.0068480754 -0.13625191 0.014218611
000240 7a 51 0e be 44 d2 71 3e 14 7a 8d be 5e d5 ed 3e
       -0.13898268 0.23615366 -0.276322 0.4645185
000250 54 9c f9 3d 1c f6 92 3e f0 34 1c bd 8a 2e 31 be
       0.1218802 0.28703392 -0.038136423 -0.1730291
000260 a0 6e 10 3c f4 96 7f bb 12 00 8a be af 2a 21 3f
       0.008815438 -0.0038999887 -0.2695318 0.62955755
000270 7f 7d 04 bc e5 57 f2 bc 86 73 6c 3e 3f 75 f2 bd
       -0.008086561 -0.029582927 0.23090944 -0.11838769
000280 60 ab 12 3e 09 60 4f be b5 78 90 ba b8 d2 33 3c
       0.14323187 -0.20251478 -0.0011022302 0.010975532
000290 20 9f 54 3b 9a 0c fe 3e 3c 25 12 be ea 81 9c 3d
       0.0032443479 0.4961899 -0.14272016 0.07641967
0002a0 93 98 04 bf fb 77 6f 3e 9d 61 db 3b a7 98 ec 3d
       -0.5179531 0.23385613 0.006694986 0.115525536
0002b0 3a 6c fe be 67 07 f4 3d 98 f9 60 be 42 e8 7b be
       -0.49691945 0.119154744 -0.21970212 -0.24600318
0002c0 e7 65 5a bc 83 0b f1 bd f1 df 06 bc ad d9 51 3e
       -0.0133299595 -0.11769774 -0.008232103 0.20493193
0002d0 76 25 72 bd f1 13 ee bd 22 fe 54 be 67 7e ca 3d
       -0.059117757 -0.11624897 -0.20800069 0.098873906
0002e0 56 fa 27 3e 43 e1 43 3e 5c 24 08 bf 0d db ab 3d
       0.1640409 0.191289 -0.5318048 0.0839139
0002f0 86 c7 26 3e f0 32 06 bf 77 e2 85 be 12 3b 8e 3d
       0.1628705 -0.52421474 -0.2614934 0.069448605
000300 a3 17 99 bd e9 25 92 be 58 f4 b6 be fb 76 1a be
       -0.074752115 -0.28544548 -0.35733294 -0.1508445
000310 b3 23 86 3c f5 5e 02 be c6 01 a3 be 8c 5a 7a be
       0.016374445 -0.12731536 -0.3183729 -0.24448603
000320 24 cd 44 3e 2d 93 c7 3e 7a 1e c0 3e c5 7c e4 be
       0.1921888 0.38979474 0.37523252 -0.44626442
000330 82 1a ca bd 82 e6 9a 3d 39 ee d6 3d da 0e 3a bd
       -0.09868337 0.07563497 0.10494656 -0.04542432
000340 b8 42 ce 3c 9f 85 01 bd b7 7d ed 3d e1 91 3f 3e
       0.025178298 -0.03162157 0.11596244 0.18707992
000350 26 7a 85 be a9 93 9f bd 62 e3 3a bd c7 2a eb 3d
       -0.26069754 -0.07791836 -0.045627005 0.114827685
000360 48 08 30 be aa f8 f0 3d 0c 56 be 3d 8a eb d9 3e
       -0.17190659 0.11766179 0.09293756 0.42562515
000370 f3 75 55 be 4d 17 0f 3e 60 2a 2b 3d 66 ee 1e be
       -0.20845775 0.13973732 0.04178846 -0.1552063
000380 bd 2d 06 3d 2f 5b b9 3e c3 7e 8e bd 83 ce 94 3b
       0.032758463 0.3620238 -0.06957772 0.0045412197
000390 12 a2 4f be ad b0 90 3e 19 58 d9 3d a2 6f c3 3d
       -0.20276669 0.28259793 0.106125064 0.09542777
0003a0 f9 72 2d bd a1 e5 9a be 30 9c 84 3e 34 bc 3b 3d
       -0.042345975 -0.30253318 0.25900412 0.04583378
0003b0 a6 64 70 bd 97 e5 73 bd 6b 86 1a be cb 4c e3 3e
       -0.058689736 -0.059545126 -0.15090339 0.44394526
0003c0 1f 30 79 3e d1 f8 a0 3d e7 49 43 3e 38 c3 0c be
       0.24334763 0.07859958 0.1907116 -0.13746345
0003d0 e0 e0 f5 3d c9 74 79 3e e8 a2 8b be d3 f2 4d 3e
       0.12005782 0.24360956 -0.27272725 0.20112161
0003e0 a7 91 0d 3b ab 1b f9 3d 56 c8 e7 b9 3e fd 0b be
       0.0021601708 0.1216348 -0.00044209015 -0.13670823
0003f0 90 00 f2 3d 19 1e b3 3e cb 18 95 3e 53 c7 0a 3c
       0.118165135 0.349839 0.29120478 0.008470374

critic.0.bias f4 [64]
000000 9d 80 25 3e dc f0 b4 be 3c 17 a7 3d c1 b8 16 be
       0.16162343 -0.3534001 0.081587285 -0.14718916
000010 cf 90 0b be c8 ab b2 be d8 a8 42 be 75 50 64 3e
       -0.13629459 -0.34896684 -0.19009721 0.22296317
000020 27 91 e7 be 98 d7 fe 3c 61 dd 7b bc 29 3c 8b be
       -0.4522793 0.031108662 -0.015372605 -0.27194336
000030 a9 6f 35 3e cf ac 69 be 32 97 18 3e af de 01 be
       0.17718376 -0.22819827 0.14901426 -0.12682603
000040 f1 84 1d bd d8 65 c9 be 99 ac 1e be f0 32 92 3e
       -0.03845686 -0.39335513 -0.15495528 0.28554487
000050 f0 48 89 bb 11 29 56 3e 07 7c 1b be ff 12 44 be
       -0.004189603 0.20914103 -0.15184031 -0.19147871
000060 b9 b3 79 be 63 3b 0f be d4 fc aa b7 4c ca 53 be
       -0.24384965 -0.13987498 -2.0383311e-05 -0.20682639
000070 3e b0 68 3e 8f 23 b2 3d 6f 4f ed be 1c fe 5d 3e
       0.22723481 0.086981885 -0.46349666 0.21678966
000080 62 1d b1 be 70 92 b0 3d 8d d5 7e 3e 39 94 95 be
       -0.3459273 0.08621681 0.2488615 -0.29214647
000090 cb 40 5b be 05 cf 6f be 98 69 e1 3d 0d 89 b7 be
       -0.21411435 -0.23418815 0.110064685 -0.3584675
0000a0 85 21 9e be e7 dc ba 3b 90 1b cb 3e e8 d7 d7 be
       -0.30884948 0.005702603 0.39669466 -0.4215691
0000b0 08 d1 66 be 73 a4 02 bf b4 ee 87 3e be ed 74 3e
       -0.22540677 -0.5103218 0.26549304 0.23918816
0000c0 c6 32 96 be dd 92 96 bc cd f4 82 be 72 52 03 3c
       -0.29335612 -0.018380577 -0.25577393 0.008015262
0000d0 ed 4a 64 bd c6 e9 9f be 5a f3 2b be d6 ec 98 be
       -0.055735517 -0.31233042 -0.1679205 -0.2986819
0000e0 17 a7 42 3d 83 62 8a bd 06 2a 91 3e d0 97 0e bd
       0.04752263 -0.06757071 0.28352374 -0.03481275
0000f0 bc a6 cd bc fe 54 45 be b8 4c b6 3d 75 1c 72 3e
       -0.02510392 -0.19270703 0.08901352 0.23643668

critic.2.weight f4 [64, 64]
000000 47 42 93 3d 24 a4 dc bd b3 cd ec bd 60 95 23 39
       0.07190376 -0.10773495 -0.115626715 0.00015600538
000010 35 5c 05 be 4c 19 5b 3e fe a4 83 be e7 63 15 be
       -0.13023455 0.21396369 -0.25711817 -0.14588891
000020 50 29 cb 3c f2 c0 96 bd 1a 9a aa be 46 d8 f1 3c
       0.024799973 -0.0736102 -0.33320695 0.029522073
000030 16 05 8b bd f0 f5 fa bb fe be 56 bd 3a 07 b5 bd
       -0.067880794 -0.0076587126 -0.052428238 -0.08839269
000040 10 30 e5 3d 54 8c 57 be c4 3e 9e 3d cc e3 f9 3d
       0.11190808 -0.21049625 0.07726815 0.12201652
000050 3d c9 40 3b 85 20 0a be 19 db 66 bd ef dd 90 bd
       0.0029416822 -0.13488968 -0.05636129 -0.070735805
000060 90 3e 80 bd db 03 fd bc 0c 0e 35 3d 50 d9 24 3c
       -0.06261933 -0.030885627 0.04420285 0.010061577
000070 a3 2a 15 3e 1c a2 1e bd 60 dd 73 bd 6d 3b c1 bd
       0.14567046 -0.03872882 -0.05953729 -0.09435163
000080 9a 5c f9 3d d6 61 18 3c 07 20 61 bc 4e 90 72 be
       0.121758655 0.00930067 -0.013740546 -0.2368786
000090 38 25 85 bc 50 92 6c bd 4e f0 a5 be 54 7f 58 3d
       -0.016253099 -0.057756722 -0.324099 0.052855805
0000a0 be c6 94 3d 63 8c 37 bd ba 65 ea bd b6 97 ea bd
       0.072644696 -0.044811618 -0.11445184 -0.11454718
0000b0 ea 07 a7 3d 2a 90 7c be 12 71 7f bd 9e 0b a3 bd
       0.08155806 -0.24664369 -0.06236369 -0.079612
0000c0 b0 37 41 bc 18 58 5e bd bc 6c 90 3c 86 ea cb bd
       -0.011793062 -0.05428323 0.017629974 -0.09956841
0000d0 cd 38 34 bd 18 62 87 bd 65 2c 9b be 46 3c 86 3d
       -0.043999482 -0.06610507 -0.30307308 0.06554465
0000e0 64 6f ad 3d 0d cb 24 bd a2 aa 0a 3e d7 ba 6e be
       0.08468512 -0.040232707 0.13541654 -0.23313461
0000f0 21 3a 4e be 51 b2 64 ba b0 42 d6 3d eb b5 16 be
       -0.20139362 -0.0008724081 0.104619384 -0.14717834
000100 5f 57 9f 3e 69 6c ae be 5b 31 6e 3d bd a6 83 3d
       0.31121346 -0.34067085 0.058152538 0.06428287
000110 37 10 3c be 81 12 1f bd 0c 03 65 3e 7b 71 0a 3e
       -0.1836556 -0.038836006 0.22364444 0.13519852
000120 0c bb cf 3c da 2d 8a bd c6 20 70 3e d9 74 eb be
       0.025357746 -0.06747027 0.23450002 -0.45987585
000130 4c e7 e9 3e dd fd 64 3e 4a 2f f9 bd ba f1 bf be
       0.45684278 0.22362466 -0.12167223 -0.3748911
000140 2d e3 be 3d a0 34 3e bf f4 df b1 3e 2d b9 04 3f
       0.09320674 -0.7429905 0.34741175 0.51845056
000150 6e 9a 8e 3e 81 ac 10 3f 57 f7 5b 3e 02 fa df 3d
       0.27852196 0.5651322 0.21481071 0.10936357
000160 20 1c 43 bc 75 41 9f bd dc 42 4c 3d f4 b9 07 bf
       -0.011908561 -0.07776157 0.04986845 -0.53018117
000170 e6 dc 3b be 5c dc 11 be bc fc 11 3d e3 16 27 be
       -0.18345985 -0.14244217 0.035641417 -0.16317324
000180 1e bd 1f be 49 17 37 3d d9 1a 5b bf 2d e8 3c bf
       -0.15599486 0.04469994 -0.8558784 -0.7379177
000190 3f 40 de be 00 59 bd bb 2a dd 12 3f 7e e5 18 3d
       -0.4340839 -0.005778432 0.5736872 0.037328236
0001a0 1a 3f df be 77 47 30 3f ba e0 51 be fd 8d b8 bd
       -0.4360283 0.68859047 -0.20495883 -0.09011457
0001b0 b0 73 b7 be 62 3f c3 be 1f 24 f8 bb cc 12 80 bf
       -0.3583045 -0.38134295 -0.0075726653 -1.0005736
0001c0 b9 dc 90 be ad c2 a1 bd e4 e1 fe 3d 52 fd 97 be
       -0.28293398 -0.078984596 0.12445429 -0.29685456
0001d0 a7 ed 03 3e cf 6b c0 be 74 2a 04 bf 6d f8 11 bf
       0.12883626 -0.3758225 -0.5162728 -0.5701969
0001e0 ac c3 38 bd 3d 41 08 bf 48 2b 75 be 3c a1 85 3e
       -0.045108482 -0.53224546 -0.23942292 0.26099575
0001f0 b2 0b 5b 3e 08 b2 96 bd a0 09 ae 3c d5 d1 4c 3e
       0.2139118 -0.073581755 0.021244824 0.2000192
000200 1b 40 f5 bd 1e 15 a5 be e6 a5 1b bc 12 68 54 3d
       -0.11975118 -0.32242674 -0.0095000025 0.05185706
000210 d7 b5 92 bd 70 b7 d9 3d bb 0e e7 3d 2e a5 d9 bd
       -0.071635894 0.10630691 0.112821065 -0.10627209
000220 e7 37 d2 3d 6e 45 58 be 50 5b 05 3e 4a 83 39 3e
       0.10264569 -0.21120235 0.13023114 0.18116489
000230 6f 5a 92 bd f7 f6 6f bd e4 7d 03 be 24 04 48 be
       -0.07146155 -0.058585133 -0.12840992 -0.1953283
000240 5a 3a 47 bd 0f 57 98 3c 00 77 91 3d e6 7f a9 bb
       -0.048639633 0.0185962 0.071027756 -0.0051727174
000250 28 c0 47 be 88 8f ba 3d 87 ac 9a be bb f0 b3 be
       -0.19506896 0.09109408 -0.30209753 -0.351446
000260 3f da a1 bd 6a 11 11 be ac 76 91 bd 54 a2 0b be
       -0.07902955 -0.14166799 -0.07102713 -0.13636142
000270 6c f0 94 be 9a 8a 2d bd e9 14 8b 3d 68 c0 8e be
       -0.29089677 -0.04236851 0.06791098 -0.2788117
000280 c2 07 f9 bd 24 be e6 bd 32 fc 04 be 46 a5 20 3e
       -0.12159683 -0.11266735 -0.1298683 0.15688047
000290 a5 59 12 be 58 a9 b4 3d 25 7d 07 3e ff 7e 69 3d
       -0.14292009 0.08821362 0.13231333 0.05700588
0002a0 e3 9f 45 3e e5 f6 4d 3d 77 8f 77 be 2c e2 63 3d
       0.19299273 0.050284285 -0.24175821 0.055635616
0002b0 65 7f af bd 6f 9c 58 bd 7a fb 8b bd 29 1e f8 bd
       -0.085692205 -0.05288356 -0.06835075 -0.121151276
0002c0 3e cf ff bd 77 d4 c1 bc 4a 21 14 be 91 f2 58 be
       -0.124907 -0.023660881 -0.14465824 -0.21186282
0002d0 66 77 ca bd cd 4a b2 3c 5b 1e c7 bd 3a fb 94 bc
       -0.09886055 0.021764183 -0.09722587 -0.0181862
0002e0 d3 93 8d be ce 41 ea bc b4 a4 68 be 5d 08 0a be
       -0.27651843 -0.028595831 -0.2271908 -0.13479753
0002f0 e9 98 b2 3c de c3 85 be a0 0d 8f 3c 10 35 a2 3c
       0.021801429 -0.26125997 0.017462552 0.019800693
000300 4c 33 a8 3d b8 90 78 bd fb 62 ee bb 5d 51 13 3e
       0.08212909 -0.06068489 -0.007274983 0.14386506
000310 90 5d c1 3c f8 4a ab 3d 1d 08 29 bc dd b7 08 be
       0.023604184 0.083639085 -0.010316876 -0.13351388
000320 7d fe 3c 3d 90 d8 2d be 63 82 de bd ee b6 da 3d
       0.046141136 -0.16977143 -0.10864713 0.10679422
000330 d8 c0 97 3d b3 7d 9a bd 24 59 03 be 61 1c 2c be
       0.07409829 -0.075435065 -0.12826973 -0.168077
000340 75 42 8c 3c 19 61 90 3c ac b9 ce bd b3 21 ab bc
       0.017121533 0.017624425 -0.10094008 -0.020890092
000350 1f 77 81 be 92 79 e0 bd 33 fa f7 3c 4c 77 65 be
       -0.25286195 -0.10960688 0.030270671 -0.2240879
000360 d0 b5 ad 3c 03 a6 88 3d 90 42 cf bd ce 0e d9 bd
       0.021204859 0.06672289 -0.10120118 -0.10598527
000370 ba c1 60 be 41 0a f7 bd 8a df 4f bd 65 99 94 be
       -0.21948901 -0.12062503 -0.050750293 -0.2902328
000380 57 ab 95 bc 17 99 49 be d8 3f 86 be a7 ea 50 3c
       -0.018270178 -0.19687305 -0.26220584 0.012751258
000390 05 7c 80 3d b0 d1 05 bd b4 45 6c bb c4 75 cd bd
       0.06273655 -0.032670677 -0.0036052288 -0.10032228
0003a0 a8 ed b0 3d aa e4 c6 3c 43 87 ac be 50 cb 7e 3c
       0.08639079 0.024278957 -0.33696947 0.015551403
0003b0 52 d1 c4 3c a8 52 8c bd a4 f7 00 be 04 18 8c be
       0.024025593 -0.06851703 -0.12594467 -0.27362072
0003c0 32 c1 91 bd ed 78 40 be a4 fa f6 bd 60 2a 1b be
       -0.07116927 -0.1879613 -0.12059525 -0.15152884
0003d0 d9 be be bc d6 4b 1c bd 76 18 94 3d 33 60 df bd
       -0.023284363 -0.03815826 0.07231228 -0.109070204
0003e0 17 d2 f2 bd 78 e5 9b bd ce 02 48 be f5 d1 26 be
       -0.11856478 -0.07612127 -0.1953232 -0.1629103
0003f0 06 57 8d 3d 8d ad 63 bd ec 72 15 3e d6 e1 6e bd
       0.06901364 -0.055585433 0.1459462 -0.058320843

critic.2.bias f4 [64]
000000 ac ab 1d 3d fa b6 0b 3e f3 76 7e bd e5 ae 5f 3d
       0.038493797 0.13644019 -0.062125158 0.05461015
000010 af d3 5f bd f6 ab c9 bc 00 bc 9a bd 4e 96 0e be
       -0.054645237 -0.02461813 -0.075553894 -0.13924524
000020 6c c3 95 3c 07 48 96 be 94 ed ea 3c 13 68 14 bd
       0.018281661 -0.29351828 0.02867774 -0.036232065
000030 93 68 87 bd ce e9 2b 3d 58 a4 60 be 24 b6 74 bd
       -0.06611743 0.04197102 -0.21937692 -0.059744015
000040 c3 47 42 bd 4f 5b 74 3a c7 5f 59 bd 79 ec 85 3d
       -0.04743172 0.00093214674 -0.053069856 0.06539244
000050 e4 98 2b be 97 0f 0d bd 3a 95 15 be d2 65 a8 bd
       -0.16757542 -0.034438696 -0.14607707 -0.08222546
000060 3a bc 24 be 13 40 cd bd aa 51 74 bd 22 0c 8d bd
       -0.16087428 -0.10021987 -0.059648193 -0.0688708
000070 8c 5c 4b be 27 f6 21 3d c3 42 ba bd 04 00 c2 bd
       -0.19859523 0.03954139 -0.09094765 -0.09472659
000080 c0 66 a3 bd 5a 49 ac bd 0c c1 0d bd 59 d2 d7 3c
       -0.079785824 -0.08412428 -0.034607932 0.026345419
000090 ee a3 df bd a7 77 7c bd 91 90 44 3c aa 24 22 be
       -0.10919939 -0.061637547 0.011997358 -0.15834299
0000a0 4e 48 83 be ab 4a f6 bd cf 61 30 be 94 1e a0 bc
       -0.25641102 -0.120259605 -0.17224811 -0.01954583
0000b0 77 17 12 bd c6 2f a8 bd 96 e3 61 3d 60 3e 93 bd
       -0.03566691 -0.08212237 0.055148683 -0.071896315
0000c0 cb 4e cc 3d a0 92 92 bd 95 f9 1d be 21 cc 6a bd
       0.09975966 -0.07156873 -0.15427239 -0.05732358
0000d0 8b 3c ad bd b9 e4 ab bd c3 3f e7 bb 47 3a 65 be
       -0.08458813 -0.08393235 -0.0070571615 -0.22385512
0000e0 73 30 ac be 8f b1 cd bd d7 f8 28 3d b4 48 f2 be
       -0.33630714 -0.10043632 0.041252937 -0.47321093
0000f0 da c2 1f be 1f f5 91 3d 98 60 84 3c e4 12 c6 bb
       -0.15601674 0.07126831 0.01615934 -0.0060447324

critic.4.weight f4 [1, 64]
000000 ea d1 c9 3d 27 21 a7 be cd 46 c3 bd d6 cf 13 be
       0.09854491 -0.3264248 -0.095349886 -0.14434752
000010 9e 96 8d 3d f9 99 04 be 66 a0 e3 3d 16 76 4f 3c
       0.069134936 -0.12949361 0.11114578 0.012662431
000020 50 dc 44 be 14 47 9e 3e 05 40 9a be 7b c8 e3 3d
       -0.19224668 0.30913603 -0.30126968 0.11122223
000030 df 19 3a 3e d9 5d 56 be c7 60 a4 3d b5 c5 ae bd
       0.18173932 -0.20934238 0.08026271 -0.085338034
000040 71 19 9d 3d bc c1 05 be bb 0c 27 be c4 de af be
       0.07670868 -0.13062185 -0.1631345 -0.34349644
000050 2d 27 9d 3e bb bc fd bb 02 02 2a be 92 e7 fe bd
       0.3069395 -0.0077434457 -0.16602328 -0.12446512
000060 36 dc 25 bd b1 1e f8 bd a4 ca 86 bc e3 ec 0d bc
       -0.040493213 -0.12115229 -0.016454048 -0.008662435
000070 bd d7 59 3e 7c f2 99 3d 4d 4a a7 3d 2f 51 de 3c
       0.21273704 0.07516953 0.081684686 0.02713832
000080 0b a3 10 be 1f c4 df be 47 85 26 3d 96 5b 19 be
       -0.14124696 -0.43704316 0.040654447 -0.14976344
000090 86 93 d0 ba 2d f9 5a be a2 f7 01 be dc 59 13 be
       -0.0015913106 -0.21384116 -0.1269212 -0.14389747
0000a0 6a f8 1e 3d c2 1c e8 3d 5c 34 fb bb 87 7d 72 be
       0.038811125 0.1133361 -0.007666154 -0.23680697
0000b0 2a f4 40 be 8c 20 df 3d 6a 2d d7 3d a4 73 a2 3d
       -0.18843141 0.1089488 0.10506709 0.07932213
0000c0 57 1b 84 be 94 dc 81 be ca 66 65 be b1 a1 bd be
       -0.2580211 -0.253636 -0.22402492 -0.37037423
0000d0 f4 9c 14 bc be 85 08 3e ee 4f 69 bd f8 2d 26 3c
       -0.009070624 0.13332269 -0.056960993 0.010142796
0000e0 31 a4 8f 3e ef be 51 3c 64 b5 7d be 4f 9c 20 3e
       0.28054956 0.01280187 -0.24776226 0.15684627
0000f0 86 03 dd 3d b5 03 51 be 93 e9 65 bc 49 87 92 bc
       0.10791688 -0.2041157 -0.014032739 -0.017886775
