examples/neurocoevolution_pytorch/player1_407.1339142988631.pth (torch, 24279 bytes, 6 tensors)

weight f4 [64, 14]
0	0x3e641242	0.2227259
1	0xbdf3889d	-0.11891291
2	0x3e763534	0.24043733
3	0xbe57836e	-0.2104623
4	0x3e17190e	0.14755651
5	0xbe1f4663	-0.15554194
6	0xbd9c724d	-0.07638989
7	0x3cc37cbc	0.023863189
8	0xbdea2db8	-0.114345014
9	0xbd2c53cf	-0.042072114
10	0xbd942dcf	-0.072353
11	0xbd9ca293	-0.07648196
12	0x3e0ac0a3	0.13550048
13	0xbe094963	-0.13406901
14	0xbc63ec79	-0.01391136
15	0x3e77def8	0.2420615
16	0x3d4f259b	0.050572973
17	0xbe3f68d2	-0.1869233
18	0x3e764295	0.24048837
19	0xbe5560a8	-0.20837653
20	0xbdaa7590	-0.083232045
21	0x3e254e21	0.16143085
22	0xbe2e6300	-0.17029953
23	0xbc753540	-0.014966309
24	0xbe6a47da	-0.22878972
25	0x3e445e7c	0.19176668
26	0x3e51873f	0.20461749
27	0x3deb2451	0.11481536
28	0xbe4ec32a	-0.20191637
29	0x3d736a07	0.059427287
30	0xbe7ede94	-0.24889594
31	0x3e5e8af5	0.21732695
32	0x3d80d7cc	0.0629116
33	0xbd51aa0a	-0.051187553
34	0xbe6038f7	-0.2189673
35	0xbd60bbca	-0.05486659
36	0xbe382bfd	-0.1798553
37	0x3ceff8bc	0.02929341
38	0xbd8737e4	-0.06602457
39	0xbe3af7e8	-0.18258631
40	0x3dfd77c5	0.1237636
41	0x3e1cd0fc	0.15314096
42	0x3d4106a2	0.047125466
43	0xbe0af0ae	-0.13568375
44	0x3e29c0a1	0.16577388
45	0x3e32faea	0.17478529
46	0xbd87def7	-0.06634324
47	0x3e6af0df	0.22943448
48	0x3e35afcc	0.17742842
49	0x3e22df82	0.15905574
50	0x3e871726	0.26384848
51	0xbdfd9d81	-0.12383557
52	0x3dcc75b6	0.09983389
53	0xbddb859f	-0.107188456
54	0x3c6d1d93	0.014472383
55	0xbde5d368	-0.11221963
56	0x3e259a46	0.16172132
57	0x3e40bad0	0.18821263
58	0xbd9a6b94	-0.0754005
59	0xbc0c7040	-0.008571684
60	0xbe4083be	-0.18800256
61	0xbbd81130	-0.006593846
62	0x3e84ce0c	0.2593845
63	0xbc9151f6	-0.017739277
64	0xbe46654e	-0.19374582
65	0x3e831952	0.25605255
66	0xbe6e205a	-0.23254529
67	0x3d82e2be	0.06390904
68	0x3d91185e	0.07084726
69	0x3d5b4270	0.053530157
70	0xbe0d327d	-0.13788791
71	0x3e3c4eba	0.18389407
72	0xbe36a930	-0.17837977
73	0x3e668102	0.2251015
74	0x3e2d4320	0.16920137
75	0x3de85ae6	0.113454625
76	0xbe1a8431	-0.1508949
77	0xbdd45cc3	-0.103692554
78	0x3e2255bf	0.15853022
79	0xbdfae790	-0.12251198
80	0x3e03e614	0.12880737
81	0xbddd9881	-0.108201034
82	0xbe1044fb	-0.14088814
83	0xbe84e741	-0.25957683
84	0x3e02531b	0.12727015
85	0xbcb5e6aa	-0.022204716
86	0x3e7daf30	0.2477386
87	0x3e56dadb	0.20981924
88	0x3d60ef56	0.05491575
89	0x3e7bbb73	0.24583225
90	0xbde1bfb8	-0.110228956
91	0xbe6bb1bb	-0.23017018
92	0x3daa2495	0.08307759
93	0x3e195073	0.14972095
94	0x3e3d82dd	0.18506952
95	0xbd8d1347	-0.068884425
96	0xbe3be2f0	-0.18348289
97	0x3e3ae5e6	0.18251762
98	0xbd90c97e	-0.070696816
99	0xbd98cf43	-0.07461407
100	0xbdf21ada	-0.11821528
101	0x3d8d046e	0.068856105
102	0xbe5c5406	-0.21516427
103	0x3d66a84c	0.056312844
104	0x3e6b0af4	0.22953397
105	0xbbe4f152	-0.0069867754
106	0xbb1ce047	-0.002393739
107	0x3e7a7f6c	0.2446267
108	0xbddf7347	-0.10910659
109	0xbdc27202	-0.094944015
110	0xbd6585fc	-0.05603598
111	0x3d8a86ed	0.06764016
112	0xbd7bc943	-0.061471235
113	0xbd9381a4	-0.07202461
114	0xbe527f11	-0.20556284
115	0x3e59e181	0.21277429
116	0x3d1bd236	0.03804227
117	0x3e59a212	0.21253231
118	0xbba17cc5	-0.0049282038
119	0xbdc50094	-0.09619251
120	0xbd84d972	-0.06486787
121	0xbdae485b	-0.085098945
122	0xbe0c3a41	-0.13694097
123	0xbddbd741	-0.10734416
124	0xbd07be2d	-0.03314035
125	0xbdac23a7	-0.08405238
126	0xbe519d79	-0.20470227
127	0xbe85b398	-0.26113582
128	0xbda27cac	-0.079339355
129	0xbd8c8e0c	-0.06863031
130	0xbc7c6000	-0.015403748
131	0x3d94b021	0.072601564
132	0xbe481b5d	-0.19541688
133	0xbb84d294	-0.004053423
134	0xbcf40e76	-0.029792052
135	0xbd598314	-0.05310352
136	0xbd97195f	-0.07377886
137	0xbdc3099c	-0.09523317
138	0x3e58167e	0.2110233
139	0x3d097060	0.033554435
140	0xbe1acf6d	-0.15118189
141	0xbc55a4e0	-0.013039798
142	0xbdcd6301	-0.10028649
143	0xbdad3192	-0.084567204
144	0xbe59bc5f	-0.21263264
145	0x3e787dc1	0.24266721
146	0xbe08f962	-0.13376382
147	0xbe4d2701	-0.2003441
148	0x3e4045d6	0.1877664
149	0x3e3dbb77	0.18528543
150	0xbc801000	-0.01563263
151	0xbd591354	-0.05299695
152	0xbe73613e	-0.23767564
153	0x3e164a60	0.1467681
154	0x3c131dc9	0.008979269
155	0x3be5f6f8	0.0070179664
156	0xbd986ba8	-0.07442409
157	0x3e42e7c3	0.19033723
158	0xbe24e3f3	-0.1610258
159	0x3e13ba58	0.14426553
160	0xbe3d7106	-0.18500146
161	0x3de551e3	0.11197259
162	0xbe508101	-0.20361711
163	0x3e7ed117	0.24884449
164	0x3d2c3d6d	0.042050768
165	0x3e21dbb7	0.15806471
166	0xbe5f4d95	-0.21806939
167	0xbe407305	-0.18793876
168	0xbe0bdaa4	-0.13657624
169	0xbd650c2e	-0.05591982
170	0x3e052011	0.13000514
171	0xbe44928b	-0.19196527
172	0xbe6e70df	-0.23285244
173	0x3e2082b7	0.15674864
174	0xbe4edf2f	-0.20202325
175	0x3e00aaba	0.12565127
176	0x3e6e270c	0.23257083
177	0x3dab02a0	0.0835011
178	0x3d447a7f	0.047968384
179	0x3d964ae9	0.07338507
180	0xbc089496	-0.008336207
181	0xbb88e74d	-0.004177964
182	0x3c59a27b	0.013283367
183	0x3dd0bbd8	0.10192078
184	0x3dc3aca0	0.0955441
185	0x3dcb6dc2	0.09933044
186	0x3d1635d0	0.036672413
187	0x3e875c3c	0.26437557
188	0xbe511edb	-0.20421927
189	0xbdc7d26b	-0.09756931
190	0x3d548221	0.051881913
191	0xbdc78559	-0.09742231
192	0x3e3ae689	0.18252005
193	0x3e0953f4	0.13410932
194	0x3caf120a	0.021370906
195	0xbd1b8fff	-0.037979122
196	0xbe5cfae1	-0.21580078
197	0x3cfe846b	0.031069001
198	0x3e848a4c	0.25886762
199	0x3e857fef	0.26074168
200	0xbd6b2114	-0.057404593
201	0xbe4fec4a	-0.20304981
202	0x3da16265	0.078800954
203	0xbdeadb28	-0.11467582
204	0x3dc9a077	0.09845059
205	0xbdfe4c69	-0.12416918
206	0x3dba8780	0.09107876
207	0x3d29606e	0.04135173
208	0xbce60e7d	-0.02808308
209	0xbcf5d3bc	-0.03000819
210	0x3e69fdec	0.2285077
211	0x3e597b89	0.21238531
212	0x3d98ec64	0.07466963
213	0x3e40a2da	0.18812123
214	0x3e1b806d	0.1518571
215	0xbe403256	-0.18769202
216	0xbdf78b7b	-0.12087151
217	0xbd9d2acb	-0.07674178
218	0x3e0dd395	0.13850243
219	0x3cbca6d7	0.023028774
220	0x3e80d7ae	0.2516455
221	0xbe490fa4	-0.19634873
222	0xbe454e00	-0.19268036
223	0x3dc57b41	0.096426494
224	0xbe696b8e	-0.22794935
225	0xbe100262	-0.14063409
226	0xbe202e7a	-0.1564273
227	0x3d8d7398	0.069068134
228	0xbe70284a	-0.23452869
229	0xbe847ebe	-0.25877947
230	0x3aeb0d55	0.001793305
231	0x3e841bb2	0.2580238
232	0x3d9e3214	0.077243954
233	0xbe16b865	-0.14718778
234	0xbdf095c4	-0.117473155
235	0xbe72ebc4	-0.2372275
236	0xbe614541	-0.21999075
237	0x3d8da351	0.06915916
238	0x3e0a8868	0.13528597
239	0x3db4424b	0.08801707
240	0x3d806244	0.06268743
241	0x3d821fb9	0.06353707
242	0x3e3f36de	0.18673274
243	0xbe47c807	-0.19509898
244	0x3dfcf03c	0.123505086
245	0x3c940a50	0.018071324
246	0xbe481247	-0.19538222
247	0x3e623e11	0.22093989
248	0x3e866f16	0.26256627
249	0xbe22c0b5	-0.15893824
250	0xbe752d97	-0.23943172
251	0x3e2f7b13	0.17136793
252	0xbe4078e0	-0.1879611
253	0x3e7b6e83	0.24553876
254	0xbe355dbe	-0.17711541
255	0x3df61716	0.12016122

bias f4 [64]
0	0x00000000	0.0
1	0x00000000	0.0
2	0x00000000	0.0
3	0x00000000	0.0
4	0x00000000	0.0
5	0x00000000	0.0
6	0x00000000	0.0
7	0x00000000	0.0
8	0x00000000	0.0
9	0x00000000	0.0
10	0x00000000	0.0
11	0x00000000	0.0
12	0x00000000	0.0
13	0x00000000	0.0
14	0x00000000	0.0
15	0x00000000	0.0
16	0x00000000	0.0
17	0x00000000	0.0
18	0x00000000	0.0
19	0x00000000	0.0
20	0x00000000	0.0
21	0x00000000	0.0
22	0x00000000	0.0
23	0x00000000	0.0
24	0x00000000	0.0
25	0x00000000	0.0
26	0x00000000	0.0
27	0x00000000	0.0
28	0x00000000	0.0
29	0x00000000	0.0
30	0x00000000	0.0
31	0x00000000	0.0
32	0x00000000	0.0
33	0x00000000	0.0
34	0x00000000	0.0
35	0x00000000	0.0
36	0x00000000	0.0
37	0x00000000	0.0
38	0x00000000	0.0
39	0x00000000	0.0
40	0x00000000	0.0
41	0x00000000	0.0
42	0x00000000	0.0
43	0x00000000	0.0
44	0x00000000	0.0
45	0x00000000	0.0
46	0x00000000	0.0
47	0x00000000	0.0
48	0x00000000	0.0
49	0x00000000	0.0
50	0x00000000	0.0
51	0x00000000	0.0
52	0x00000000	0.0
53	0x00000000	0.0
54	0x00000000	0.0
55	0x00000000	0.0
56	0x00000000	0.0
57	0x00000000	0.0
58	0x00000000	0.0
59	0x00000000	0.0
60	0x00000000	0.0
61	0x00000000	0.0
62	0x00000000	0.0
63	0x00000000	0.0

weight f4 [64, 64]
0	0xbd726584	-0.059178844
1	0x3de87862	0.11351086
2	0x3d8ee8ac	0.069779724
3	0xbd8f5b94	-0.06999889
4	0x3d545b20	0.051844716
5	0x3cac2430	0.02101335
6	0xbd397f50	-0.04528743
7	0x3d0c23b0	0.03421372
8	0xbd2f6a00	-0.0428257
9	0x3df407c0	0.11915541
10	0x3d2fb09c	0.042893037
11	0x3de2e3ba	0.11078592
12	0xbded6ba8	-0.115927994
13	0x3d74f2c8	0.059801847
14	0x3de7b10a	0.113130644
15	0xbd902f30	-0.0704025
16	0xbdfc3500	-0.123147964
17	0xbbd80d00	-0.0065933466
18	0x3cdad7a0	0.026714146
19	0xbce7a358	-0.02827613
20	0x3df74416	0.12073533
21	0xbdc91642	-0.098186985
22	0x3d7d1060	0.061783195
23	0xbd6ecbb8	-0.05829975
24	0x3d0aebac	0.03391616
25	0x3d7f6020	0.06234753
26	0xbdcc83a4	-0.09986046
27	0x3df734d0	0.1207062
28	0xbdc7159e	-0.0972092
29	0xbd7567cc	-0.05991344
30	0xbd412ed4	-0.0471638
31	0xbc5d3fa0	-0.013503939
32	0x3d86b440	0.06577349
33	0xbd43aa68	-0.047769934
34	0x3c003a10	0.007826343
35	0x3db4f81c	0.088363856
36	0x3dddb25a	0.108250335
37	0xbdc2995a	-0.09501906
38	0x3bb07fc0	0.0053863227
39	0x3d4a76c4	0.04942967
40	0x3cc797f0	0.024364442
41	0xbdb78930	-0.08961713
42	0xbd0258ac	-0.031822845
43	0x3dd7c824	0.10536221
44	0x3dff015e	0.12451433
45	0xbddf712a	-0.10910256
46	0x3d205760	0.039145827
47	0x3ddcfd60	0.10790515
48	0x3d912260	0.07086635
49	0xbc9d9930	-0.019238085
50	0x3d00154c	0.03127031
51	0x3ac9b300	0.0015388429
52	0xbc54a4e0	-0.012978762
53	0x3dfc5db0	0.12322557
54	0xbc9ae1e0	-0.018906534
55	0xbdeed990	-0.116625905
56	0x3d5822b8	0.052767485
57	0xbd0816d4	-0.033224896
58	0xbdebdce6	-0.115167424
59	0x3d36ccbc	0.044628844
60	0xbdf3a37c	-0.118964165
61	0xbd838a14	-0.06422821
62	0x3bd7ffc0	0.006591767
63	0xbd94f4b8	-0.07273239
64	0xbd0c18e4	-0.034203425
65	0xbdb25418	-0.08707446
66	0xbd6dad40	-0.058026552
67	0xbda4f13e	-0.08053826
68	0x3d1b0980	0.037850857
69	0x3dc48ae6	0.09596805
70	0x3dadbd16	0.08483331
71	0xbdf9ce5e	-0.121975645
72	0x3dd31660	0.10307002
73	0xbd03f39c	-0.032214746
74	0x3da5549e	0.0807278
75	0xbd98911e	-0.07449554
76	0xbdcd22a0	-0.1001637
77	0x3d322ed4	0.04350169
78	0x3d1279ec	0.035760805
79	0x3c940270	0.018067569
80	0xbd6925d8	-0.056920856
81	0xbd8839e4	-0.06651667
82	0xbdecb104	-0.115572006
83	0x3dc3c632	0.09559287
84	0xbdaf0430	-0.085457206
85	0x3d9128f8	0.07087892
86	0x3d96f7da	0.07371493
87	0xbc4bce20	-0.012439281
88	0xbdfc7d0a	-0.12328537
89	0x3dd33aec	0.10313973
90	0xbd002390	-0.031283915
91	0x3dcfcb78	0.101462305
92	0xbd8428c8	-0.06453091
93	0x3c015c00	0.00789547
94	0xbcd62990	-0.026142865
95	0x3d9b9bd2	0.0759808
96	0x3b6eebc0	0.0036456436
97	0xbc02ff10	-0.007995382
98	0xbd607e94	-0.054808214
99	0xbd88fd00	-0.06688881
100	0xbd08f1cc	-0.03343372
101	0xbb8c97e0	-0.004290566
102	0xbdb34c20	-0.08754754
103	0xbdfc92d0	-0.1233269
104	0xbdbb9038	-0.09158367
105	0xbd788458	-0.060673088
106	0xbdc6b0fc	-0.09701726
107	0xbda60cae	-0.08107887
108	0x3da714f4	0.08158293
109	0x3de72896	0.11287038
110	0x3d2716f4	0.040793374
111	0x3b8d7280	0.004316628
112	0xbddc6dde	-0.10763143
113	0x3df69972	0.12040986
114	0x3c5029f0	0.012705311
115	0x3cd791a0	0.026314557
116	0x3d04a06c	0.032379553
117	0x3d240b40	0.04004979
118	0x3dd0d6f8	0.10197252
119	0xbc8e3c78	-0.017362818
120	0xbcc46228	-0.023972586
121	0x3cef65f0	0.029223412
122	0x3db4b208	0.08823019
123	0x3dc0a4de	0.09406446
124	0x3d08abc4	0.033366933
125	0xbcb7a2b8	-0.022416458
126	0x3d0a42c0	0.033755064
127	0x3ca86220	0.020554602
128	0xbbda98e0	-0.006671056
129	0x3ce87b78	0.028379187
130	0x3d6a7884	0.05724384
131	0xbd133c44	-0.035946146
132	0x3d5ea260	0.05435407
133	0xbd8ea5d4	-0.06965223
134	0xbcbe8b40	-0.023259759
135	0xbc1f3810	-0.009717956
136	0x3ca39120	0.019966662
137	0xbdb0eeba	-0.086392835
138	0xbd31c0c0	-0.04339671
139	0xbdcff998	-0.10155028
140	0x3dfdf9bc	0.12401149
141	0xbdebd03a	-0.115143254
142	0xbdbd0754	-0.09229913
143	0x3dd640be	0.10461567
144	0x3d6f082c	0.058357403
145	0xbd9c6834	-0.07637063
146	0x3d1388bc	0.036019072
147	0xbd75d238	-0.060014933
148	0x3dd5e49c	0.104439944
149	0xbdf79bd0	-0.12090266
150	0xbc172580	-0.009225249
151	0x3d93e88c	0.07222089
152	0xbd9d15f0	-0.076702
153	0x3de14cae	0.110009536
154	0xbddf0b7e	-0.10890864
155	0xbc538620	-0.012910396
156	0x3db3e074	0.087830454
157	0x3cadd3a8	0.02121909
158	0x3c16e930	0.00921087
159	0x3d623b2c	0.055232212
160	0xbcd645a8	-0.026156262
161	0x3c26c190	0.010177985
162	0xbc0c86c0	-0.008577049
163	0x3d45f778	0.048331708
164	0xbda9227e	-0.08258532
165	0x3d846bfe	0.064659104
166	0xbd6100ac	-0.05493228
167	0xbdc1e9dc	-0.09468433
168	0x3d553e54	0.052061394
169	0x3c44b180	0.01200521
170	0xbd125238	-0.03572294
171	0x3ddd9928	0.10820228
172	0x3bf407c0	0.007447213
173	0x3cccbe60	0.024993122
174	0x3d917952	0.07103218
175	0x3df5f50a	0.12009628
176	0x3d45ee70	0.048323095
177	0x3a83c080	0.0010051876
178	0xbd966240	-0.073429585
179	0xbb9cae80	-0.004781544
180	0xbd64c274	-0.055849507
181	0xbddf32a0	-0.10898328
182	0x3d5feaf0	0.054667413
183	0xbcaac210	-0.02084449
184	0x3c1ccdd0	0.009570554
185	0x3ce3a290	0.027787477
186	0xbc10add0	-0.008830503
187	0x3dc03c86	0.09386544
188	0x3d84126e	0.06448828
189	0xbdac640e	-0.084175214
190	0xbdd5527c	-0.10416123
191	0x3d552a50	0.052042305
192	0xbd78c994	-0.060739115
193	0xbdfbbd60	-0.1229198
194	0xbdd7e164	-0.10541037
195	0x3c2c6600	0.010522366
196	0x3cd8c948	0.026463166
197	0x3cbb0bf0	0.02283284
198	0x3d6e8734	0.05823441
199	0x3d2edeb0	0.04269284
200	0xbdac85a4	-0.084239274
201	0xbd868b4a	-0.06569536
202	0x3bbbdf00	0.005733371
203	0x3dacf940	0.08445978
204	0x3cacdb08	0.021100536
205	0x3d9b821a	0.07593174
206	0x3db6e280	0.0892992
207	0x3dcc8506	0.0998631
208	0xbc4a5f70	-0.012351856
209	0x3d3a74d8	0.045521587
210	0x3dd6fcea	0.10497458
211	0xbdc48a8c	-0.09596738
212	0xbcde7280	-0.027154207
213	0xbd816932	-0.063188925
214	0xbd4d4d10	-0.05012232
215	0xbb0a4840	-0.0021100193
216	0xbd2766fc	-0.040869698
217	0xbdb76a72	-0.0895585
218	0xbb9381c0	-0.0045015514
219	0xb90ce000	-0.00013434887
220	0xbc8c9b28	-0.017163828
221	0x3c8d5fa0	0.017257512
222	0xbd778580	-0.06043005
223	0xbc872b68	-0.01650019
224	0x3d050b50	0.03248149
225	0x3de012de	0.10941099
226	0x3dd95f36	0.10613863
227	0xbd9d6dd4	-0.07686964
228	0xbd5024a0	-0.05081618
229	0xbdc089e4	-0.094013005
230	0x3d2a4ccc	0.041577145
231	0x3d86aeea	0.06576331
232	0xbdacd264	-0.08438566
233	0xb89fb000	-7.6144934e-05
234	0x3ce44608	0.027865425
235	0xbd892e4c	-0.066982836
236	0x3dd18e6c	0.10232243
237	0x3c902658	0.017596409
238	0xbd51e800	-0.051246643
239	0xbd5322c8	-0.05154684
240	0xbdfa11c8	-0.12210423
241	0xbdb74f2e	-0.08950649
242	0xbdb58a08	-0.08864218
243	0xbd8192e0	-0.06326842
244	0xbd2424d8	-0.0400742
245	0x3d4a193c	0.04934047
246	0xbd2a669c	-0.041601762
247	0x3bb141a0	0.0054094344
248	0xbd760088	-0.0600591
249	0xbd08045c	-0.033207282
250	0xbd99a962	-0.0750301
251	0xbdaebb84	-0.085318595
252	0x3bccdd20	0.006251946
253	0xbb75b840	-0.0037493855
254	0xbc60fa30	-0.013731524
255	0x3df76eda	0.1208169

bias f4 [64]
0	0x00000000	0.0
1	0x00000000	0.0
2	0x00000000	0.0
3	0x00000000	0.0
4	0x00000000	0.0
5	0x00000000	0.0
6	0x00000000	0.0
7	0x00000000	0.0
8	0x00000000	0.0
9	0x00000000	0.0
10	0x00000000	0.0
11	0x00000000	0.0
12	0x00000000	0.0
13	0x00000000	0.0
14	0x00000000	0.0
15	0x00000000	0.0
16	0x00000000	0.0
17	0x00000000	0.0
18	0x00000000	0.0
19	0x00000000	0.0
20	0x00000000	0.0
21	0x00000000	0.0
22	0x00000000	0.0
23	0x00000000	0.0
24	0x00000000	0.0
25	0x00000000	0.0
26	0x00000000	0.0
27	0x00000000	0.0
28	0x00000000	0.0
29	0x00000000	0.0
30	0x00000000	0.0
31	0x00000000	0.0
32	0x00000000	0.0
33	0x00000000	0.0
34	0x00000000	0.0
35	0x00000000	0.0
36	0x00000000	0.0
37	0x00000000	0.0
38	0x00000000	0.0
39	0x00000000	0.0
40	0x00000000	0.0
41	0x00000000	0.0
42	0x00000000	0.0
43	0x00000000	0.0
44	0x00000000	0.0
45	0x00000000	0.0
46	0x00000000	0.0
47	0x00000000	0.0
48	0x00000000	0.0
49	0x00000000	0.0
50	0x00000000	0.0
51	0x00000000	0.0
52	0x00000000	0.0
53	0x00000000	0.0
54	0x00000000	0.0
55	0x00000000	0.0
56	0x00000000	0.0
57	0x00000000	0.0
58	0x00000000	0.0
59	0x00000000	0.0
60	0x00000000	0.0
61	0x00000000	0.0
62	0x00000000	0.0
63	0x00000000	0.0

weight f4 [3, 64]
0	0x3d6e7484	0.058216587
1	0xba049b00	-0.0005058497
2	0x3da86d42	0.08223964
3	0xbd0af4fc	-0.03392504
4	0xbdfbfd4c	-0.12304172
5	0xbdaf05da	-0.08546038
6	0xbd5755f0	-0.05257219
7	0xbdd7a85e	-0.1053016
8	0xbd5190c8	-0.051163465
9	0x3de7311c	0.11288664
10	0x3d3b3dd8	0.045713276
11	0x3dc2a90a	0.09504898
12	0xbd7eddbc	-0.06222318
13	0x3d890e64	0.06692198
14	0xbdd5e32e	-0.10443722
15	0xbcd167a8	-0.025562122
16	0xbdc72b6c	-0.09725079
17	0xbdee2270	-0.11627662
18	0x3c07cfc0	0.008289278
19	0x3c42ffc0	0.011901796
20	0x3dee33d8	0.11630982
21	0x3daf0f36	0.08547823
22	0xbddceff8	-0.10787958
23	0x3c3957b0	0.01131241
24	0xbd2aab40	-0.041667223
25	0xbca200c8	-0.019775763
26	0x3db2513a	0.08706899
27	0xbdd875be	-0.105693325
28	0xbdcf71d6	-0.10129134
29	0x3dd6f2da	0.10495539
30	0xbb6f0240	-0.0036469847
31	0x3a072400	0.0005155206
32	0x3def637e	0.116888985
33	0xbca2ef98	-0.019889638
34	0xbd9262cc	-0.0714775
35	0x3d9369e6	0.07197933
36	0xbd866344	-0.06561902
37	0xbdeb5446	-0.11490683
38	0x3dc9c270	0.09851539
39	0xbddb68b4	-0.1071333
40	0x3ce748a8	0.028232887
41	0x3d56e378	0.052463025
42	0x3ce5d870	0.028057307
43	0xbd7b70d0	-0.061386883
44	0x3db8350a	0.089944914
45	0x3dc9286a	0.098221615
46	0xbd9c2a74	-0.07625285
47	0xbd2ce338	-0.04220888
48	0x3cac2498	0.021013543
49	0x3dea5f12	0.114439145
50	0x3ddcd1aa	0.10782178
51	0x3db0d8a4	0.08635071
52	0x3d8abac2	0.067739025
53	0xbc7b8d40	-0.015353501
54	0xbcfb3658	-0.030665562
55	0x3d299514	0.041401938
56	0x3dbc1e02	0.09185411
57	0x3da8de02	0.0824547
58	0x3d123aa0	0.03570044
59	0xbd586a14	-0.05283554
60	0x3ae2cc00	0.0017303228
61	0x3de1857a	0.11011787
62	0x3ae23700	0.0017258823
63	0x3db22df4	0.08700171
64	0xbc8a0938	-0.016850099
65	0xbdc4efa0	-0.09616017
66	0xbd9267ea	-0.07148726
67	0x3cd2c980	0.025730848
68	0x3dfbb0ee	0.12289606
69	0xbdcbb586	-0.09946732
70	0xbd0ee8e0	-0.034890056
71	0x3dc10e72	0.09426583
72	0x3dc08f74	0.094023615
73	0x3b3b0ac0	0.0028540343
74	0xbdceda5c	-0.101002425
75	0x3d89139c	0.06693193
76	0xbd0f57a8	-0.034995705
77	0x3dfb1924	0.122606546
78	0x3d71c2e8	0.059023768
79	0xbcf881c8	-0.030335322
80	0x3d9b30f2	0.07577695
81	0xbdf78710	-0.12086308
82	0xbdb999d4	-0.090625435
83	0x3d3c0600	0.04590416
84	0xbdf215c8	-0.11820561
85	0xbdb4ff2e	-0.08837734
86	0xbda59a9a	-0.080861285
87	0x3dfac2e4	0.12244204
88	0xbc9313c8	-0.017953768
89	0xbdedf4ee	-0.11618982
90	0xbd903fd4	-0.07043424
91	0x3c3050e0	0.01076147
92	0x3da8bd74	0.0823926
93	0xbd743988	-0.05962518
94	0xbc3ccd20	-0.011523515
95	0x3d6ec5b4	0.058294013
96	0x3df0a878	0.11750883
97	0xbd99bba8	-0.07506496
98	0xbd88b6ce	-0.06675492
99	0x3dbad18e	0.09122001
100	0x3d5660a8	0.052338272
101	0x3dd577ce	0.104232416
102	0x3de97350	0.11398947
103	0xbcf18980	-0.02948451
104	0x3de74da2	0.11294104
105	0x3d3e4038	0.046447963
106	0x3da548ce	0.08070527
107	0x3c761a20	0.015020877
108	0x3da51a66	0.08061676
109	0xbd73c55c	-0.05951439
110	0xbd0edcf8	-0.0348787
111	0x3d6953c4	0.05696465
112	0xbc59d1a0	-0.013294607
113	0x3d3dcc68	0.046337515
114	0xbdf0a1ec	-0.11749634
115	0x3dbbfb38	0.091787755
116	0x3dabec38	0.083946645
117	0xbdcebe34	-0.10094872
118	0xbd9fee0c	-0.07809076
119	0xbdb5392e	-0.08848797
120	0xbbdea220	-0.006794229
121	0x3c1cb100	0.009563684
122	0xbd8dc03a	-0.0692143
123	0xbccb75a0	-0.024836361
124	0xbdc1e03e	-0.09466599
125	0xbbec3700	-0.007208705
126	0xbb369d40	-0.0027864724
127	0xbbb883c0	-0.00563094
128	0xbdc383dc	-0.095466346
129	0xbd962fc6	-0.07333331
130	0x3c1a9300	0.009434462
131	0xbc4018b0	-0.011724636
132	0xbdb32888	-0.08747965
133	0x3cd2fbb0	0.02575478
134	0x39fc2c00	0.00048097968
135	0x3da899ae	0.08232437
136	0x3d17a3bc	0.037021384
137	0x3d7d9ef8	0.061919183
138	0x3dbe075c	0.092787474
139	0x3d75f82c	0.06005113
140	0xbd066b44	-0.03281714
141	0x3de5c1fe	0.11218642
142	0xbcb61148	-0.022225037
143	0x3da536c8	0.08067089
144	0xbdcffe10	-0.101558805
145	0xbce82a58	-0.028340504
146	0x3df35944	0.118822604
147	0x3d8c0a34	0.068378836
148	0xbcef5d18	-0.029219195
149	0x3d23981c	0.039939985
150	0x3deb0594	0.11475673
151	0xbde0f72a	-0.10984643
152	0x3d2b1b04	0.04177381
153	0x3c5b7ea0	0.013396889
154	0x3cb31290	0.021859437
155	0x3dd21840	0.102585316
156	0xbdf2c49a	-0.11853905
157	0xbdb9824c	-0.09058055
158	0x3c705040	0.014667571
159	0xbd85a13a	-0.06524892
160	0x3de61f34	0.1123642
161	0xbdf27ae2	-0.11839844
162	0xbd110044	-0.035400644
163	0xbca9d4e8	-0.020731404
164	0xbd128c4c	-0.03577833
165	0x3db9b0d2	0.09066929
166	0xbd413ec0	-0.047178984
167	0x3cd3d148	0.025856629
168	0x3d993408	0.07480627
169	0xbd5fc6b4	-0.054632857
170	0xbd3bdcfc	-0.045865044
171	0xbde0c98a	-0.109759405
172	0x3d689c88	0.056789905
173	0x3decd55a	0.11564131
174	0x3d2f6628	0.042822033
175	0xbde145fe	-0.10999678
176	0xbdf92512	-0.12165274
177	0xbd8e7b32	-0.069570914
178	0xbd980290	-0.07422364
179	0xbd80311c	-0.06259367
180	0x3d415638	0.047201365
181	0xbd508594	-0.05090864
182	0x3d89b9b4	0.06724873
183	0xbd2dcc64	-0.04243125
184	0x3de470f0	0.111543536
185	0xbd6f04c8	-0.05835417
186	0xbd5da730	-0.05411452
187	0x3d1e5638	0.038656443
188	0x3df9e43e	0.12201737
189	0xbca04968	-0.019566253
190	0x3cd5b5c8	0.026087657
191	0x39d99c00	0.00041505694

bias f4 [3]
0	0x00000000	0.0
1	0x00000000	0.0
2	0x00000000	0.0
