examples/neurocoevolution_pytorch/player2_407.1339142988631.pth (torch, 24279 bytes, 6 tensors)

weight f4 [64, 14]
0	0xbf45a83c	-0.7720983
1	0xbef8dae0	-0.48604488
2	0xbea7dbe3	-0.32784948
3	0x3ecf4b12	0.40486962
4	0x3e8173ad	0.25283566
5	0x3ea4f9e2	0.32221895
6	0x3f43e19c	0.7651613
7	0xbfa86639	-1.3156196
8	0xc008286e	-2.1274676
9	0x3df82d6f	0.12118041
10	0x3ea3e1c4	0.32008183
11	0x3fb40d78	1.406661
12	0xbf139c04	-0.57659936
13	0x3f420c8c	0.75800395
14	0xbe953914	-0.2914511
15	0xbdd81e33	-0.10552635
16	0x3eee9f2a	0.46605808
17	0x3f9e295d	1.2356373
18	0x3ecd0bfa	0.400482
19	0x3e34542e	0.17610237
20	0x3f6691fa	0.9006649
21	0xbdc1bb1d	-0.09459517
22	0xbf883995	-1.0642573
23	0x3e849bf3	0.2590023
24	0x3f27d0e7	0.65553135
25	0xbe251ad8	-0.16123521
26	0x3c57334a	0.013134787
27	0x3d91bbdf	0.07115912
28	0xbdb61bbc	-0.08892009
29	0xbe69ea85	-0.22843368
30	0xbed86a1a	-0.4226845
31	0x3efe6783	0.49688348
32	0x3f8dd5ac	1.1080832
33	0xbd1238a7	-0.03569856
34	0xbd9a9865	-0.07548598
35	0xbf793cf6	-0.97358644
36	0xbe2c2cce	-0.16813967
37	0xbe12ed2d	-0.14348288
38	0x3f420fd7	0.7580542
39	0xbf2f48b2	-0.684703
40	0x3eb410a9	0.3516896
41	0x3f6c6666	0.9234375
42	0xbf3e81c2	-0.74416745
43	0xbf254b28	-0.64567804
44	0x3f289eb0	0.6586714
45	0xbcaf4188	-0.021393552
46	0xbe9687fe	-0.2940063
47	0xbf096650	-0.5367174
48	0xbe4795a7	-0.19490682
49	0xbf478b89	-0.7794729
50	0xbeabc78e	-0.33550686
51	0x3d2e4d41	0.042554144
52	0x3f0a2830	0.5396757
53	0xbed33262	-0.41249377
54	0xbf9db01c	-1.2319369
55	0xbf433d7b	-0.76265687
56	0x3f3d329f	0.73905367
57	0x3eb949ae	0.36189026
58	0xbe33ec02	-0.17570499
59	0x3f8fdfdb	1.124019
60	0xbe0800d3	-0.13281564
61	0x3f824593	1.0177482
62	0xbed95908	-0.42450738
63	0x3eea13be	0.45718187
64	0xbf224b15	-0.63395816
65	0xbf0e317e	-0.5554427
66	0x3e928987	0.2862055
67	0x3d5e5975	0.05428453
68	0xbe1a8424	-0.1508947
69	0x3ea9faba	0.33199102
70	0xbe5db524	-0.21651131
71	0xbe06e898	-0.13174665
72	0x3f7ad116	0.9797529
73	0xbd002504	-0.0312853
74	0xbea293aa	-0.31753284
75	0x3f81f2ad	1.0152184
76	0xbedbff5a	-0.42968255
77	0x3f1ad081	0.604744
78	0x3dd169cb	0.102252565
79	0x3c9874b0	0.018610328
80	0x3f130f7a	0.5744549
81	0xbebeb17b	-0.37244782
82	0xbfa5a22e	-1.2940118
83	0x3f569ab0	0.83829784
84	0x3fb11cab	1.3836874
85	0xbfec3787	-1.8454446
86	0x3f7926f8	0.97325087
87	0xbfb22288	-1.3916788
88	0x3e9c86c0	0.30571556
89	0xbe1d0e2c	-0.15337437
90	0xbf7fbf76	-0.9990152
91	0x3f07279c	0.52794814
92	0xbf1e789a	-0.61902773
93	0x3ed36b03	0.4129258
94	0x3f54a616	0.8306593
95	0xbef0aae0	-0.47005367
96	0xbdb290d9	-0.08719034
97	0x3ecd6e8f	0.40123412
98	0x3f033f77	0.51268715
99	0x3f6bbd20	0.92085457
100	0x3f122559	0.5708824
101	0x3f7988ba	0.97474253
102	0xbd5f14df	-0.054463264
103	0xbf348c3a	-0.7052647
104	0x3fc5044c	1.5391936
105	0xbdcb0230	-0.099125266
106	0xbf0fb167	-0.5613007
107	0x3ef88fa6	0.48547095
108	0x3dc85656	0.09782092
109	0x3da06fd6	0.07833831
110	0x3c683100	0.014171839
111	0x3ee0b46f	0.4388766
112	0x3eaccf6e	0.33752006
113	0xbeba5d77	-0.36399433
114	0xbf50aee1	-0.81516844
115	0xbdab7088	-0.08371073
116	0x3e78a388	0.24281132
117	0xbf43c659	-0.7647453
118	0xbe9237e2	-0.2855826
119	0x3c5754f8	0.013142817
120	0xbf1254e9	-0.5716081
121	0xbe72fa19	-0.23728217
122	0xbead8ffd	-0.33898917
123	0xbe66e9c1	-0.22550108
124	0x3f44c68d	0.76865464
125	0xbe0f65bf	-0.14003657
126	0x3f1c470c	0.6104591
127	0x3f2c0580	0.6719589
128	0xbdce7d74	-0.10082522
129	0xbed781f2	-0.42091328
130	0xbd36364b	-0.04448537
131	0x3f8dcd11	1.1078206
132	0xbdaf4fb6	-0.085601255
133	0xbe9eed2b	-0.3104032
134	0x3ef09ae8	0.46993184
135	0x3ccab3b4	0.024743892
136	0xbdcf1be5	-0.10112742
137	0xbfaf4423	-1.3692669
138	0xbecee4f2	-0.40409046
139	0xbf592cf9	-0.8483425
140	0x3ee82b62	0.45345598
141	0xbe857d66	-0.26072234
142	0x3ec63e4f	0.38719413
143	0x3f5ffa3c	0.874912
144	0xbf2919a8	-0.66054773
145	0xbe1c9ba5	-0.15293749
146	0x3ed62b4c	0.41829908
147	0x3eab2b1f	0.33431336
148	0xbd9ed082	-0.077546135
149	0x3e5d66d2	0.21621254
150	0x3f23d310	0.6399393
151	0xbdde0ea4	-0.10842636
152	0x3fb03998	1.3767576
153	0x3f0429ce	0.5162629
154	0x3f7e2d12	0.9928752
155	0x3f4fe792	0.81212723
156	0x3eaaa915	0.33332124
157	0xbeca0803	-0.39459237
158	0x3f3a8e97	0.72873825
159	0x3f3bf1dd	0.7341593
160	0x3e3d0722	0.18459752
161	0xbe203f06	-0.15649042
162	0x3f4b4c40	0.79413223
163	0x3f3b9b78	0.732841
164	0x3e99ce42	0.30040175
165	0xbe1f0829	-0.15530457
166	0xbf23f3e7	-0.6404404
167	0x3e07fed2	0.132808
168	0x3e897b3c	0.26851833
169	0xbe949c0c	-0.29025304
170	0xbd8a5c96	-0.067559406
171	0x3cf34b8b	0.029699108
172	0xbeddef5b	-0.43346676
173	0xbf318b9f	-0.6935367
174	0xbe953d0a	-0.29148132
175	0xbed57512	-0.4169088
176	0xbf923b27	-1.1424302
177	0xbeeab027	-0.4583752
178	0x3f4dd7cf	0.8040742
179	0x3e3d9538	0.18513954
180	0xbdca8ddb	-0.09890338
181	0xbf33e581	-0.7027207
182	0x3f17133b	0.5901372
183	0x3d70243a	0.0586283
184	0x3f6886ea	0.9083086
185	0x3fac407e	1.3457181
186	0x3e79dea0	0.24401331
187	0x3f68b831	0.90906054
188	0xbf02d6d3	-0.51109046
189	0x3f4379e2	0.76357853
190	0x3ea297dd	0.31756487
191	0xbf9d1e55	-1.2274882
192	0xbe594ab8	-0.21219909
193	0xbf0dd452	-0.554021
194	0x3ed15b25	0.4088985
195	0x3f37de50	0.71823597
196	0x3de04176	0.10949986
197	0xbe296b1c	-0.16544765
198	0x3bba0ec2	0.005678029
199	0xbe99275e	-0.29912847
200	0xbf30a104	-0.6899569
201	0xbe82c531	-0.2554107
202	0xbe262ee3	-0.16228823
203	0xbe9f8327	-0.3115475
204	0x3eec23ee	0.46121162
205	0xbf87173f	-1.0553969
206	0xbe8504e9	-0.2598031
207	0xbfae89e0	-1.3635826
208	0x3f4197d2	0.75622284
209	0xbfb45e3f	-1.4091262
210	0xbe7964dd	-0.24354883
211	0xbf4ce4b6	-0.80036485
212	0x3e91a2ff	0.2844467
213	0xbfaca3b6	-1.3487461
214	0xbc5f21dc	-0.013618913
215	0x3ec72bf4	0.3890072
216	0xbf859b76	-1.0438068
217	0x3f3faefa	0.7487637
218	0xbe6ca4ac	-0.23109692
219	0x3ddb5de0	0.107112646
220	0x3dc47014	0.0959169
221	0x3fadc78c	1.3576522
222	0x3c83c388	0.016084448
223	0x3ead76ba	0.33879644
224	0xbd4ddc24	-0.05025877
225	0xbed324c6	-0.41238993
226	0x3f34f450	0.7068529
227	0xbe1a6e3c	-0.15081114
228	0x3f0b13df	0.54327196
229	0xbecdfc84	-0.40231717
230	0x3c1e0970	0.009645805
231	0x3fb19705	1.3874213
232	0xbeee31a4	-0.46522248
233	0xbe5859e1	-0.21128036
234	0x3f3110b0	0.6916609
235	0x3de325d8	0.110912025
236	0x3e1ff665	0.15621336
237	0xbe599d49	-0.21251406
238	0x3f941e04	1.157166
239	0xbd76819a	-0.06018219
240	0xbf7bf204	-0.9841616
241	0xbf8be280	-1.0928497
242	0x3f8dc163	1.1074642
243	0xbf9dcd83	-1.2328342
244	0xbe656031	-0.22399975
245	0xbf5eaa6e	-0.86978805
246	0xbe8d3ff5	-0.27587858
247	0x3f00c408	0.5029912
248	0x3f2bf0e8	0.6716447
249	0x3ebb72dc	0.36611068
250	0xbf742d2b	-0.9538142
251	0x3edb55e9	0.42838982
252	0x3d81da52	0.063404694
253	0x3f803c49	1.0018398
254	0x3d260380	0.04053068
255	0x3dd5c8b9	0.104386754

bias f4 [64]
0	0x3ce1ebe4	0.027578302
1	0x3ea3b82c	0.3197645
2	0xbf181eee	-0.59422195
3	0xbe8f8f24	-0.28038895
4	0xbf0f633f	-0.5601081
5	0xbed3296a	-0.41242534
6	0xbcc2f086	-0.023796331
7	0xbea21175	-0.31653944
8	0xbe621f80	-0.22082329
9	0xbf165510	-0.58723545
10	0x3f2bb76d	0.6707676
11	0xbef9ba70	-0.48775053
12	0x3dc44bec	0.095847934
13	0xbe66c2c8	-0.2253524
14	0xbd554039	-0.0520632
15	0x3d0ff6c8	0.03514746
16	0x3e955ecb	0.29173884
17	0xbd0a0e94	-0.03370531
18	0x3f4a53fa	0.7903439
19	0x3ea39bd0	0.31954813
20	0xbdcf0b97	-0.101096325
21	0xbe7d12ac	-0.24714154
22	0x3ce9eaa0	0.02855426
23	0x3f1b4a6e	0.60660446
24	0x3cd3c88c	0.025852464
25	0x3f1f4669	0.6221681
26	0x3e9fd2a9	0.31215408
27	0x3f92ea9b	1.1477846
28	0x3edb4b6c	0.4283098
29	0x3d2e6368	0.04257527
30	0x3e9bce54	0.30430853
31	0x3eaeab93	0.34115276
32	0xbf084447	-0.5322918
33	0xbe9050e2	-0.2818671
34	0x3dcd6161	0.10028339
35	0x3e2d9882	0.16952708
36	0x3ea2e165	0.31812587
37	0xbc50b59c	-0.012738612
38	0xbdf71a94	-0.12065616
39	0x3f05e861	0.5230771
40	0x3f22efcf	0.6364717
41	0x3f642dfc	0.89132667
42	0x3f0894e6	0.533522
43	0x3dbeb672	0.093121424
44	0xbd1f2a05	-0.038858432
45	0xbedf9b16	-0.4367301
46	0xbd58f430	-0.05296725
47	0x3e995fc6	0.29955882
48	0x3da12f06	0.07870297
49	0x3f0f0195	0.5586179
50	0xbdf1ce24	-0.11806896
51	0xbe79a1f0	-0.2437818
52	0xbe281706	-0.16415033
53	0x3f193482	0.59845746
54	0xbd6c0454	-0.057621315
55	0xbefe5327	-0.49672815
56	0x3f1e70cf	0.6189088
57	0xbe998f26	-0.29992026
58	0x3ea96127	0.33081934
59	0xbe0de9be	-0.13858697
60	0xbed7efb4	-0.42175066
61	0xbd4180bc	-0.04724191
62	0xbe0a7bf6	-0.1352385
63	0x3f1129ee	0.56704605

weight f4 [64, 64]
0	0x3f5a18e9	0.8519426
1	0xbeaf0a10	-0.34187365
2	0x3e941433	0.2892166
3	0x3f12fc02	0.57415783
4	0xbd0b91bd	-0.034074534
5	0x3f7e8ddd	0.99435216
6	0x3ebf71bc	0.3739146
7	0x3f426259	0.75931317
8	0xbe29245b	-0.16517775
9	0x3f24734a	0.6423842
10	0xbec66063	-0.38745412
11	0x3f334e9e	0.70041835
12	0x3d8f66db	0.0700204
13	0xbf75f626	-0.9607872
14	0xbf8e7d10	-1.1131916
15	0x3dea65e4	0.11445215
16	0xbd998a38	-0.07497066
17	0x3e69ccf6	0.22832093
18	0x3dcbbffd	0.09948728
19	0xbf52e7ca	-0.8238493
20	0x3d8d079b	0.06886216
21	0x3e848fff	0.2589111
22	0x3dfad6ea	0.12248023
23	0xbf729201	-0.94754034
24	0x3f2fe86c	0.6871402
25	0xbe14c0ad	-0.14526625
26	0xbd0b9c93	-0.034084868
27	0xbe06bd5a	-0.1315817
28	0x3d3594ba	0.04433129
29	0xbf2a4c15	-0.6652234
30	0xbe475c78	-0.19468868
31	0x3ec987e5	0.39361492
32	0x3f130995	0.57436496
33	0x3eb2dae4	0.34932625
34	0x3ecc25d5	0.39872614
35	0x3e5aaf32	0.21355894
36	0xbe9d786c	-0.30755937
37	0xbe1c6b92	-0.1527541
38	0xbf44603b	-0.76709336
39	0x3f1eef22	0.6208364
40	0xbe1706ad	-0.1474864
41	0x3ec3130f	0.38100478
42	0xbdcc4e40	-0.099758625
43	0x3eaec4e8	0.34134603
44	0xbf05e865	-0.5230773
45	0xbdc20368	-0.09473306
46	0xbce96e14	-0.028494872
47	0x3f4d7e50	0.8027086
48	0xbf17d5ef	-0.5931081
49	0x3f076b93	0.5289852
50	0xbcae3716	-0.021266501
51	0xbf87de77	-1.0614766
52	0xbd54d552	-0.05196125
53	0xbf700944	-0.9376414
54	0x3f236cbc	0.6383779
55	0x3f17e7eb	0.59338254
56	0x3f132500	0.5747833
57	0x3ea037e9	0.31292656
58	0xbef9dbe2	-0.4880057
59	0xbe069647	-0.13143264
60	0x3f890fbb	1.0707926
61	0xbd78ce2d	-0.0607435
62	0x3f0f926f	0.56082815
63	0xbf236516	-0.6382612
64	0x3e1bbfb6	0.1520985
65	0xbf07f492	-0.5310756
66	0x3f195ab0	0.59904003
67	0xbdbf2f4f	-0.09335195
68	0x3f10a29b	0.56498116
69	0xbd43095e	-0.047616355
70	0x40236c0a	2.5534692
71	0xbdb4def0	-0.088315845
72	0x3f944023	1.1582073
73	0x3d23ed81	0.040021423
74	0xbe6a49ca	-0.22879711
75	0x3f326eaa	0.6970011
76	0x3c33f052	0.01098259
77	0xbdeb88f2	-0.115007296
78	0xbe916e28	-0.28404355
79	0x3c13b607	0.009015567
80	0xbdccd6c9	-0.100019045
81	0xbf1b00f5	-0.60548335
82	0xbf08bcce	-0.53413093
83	0x3efa2096	0.48852986
84	0xbe9ea6af	-0.30986544
85	0x3d9d2b84	0.076743156
86	0xbf999759	-1.1999313
87	0xbf031f8f	-0.5122003
88	0x3ea8e56f	0.32987544
89	0xbfa18af9	-1.2620536
90	0x3e92f0f3	0.28699455
91	0x3e376752	0.17910507
92	0xbe53407a	-0.20630065
93	0x3f887dfc	1.0663447
94	0xbee14fc2	-0.44006163
95	0x3ea1c35d	0.31594363
96	0x3a37c800	0.00070106983
97	0xbf14f399	-0.581842
98	0x3e3feb30	0.1874206
99	0x3e515adb	0.20444815
100	0xbdaa0902	-0.08302499
101	0x3e9c1a5c	0.3048886
102	0xbcf1f3fa	-0.029535282
103	0x3ed55feb	0.41674742
104	0xbf1102a1	-0.56644636
105	0x3efd46ec	0.49468172
106	0xbdecf638	-0.115704
107	0xbf62e69a	-0.8863312
108	0xbf673bed	-0.90325814
109	0x3d3294c8	0.04359892
110	0xbe214652	-0.15749481
111	0xbeb44708	-0.35210443
112	0xbf82d42a	-1.0220997
113	0x3ef06db6	0.46958703
114	0x3ef874c2	0.4852658
115	0x3f0d25a5	0.55135566
116	0xbe05d642	-0.13070014
117	0x3dbd4043	0.092407726
118	0x3f090402	0.5352174
119	0x3fc7bb8a	1.5604107
120	0xbf4b4977	-0.79408973
121	0xbe3bac37	-0.18327413
122	0x3f47d433	0.78058165
123	0xbe78756f	-0.24263547
124	0x3fc25e0e	1.5184953
125	0xbe5830ed	-0.21112414
126	0x3ea3f72e	0.3202452
127	0xbebb74ee	-0.36612648
128	0x3f1d7063	0.61499614
129	0x3e61e9d8	0.2206186
130	0x3f3bfcb8	0.73432493
131	0xbe52eba4	-0.20597702
132	0x3ea63502	0.32462317
133	0xbee1b282	-0.44081503
134	0x3ee89234	0.45424044
135	0xbea62070	-0.32446623
136	0xbf9529bc	-1.1653361
137	0xbe05d836	-0.13070759
138	0x3f0711a2	0.5276128
139	0x3e49e140	0.19714832
140	0xbfbcdbca	-1.4754574
141	0x3e559ade	0.20859858
142	0x3e38c4ac	0.18043774
143	0xbf5eafcc	-0.86986995
144	0x3f09fe6c	0.5390384
145	0x3e72a18f	0.23694442
146	0xbfa80560	-1.312664
147	0xbf206cfa	-0.62666285
148	0xbf2dc54b	-0.6787917
149	0x3ea1bf1a	0.3159111
150	0x3f1ff1a2	0.6247808
151	0xbddf9619	-0.10917301
152	0x3ae300b0	0.001731893
153	0x3eeba8be	0.46027178
154	0x3e9d11bd	0.30677596
155	0x3f844455	1.0333353
156	0x3ef86373	0.48513374
157	0xbf6f3fd5	-0.93456775
158	0xbeb33143	-0.3499852
159	0xbea24fd1	-0.3170152
160	0x3f15259e	0.58260524
161	0xbe90be4e	-0.2827019
162	0xbf9dc0c0	-1.2324448
163	0xbf04b582	-0.5183946
164	0x3f412b3e	0.7545661
165	0xbfe031b3	-1.7515167
166	0x3f74796b	0.9549777
167	0x3fb18cf3	1.3871139
168	0xbe0e720e	-0.13910696
169	0x3f131c15	0.57464725
170	0x3fc94479	1.5724021
171	0xbefb7512	-0.49112755
172	0x3eff0018	0.4980476
173	0x3f0f5277	0.55985206
174	0xbf0daf68	-0.55345774
175	0x3e17922e	0.14801857
176	0x3d37f464	0.044910803
177	0xbf22e7f7	-0.636352
178	0xbe024bbb	-0.12724201
179	0x3dcc945a	0.09989233
180	0xbf5423da	-0.82867205
181	0x3d48f42a	0.049060978
182	0xbc95b426	-0.018274378
183	0xbef0c87b	-0.47027954
184	0xbe632180	-0.22180748
185	0xbf4230de	-0.75855815
186	0xbe914ac5	-0.28377357
187	0x3f7ffead	0.9999798
188	0x3d9f8d80	0.07790661
189	0xbf1c323e	-0.61014163
190	0x3f35316d	0.7077854
191	0x3e8d25af	0.27567813
192	0xbea732a2	-0.32655817
193	0x3d505752	0.050864525
194	0x3e0327d8	0.12808168
195	0xbdeac5c0	-0.11463499
196	0x3f1e3ed4	0.6181462
197	0xbec8ec5e	-0.39242834
198	0x3f8f4bdc	1.1195025
199	0xbcba7d11	-0.022764714
200	0x3e389cd8	0.18028581
201	0xbe19942a	-0.14997926
202	0x3b0d2d60	0.0021541938
203	0x3eaf9e67	0.3430054
204	0xbe52100f	-0.20513938
205	0x3db5975f	0.08866762
206	0xbe8adfc5	-0.27123848
207	0xbf429bb9	-0.76018864
208	0x3e6f5581	0.23372461
209	0xbe573879	-0.21017636
210	0xbf2b0890	-0.6680994
211	0x3f88a181	1.0674287
212	0x3da2b536	0.079447195
213	0x3f287456	0.65802515
214	0x3eedcfd4	0.46447623
215	0x3e546ea8	0.20745337
216	0x3ed19f0e	0.40941662
217	0xbf8848ad	-1.0647179
218	0x3ec2546a	0.37955028
219	0xbe0c7b72	-0.13718966
220	0xbedc8c74	-0.43075907
221	0x3f7a5703	0.9778902
222	0xbd0aa83e	-0.033851855
223	0xbea7cc0a	-0.32772857
224	0xbdf9577a	-0.12174888
225	0xbf8d4bd9	-1.1038772
226	0xbd249438	-0.040180415
227	0xbeaec4c9	-0.3413451
228	0x3e79d36c	0.24397057
229	0x3f8a82b8	1.0821142
230	0x3e6ad504	0.22932822
231	0x3d83261a	0.06403752
232	0xbf432315	-0.76225406
233	0xbf871ae8	-1.0555086
234	0x3fb567ed	1.4172341
235	0x3e4f33a8	0.20234549
236	0xbe355e44	-0.1771174
237	0xbf97414e	-1.1816804
238	0x3f01143d	0.50421506
239	0x3f87d8d1	1.0613042
240	0xbf23a0ef	-0.6391744
241	0x3f3582f8	0.7090297
242	0xbbf8cb70	-0.007592611
243	0xbf01ed6d	-0.5075291
244	0x3dc43748	0.095808566
245	0x3eca44fe	0.39505762
246	0x3ee2449c	0.4419297
247	0x3eb7996b	0.35859236
248	0xbeffffe2	-0.4999991
249	0xbe9da68f	-0.30791137
250	0x3eb79f86	0.35863894
251	0x3e67865f	0.22609852
252	0xbeeb87ca	-0.46002036
253	0xbe2c6710	-0.1683619
254	0xbf664b3e	-0.8995856
255	0xbe5cf76c	-0.21578759

bias f4 [64]
0	0xbf945ac6	-1.1590202
1	0xbd906cf7	-0.070520334
2	0xbf3da0d5	-0.74073535
3	0x3e09e368	0.13465655
4	0x3e09d797	0.13461147
5	0x3ea6a2e7	0.3254616
6	0xbf79e0cb	-0.9760863
7	0xbf2a01df	-0.66409105
8	0xbf8966e2	-1.0734522
9	0x3eff7678	0.49895072
10	0xbf6f7f0a	-0.9355322
11	0x3e0f818a	0.14014259
12	0x3f28ce1e	0.6593951
13	0x3e864cdd	0.26230517
14	0xbe10de6e	-0.1414735
15	0xbf47b4ca	-0.7801024
16	0x3f8b9b43	1.0906757
17	0x3e141f94	0.14465171
18	0xbea5e65b	-0.3240231
19	0x3e80da86	0.2516672
20	0x3e8d4204	0.27589428
21	0x3f02635c	0.5093286
22	0x3e524fe0	0.20538282
23	0xbed93978	-0.42426658
24	0x3fceebd8	1.6165724
25	0xbf0cc597	-0.54989
26	0xbf00b9f2	-0.5028373
27	0x3e50eef4	0.20403653
28	0xbeaac957	-0.33356735
29	0x3d067b8c	0.032832667
30	0x3f069923	0.5257742
31	0x3e0bd828	0.13656676
32	0x3f1d6e3e	0.6149634
33	0xbf79575f	-0.9739894
34	0x3db86f32	0.09005584
35	0x3ef0ef60	0.4705763
36	0x3f51af93	0.8190853
37	0x3ef70ba6	0.48251075
38	0x3e10a6b2	0.14126089
39	0x3f0f3430	0.55939007
40	0x3f4c8334	0.798877
41	0xbe508c8d	-0.20366116
42	0xbe4fe5c7	-0.20302497
43	0x3f8db82a	1.1071827
44	0xbee4eb50	-0.4471078
45	0x3f448306	0.76762426
46	0xbf405ba7	-0.7513985
47	0x3f5ecb11	0.87028605
48	0x3bcac320	0.0061878115
49	0xbd3a651d	-0.045506585
50	0x3ef87cf0	0.4853282
51	0x3e5dcc99	0.21660079
52	0xbf23404c	-0.63769984
53	0x3f8a30d4	1.0796151
54	0xbdbe34ec	-0.09287438
55	0x3e712f0c	0.23553103
56	0xbe19fbdc	-0.15037483
57	0x3f2876b8	0.6580615
58	0x3f43bccf	0.76459974
59	0xbd526094	-0.051361635
60	0x3ef65860	0.481143
61	0x3e817114	0.25281584
62	0xbfd09ecf	-1.6298465
63	0x3f87d7f6	1.0612781

weight f4 [3, 64]
0	0x3ee6d1c0	0.45081902
1	0xbdf46afe	-0.1193447
2	0x3dbbcd08	0.09169966
3	0x3e9752a5	0.2955524
4	0xbea8589d	-0.32880107
5	0x3f218c8e	0.63105094
6	0x3e81fdfa	0.2538908
7	0xbf106dba	-0.5641743
8	0xbee4fd22	-0.44724375
9	0xbf1d19e6	-0.6136764
10	0x3e60b72a	0.21944872
11	0xbec3bf1a	-0.38231736
12	0xbe3a8571	-0.18214966
13	0x3e0be641	0.13662054
14	0x3f70dbfc	0.9408567
15	0xbe6d10e4	-0.23150975
16	0xbd5a91a6	-0.053361557
17	0xbf00362e	-0.5008267
18	0x3eddde64	0.43333733
19	0xbcd3e8e5	-0.025867889
20	0xbf9e7ee1	-1.238247
21	0x3f63869f	0.8887729
22	0xbf26c79a	-0.6514832
23	0xbf3610a0	-0.7111912
24	0x3f62078f	0.88292783
25	0x3e0aa5a3	0.13539748
26	0x3f5a8741	0.8536263
27	0xbed3a2d6	-0.4133517
28	0xbf62c03d	-0.8857458
29	0xbe8e05e1	-0.2773886
30	0x3ed25ac1	0.41084865
31	0x3ee5032d	0.44728985
32	0x3e6c8d56	0.2310079
33	0xbda8782c	-0.08226046
34	0x3f21a194	0.63137174
35	0x3f4fbaf0	0.8114462
36	0xbd8b7b10	-0.06810582
37	0xbe906686	-0.2820322
38	0x3e0640cf	0.1311066
39	0xbc91a45c	-0.017778568
40	0x3f643402	0.8914186
41	0x3e0df6cd	0.13863678
42	0xbeb0f75c	-0.3456372
43	0xbe1e086b	-0.15432899
44	0x3ef45717	0.47722694
45	0xbf091334	-0.53544927
46	0x3f8695ce	1.0514467
47	0x3d564424	0.052311078
48	0xbe8c452c	-0.27396524
49	0x3f2e7066	0.68140256
50	0xbeaa5435	-0.3326737
51	0x3e821eaf	0.25414035
52	0x3f66a87e	0.9010085
53	0x3f7da350	0.9907732
54	0xbf492455	-0.78571063
55	0xbecb2ba7	-0.39681742
56	0xbde63af5	-0.11241714
57	0xbe66ed10	-0.2255137
58	0xbefdec3c	-0.49594295
59	0xbf3dc5eb	-0.74130124
60	0x3b7f5918	0.0038963016
61	0xbf11e1ba	-0.56985056
62	0xbf73be12	-0.952119
63	0x3e5a36a9	0.21309914
64	0x3fade656	1.3585918
65	0xbe6a68d9	-0.22891559
66	0xbe6d6af0	-0.23185325
67	0x3d63bbad	0.055598903
68	0x3ee4d3b4	0.44692767
69	0xbe9bf437	-0.3045976
70	0xbeb53cf0	-0.35398054
71	0xbe3a0351	-0.18165328
72	0xbe187616	-0.14888796
73	0xbeba7b02	-0.36421973
74	0x3dfe6078	0.12420744
75	0x3f8fd64b	1.1237272
76	0x3f1809e7	0.5939011
77	0xbf3b62fd	-0.7319792
78	0xbe7f3b70	-0.24925017
79	0x3dc4000f	0.09570324
80	0x3f220b6a	0.63298666
81	0x3f69154d	0.9104813
82	0xbfc946a4	-1.5724683
83	0xbf8490de	-1.035671
84	0x3d662032	0.056183048
85	0xbf2f8d04	-0.6857455
86	0xbf1a3153	-0.6023151
87	0x3d30ddf5	0.043180425
88	0x3f28a18c	0.658715
89	0xbea27902	-0.31732947
90	0x3e766425	0.2406164
91	0x3da7f71c	0.08201429
92	0xbe6cf20c	-0.23139209
93	0x3f35230d	0.7075661
94	0x3c90b5d0	0.01766482
95	0xbdc6010c	-0.096681684
96	0xbe12b8f3	-0.14328365
97	0x3f852939	1.0403205
98	0xbf142bfb	-0.5787961
99	0x3e055902	0.13022235
100	0xbe384a7f	-0.17997168
101	0xbf525f74	-0.821769
102	0x3f4905d2	0.78524506
103	0x3d8cebce	0.06880914
104	0xbd8240b3	-0.06359997
105	0xbf658ead	-0.8967083
106	0x3f4d3052	0.80151856
107	0x3e0a18b1	0.13485982
108	0xbeb74635	-0.3579575
109	0xbe039a8b	-0.12851922
110	0xbed61e48	-0.41819978
111	0x3e8daab8	0.2766931
112	0x3eb53d71	0.3539844
113	0xbd6af9b0	-0.057367027
114	0x3db3bd02	0.08776285
115	0x3eec4369	0.4614518
116	0xbf809367	-1.0044984
117	0x3d2412d0	0.040057003
118	0xbe165a38	-0.14682853
119	0xbeba82a7	-0.36427805
120	0xbc202573	-0.009774554
121	0x3ee84673	0.45366248
122	0x3e1387da	0.14407292
123	0x3f18d611	0.5970164
124	0x3ef3c5eb	0.47611937
125	0x3ecacb02	0.39608008
126	0x3decd293	0.11563601
127	0xbf435a54	-0.76309705
128	0x3d81c4c5	0.06336359
129	0x3f85aaff	1.0442809
130	0xbf1e7a37	-0.61905235
131	0x3fba608f	1.4560717
132	0xbe8cba4a	-0.27485877
133	0xbe850573	-0.2598072
134	0x3eee6aa8	0.46565747
135	0xbf14118e	-0.57839286
136	0xbed9b048	-0.42517304
137	0xbf1cb7dc	-0.6121805
138	0x3f41d71a	0.75718844
139	0xbf0a8291	-0.5410548
140	0xbf01e55c	-0.507406
141	0x3c896124	0.016769953
142	0xbf24dfba	-0.6440388
143	0xbee4a71c	-0.44658744
144	0xbee14da7	-0.44004557
145	0x3fd2e052	1.6474707
146	0xbf13f25d	-0.5779169
147	0x3ee7b3dc	0.4525441
148	0x3ecf79e6	0.4052269
149	0x3e986da8	0.2977116
150	0x3e73a61c	0.23793834
151	0x3ed31e5f	0.4123411
152	0xbcdebbf4	-0.027189232
153	0x3ede2b2f	0.4339232
154	0x3eef81b6	0.4677865
155	0xbeb9079f	-0.36138627
156	0xbf9df772	-1.2341139
157	0xbd3de002	-0.04635621
158	0x3ebebd35	0.37253729
159	0x3f1ca14d	0.61183625
160	0xbf8f20dc	-1.1181903
161	0x3eb23d58	0.34812427
162	0x3ee7e820	0.45294285
163	0x3e8cd8cc	0.27509153
164	0xbd9f2c84	-0.077721626
165	0xbcb38332	-0.021913145
166	0xbf20fb2e	-0.6288327
167	0xbf4b8103	-0.7949373
168	0x3f035d04	0.51313806
169	0xbea66c98	-0.32504725
170	0xbd2a0f20	-0.04151833
171	0xbec7f6b7	-0.39055416
172	0xbdea0f2f	-0.11428677
173	0x3dda8958	0.106707275
174	0x3e8dbaf7	0.27681705
175	0xbe5ef3f0	-0.21772742
176	0x3eb8aa48	0.36067414
177	0x3ea801b5	0.32813802
178	0xbedcb5b7	-0.43107387
179	0x3f105ba7	0.5638985
180	0x3e7872d0	0.24262547
181	0xbe584050	-0.21118283
182	0x3e075739	0.13216867
183	0x3e890c2e	0.26767105
184	0xbf03cfc8	-0.51488924
185	0xbf22aa4c	-0.635411
186	0x3f5a1071	0.8518134
187	0x3f20fa58	0.62881994
188	0xbe86b479	-0.26309565
189	0xbea0e934	-0.3142792
190	0x3e012021	0.12609912
191	0x3f49b982	0.7879869

bias f4 [3]
0	0xbe32f24e	-0.17475244
1	0xbe7107f4	-0.2353819
2	0x3cac7525	0.021051953
