examples/neurocoevolution_pytorch/player2_3720.2938847318683.pth (torch, 24279 bytes, 6 tensors)

weight f4 [64, 14]
0.18370649 0.43859467 0.26777646 0.28725705 0.26229534 0.15940961 0.5507998 0.35480163
0.28813764 0.07428144 0.5035729 0.29753682 0.5120197 0.051172957 0.3332037 0.46458566
0.44405648 0.4147049 0.22433832 0.39062265 0.19498488 0.47696888 0.46933198 0.3864036
0.4634391 0.18051013 0.067544445 0.2705067 0.37528363 0.10477362 0.48992473 0.48611802
0.37235466 0.07879947 0.19452044 0.40854868 0.21773818 0.35075137 0.20316544 0.3866103
0.28954837 0.07104038 0.39834926 0.32859233 0.23095539 0.18785879 0.54803354 0.0667368
0.13654843 0.22761062 0.26284596 0.5388735 0.22523549 0.31395498 0.27323112 0.3754088
0.4802369 0.22290292 0.46579194 0.49435383 0.27074775 0.24373052 0.1534324 0.3499045
0.41533646 0.33411708 0.5562689 0.12193445 0.11757956 0.29006693 0.3310838 0.35318944
0.042133525 0.10630045 0.15619227 0.30452546 0.27518794 0.40543136 0.42815027 0.10811458
0.527088 0.49897808 0.3628666 0.1053761 0.39508954 0.047524914 0.30920407 0.13436845
0.30670735 0.52892107 0.16779229 0.2053602 0.29239532 0.38917735 0.52553195 0.23530427
0.0776975 0.16535291 0.3427398 0.49987906 0.29063782 0.15757641 0.27102908 0.06682573
0.13657108 0.5392516 0.2670847 0.1303319 0.26328382 0.45648727 0.5319913 0.39109662
0.053110465 0.4630506 0.52589375 0.15283635 0.35748133 0.3096396 0.25001976 0.5014035
0.510879 0.208738 0.05905114 0.1414204 0.48095894 0.41409728 0.3768796 0.075577125
0.36585727 0.20540872 0.09243796 0.26211843 0.5381163 0.11218063 0.08221458 0.48447114
0.16286954 0.31396654 0.562164 0.15589854 0.24118748 0.14488605 0.06794749 0.5278241
0.40670463 0.45057556 0.056426033 0.4289455 0.45521364 0.058876857 0.05225669 0.4100239
0.049942 0.35811624 0.5136066 0.047140673 0.552394 0.5317474 0.15278915 0.29943046
0.4525933 0.16011557 0.32807174 0.36199185 0.52526027 0.53461033 0.5437594 0.22961655
0.33135965 0.22379652 0.15350977 0.15800759 0.044200614 0.17876872 0.04049404 0.40714857
0.35301837 0.09087 0.08035515 0.24075404 0.16067955 0.5384403 0.22361258 0.1545147
0.067696914 0.52436584 0.3858432 0.5180357 0.3299605 0.28850123 0.4776287 0.51243705
0.22131398 0.103206255 0.25734004 0.27754483 0.054208025 0.032808974 0.09600792 0.41539404
0.34488055 0.3835005 0.32801798 0.3103241 0.4209207 0.09420846 0.3338863 0.37855926
0.38659814 0.32711878 0.43270907 0.45277008 0.36841026 0.06347118 0.33520213 0.37531188
0.15032938 0.12177662 0.41617903 0.44864973 0.13299158 0.20390156 0.34310922 0.28139302
0.52014154 0.54266435 0.37852398 0.523864 0.5283814 0.18516287 0.15883633 0.27439532
0.11223642 0.19064233 0.26360998 0.31813946 0.3487837 0.3882554 0.28261563 0.28760287
0.15104905 0.15578648 0.5189796 0.2024199 0.14144829 0.08829395 0.42762956 0.41153523
0.2785718 0.21141246 0.5037505 0.04997252 0.28737268 0.14434043 0.53928655 0.16452667
00000000: 8e1d 3c3e 7b8f e03e ff19 893e 5b13 933e
00000010: 934b 863e 463c 233e 3701 0d3f 8fa8 b53e
00000020: c786 933e de20 983d 27ea 003f bf56 983e
00000030: b913 033f bc9a 513d ad99 aa3e 2cde ed3e
00000040: 5f5b e33e 3354 d43e f2b8 653e b1ff c73e
00000050: 1eaa 473e 4435 f43e 484c f03e b1d6 c53e
00000060: e447 ed3e a6d7 383e be54 8a3d db7f 8a3e
00000070: 2d25 c03e 8d93 d63d 6ad7 fa3e 76e4 f83e
00000080: 45a5 be3e 9e61 a13d 5e30 473e 4b2d d13e
00000090: c2f6 5e3e af95 b33e 9a0a 503e c9f1 c53e
000000a0: af3f 943e 9e7d 913d 6ff4 cb3e 413d a83e
000000b0: 927f 6c3e 0e5e 403e ed4b 0c3f 4ead 883d
000000c0: 5ad3 0b3e c212 693e bf93 863e 9df3 093f
000000d0: 22a4 663e b5be a03e f3e4 8b3e 9535 c03e
000000e0: 9ce1 f53e aa40 643e 487c ee3e f21b fd3e
000000f0: 739f 8a3e 7e94 793e 621d 1d3e af26 b33e
00000100: fba6 d43e 6511 ab3e a367 0e3f c5b8 f93d
00000110: 8dcd f03d a783 943e d183 a93e 3fd5 b43e
00000120: 3494 2c3d 0db4 d93d def0 1f3e c3ea 9b3e
00000130: 6fe5 8c3e b394 cf3e 8336 db3e 2d6b dd3d
00000140: 3def 063f 0e7a ff3e a7c9 b93e 6dcf d73d
00000150: 2d49 ca3e 7ca9 423d ff4f 9e3e e297 093e
00000160: bf08 9d3e 5f67 073f bed1 2b3e f249 523e
00000170: d7b4 953e 4142 c73e 4389 063f 9af3 703e
00000180: de1f 9f3d 4652 293e 977b af3e 26f0 ff3e
00000190: 7bce 943e b65b 213e 53c4 8a3e eedb 883d
000001a0: 4ad9 0b3e 650c 0a3f 53bf 883e ba75 053e
000001b0: 23cd 863e b3b8 e93e 9530 083f d13d c83e
000001c0: 5c8a 593d f814 ed3e f9a0 063f 2281 1c3e
000001d0: cb07 b73e 1589 9e3e 9702 803e fb5b 003f
000001e0: f7c8 023f 6abf 553e 9cdf 713d 82d0 103e
000001f0: 4040 f63e 8f04 d43e 5df6 c03e 2ec8 9a3d
00000200: a551 bb3e aa56 523e 1d50 bd3d 6334 863e
00000210: fdc1 093f f5be e53d 1e60 a83d 9a0c f83e
00000220: 46c7 263e 39c0 a03e fbe9 0f3f dea3 1f3e
00000230: daf9 763e 025d 143e 0e28 8b3d 7b1f 073f
00000240: 973b d03e d7b1 e63e fc1e 673d bf9e db3e
00000250: c311 e93e dc28 713d 1c0b 563d a7ee d13e
00000260: fc8f 4c3d 035b b73e b97b 033f 9416 413d
00000270: b169 0d3f 9920 083f c274 1c3e f34e 993e
00000280: 4fba e73e 56f5 233e 05f9 a73e ff56 b93e
00000290: 7577 063f 39dc 083f d133 0b3f 9a20 6b3e
000002a0: f9a7 a93e ea2a 653e aa31 1d3e becc 213e
000002b0: b40b 353d 260f 373e 14dd 253d c775 d03e
000002c0: d3be b43e 0d1a ba3d 3e91 a43d 3a88 763e
000002d0: 2e89 243e 39d7 093f b2fa 643e 1a39 1e3e
000002e0: aea4 8a3d d73c 063f 3d8d c53e fd9d 043f
000002f0: 95f0 a83e 6fb6 933e c08b f43e 132f 033f
00000300: 22a0 623e cd5d d33d 13c2 833e 5b1a 8e3e
00000310: 3c09 5e3d b462 063d cd9f c43d 87ae d43e
00000320: 2f94 b03e 2d5a c43e f9f1 a73e cde2 9e3e
00000330: eb82 d73e 5df0 c03d 25f3 aa3e 85d2 c13e
00000340: 31f0 c53e 1d7c a73e 0b8c dd3e 7bd1 e73e
00000350: 45a0 bc3e 2efd 813d 9d9f ab3e e128 c03e
00000360: f2ef 193e 0566 f93d 6b15 d53e 6bb5 e53e
00000370: f22e 083e 92cb 503e 03ac af3e bf12 903e
00000380: ff27 053f 0dec 0a3f e5cd c13e f31b 063f
00000390: 0144 073f 569b 3d3e fea5 223e 8b7d 8c3e
000003a0: 35dc e53d be37 433e e3f7 863e 2de3 a23e
000003b0: c793 b23e 69c9 c63e ffb2 903e af40 933e
000003c0: 9aac 1a3e 7e86 1f3e d9db 043f 2a47 4f3e
000003d0: d2d7 103e 75d3 b43d 43f2 da3e bfb4 d23e
000003e0: f7a0 8e3e 827c 583e cbf5 003f fcaf 4c3d
000003f0: 8322 933e facd 133e af0e 0a3f ae79 283e

bias f4 [64]
0.29844102 0.29844102 0.29844102 0.29844102 0.29844102 0.29844102 0.29844102 0.29844102
0.29844102 0.29844102 0.29844102 0.29844102 0.29844102 0.29844102 0.29844102 0.29844102
0.29844102 0.29844102 0.29844102 0.29844102 0.29844102 0.29844102 0.29844102 0.29844102
0.29844102 0.29844102 0.29844102 0.29844102 0.29844102 0.29844102 0.29844102 0.29844102
0.29844102 0.29844102 0.29844102 0.29844102 0.29844102 0.29844102 0.29844102 0.29844102
0.29844102 0.29844102 0.29844102 0.29844102 0.29844102 0.29844102 0.29844102 0.29844102
0.29844102 0.29844102 0.29844102 0.29844102 0.29844102 0.29844102 0.29844102 0.29844102
0.29844102 0.29844102 0.29844102 0.29844102 0.29844102 0.29844102 0.29844102 0.29844102
00000000: 43cd 983e 43cd 983e 43cd 983e 43cd 983e
00000010: 43cd 983e 43cd 983e 43cd 983e 43cd 983e
00000020: 43cd 983e 43cd 983e 43cd 983e 43cd 983e
00000030: 43cd 983e 43cd 983e 43cd 983e 43cd 983e
00000040: 43cd 983e 43cd 983e 43cd 983e 43cd 983e
00000050: 43cd 983e 43cd 983e 43cd 983e 43cd 983e
00000060: 43cd 983e 43cd 983e 43cd 983e 43cd 983e
00000070: 43cd 983e 43cd 983e 43cd 983e 43cd 983e
00000080: 43cd 983e 43cd 983e 43cd 983e 43cd 983e
00000090: 43cd 983e 43cd 983e 43cd 983e 43cd 983e
000000a0: 43cd 983e 43cd 983e 43cd 983e 43cd 983e
000000b0: 43cd 983e 43cd 983e 43cd 983e 43cd 983e
000000c0: 43cd 983e 43cd 983e 43cd 983e 43cd 983e
000000d0: 43cd 983e 43cd 983e 43cd 983e 43cd 983e
000000e0: 43cd 983e 43cd 983e 43cd 983e 43cd 983e
000000f0: 43cd 983e 43cd 983e 43cd 983e 43cd 983e

weight f4 [64, 64]
0.31148484 0.1941298 0.2699115 0.28797564 0.22992364 0.3589755 0.36753443 0.28507635
0.40294906 0.3420829 0.2564195 0.27076218 0.2775143 0.34227303 0.22281006 0.33179846
0.34805354 0.22255793 0.33108726 0.39560416 0.21346727 0.35387143 0.37520555 0.18583784
0.23566344 0.308403 0.19624332 0.33045664 0.4078451 0.25882372 0.2913774 0.22381571
0.18967685 0.33932105 0.3503718 0.26310107 0.17852661 0.22989944 0.2611135 0.21707991
0.3977709 0.28315756 0.3048137 0.4065679 0.2342284 0.23152927 0.41535506 0.37246576
0.3646852 0.25541767 0.38458744 0.3445427 0.3432071 0.30991808 0.3951203 0.37967148
0.39237216 0.2929804 0.27238724 0.37666646 0.27162656 0.18266508 0.31178954 0.2471064
0.19456992 0.21001819 0.35788295 0.36900786 0.20276263 0.31445816 0.33019665 0.21792415
0.26609096 0.25559935 0.33137694 0.28817233 0.3018534 0.22112146 0.38668004 0.3194305
0.32457533 0.20959154 0.3059146 0.39136007 0.31311753 0.31451705 0.26364145 0.29974934
0.38769653 0.3197644 0.27608106 0.1981205 0.21365574 0.24766764 0.36430636 0.293668
0.22685423 0.4084061 0.38362303 0.21614495 0.3525208 0.3416988 0.38168624 0.41340658
0.22501877 0.29453954 0.34950253 0.327871 0.3533803 0.2647762 0.19078979 0.31971982
0.3840511 0.366388 0.37101582 0.28511414 0.26005802 0.21209791 0.41483077 0.17594013
0.31842616 0.3849534 0.19148883 0.29165575 0.375518 0.19139406 0.35709104 0.4037138
0.39800546 0.41900858 0.24225512 0.38950887 0.19586518 0.2574874 0.4095311 0.2118868
0.225382 0.2593455 0.26090607 0.19931427 0.31085065 0.2780907 0.3937228 0.3337932
0.37817016 0.20155361 0.32841745 0.21206537 0.38378194 0.37339666 0.4028556 0.29593393
0.4211267 0.21477607 0.37268963 0.21505335 0.33314183 0.2762271 0.34617636 0.3699136
0.22994378 0.2020084 0.4072958 0.32627216 0.340233 0.36640683 0.26509616 0.2700065
0.25951692 0.3311397 0.33829024 0.2755662 0.35246024 0.38028827 0.39822277 0.3129435
0.21456781 0.32138625 0.3639559 0.36396268 0.38504818 0.40255138 0.27887508 0.19606295
0.29421481 0.3274286 0.25514635 0.17732224 0.24775478 0.3152105 0.40270647 0.37290147
0.33761123 0.40493056 0.31992963 0.33169523 0.31615987 0.19033 0.24494824 0.31309155
0.27943632 0.20222357 0.37179747 0.3111582 0.3447455 0.18111154 0.2159746 0.22042969
0.21375158 0.34149423 0.3462369 0.3553166 0.33244517 0.18749699 0.32389453 0.33353546
0.28601453 0.33130768 0.29869482 0.3905472 0.18044373 0.34154204 0.37285116 0.29195055
0.34330294 0.27921042 0.27707037 0.31660393 0.29954442 0.26055762 0.33456758 0.37564304
0.3736792 0.366226 0.22863582 0.26069495 0.35305902 0.26694688 0.18672118 0.31425932
0.2647451 0.3753517 0.35551426 0.19961658 0.21856013 0.39895782 0.24648866 0.26688
0.26405653 0.25441763 0.35213026 0.19839492 0.2252517 0.19912091 0.3412805 0.39095202
00000000: f17a 9f3e f6c9 463e d731 8a3e 8b71 933e
00000010: 1a71 6b3e a3cb b73e 792d bc3e 87f5 913e
00000020: 574f ce3e 7d25 af3e 6b49 833e 57a1 8a3e
00000030: 5b16 8e3e 693e af3e 5228 643e 7de1 a93e
00000040: 1334 b23e 3ae6 633e 4584 a93e a18c ca3e
00000050: 2a97 5a3e a32e b53e f11a c03e 464c 3e3e
00000060: c251 713e ffe6 9d3e 02f4 483e 9d31 a93e
00000070: 13d1 d03e 8b84 843e 6b2f 953e f22f 653e
00000080: a63a 423e 7dbb ad3e ef63 b33e 2fb5 863e
00000090: aecf 363e c26a 6b3e abb0 853e 324a 5e3e
000000a0: a1a8 cb3e 07fa 903e 8b10 9c3e ab29 d03e
000000b0: 92d9 6f3e 0216 6d3e 6ba9 d43e d5b3 be3e
000000c0: 05b8 ba3e 1bc6 823e a5e8 c43e e767 b03e
000000d0: d7b8 af3e 95ad 9e3e 354d ca3e 4d64 c23e
000000e0: 01e5 c83e 8701 963e 5776 8b3e 6dda c03e
000000f0: a312 8b3e 8e0c 3b3e e1a2 9f3e 7609 7d3e
00000100: 563d 473e 020f 573e 6f3c b73e 99ee bc3e
00000110: 02a1 4f3e a900 a13e 890f a93e 8227 5f3e
00000120: 133d 883e ebdd 823e 3daa a93e 538b 933e
00000130: 878c 9a3e aa6d 623e edfa c53e 658c a33e
00000140: bd2e a63e 2a9f 563e d7a0 9c3e 5960 c83e
00000150: f150 a03e 6108 a13e 03fc 863e bf78 993e
00000160: 2980 c63e 29b8 a33e 7f5a 8d3e 1ae0 4a3e
00000170: 92c8 5a3e 969c 7d3e 5d86 ba3e a75b 963e
00000180: 7a4c 683e 9b1a d13e 3d6a c43e 1a55 5d3e
00000190: 9b7d b43e 25f3 ae3e 616c c33e 07aa d33e
000001a0: 526b 663e e3cd 963e fff1 b23e b5de a73e
000001b0: 43ee b43e bf90 873e 665e 433e 51b2 a33e
000001c0: 59a2 c43e 3597 bb3e c9f5 bd3e 7bfa 913e
000001d0: 5326 853e 3230 593e b364 d43e a629 343e
000001e0: c108 a33e 9d18 c53e a615 443e e753 953e
000001f0: e543 c03e cefc 433e a3d4 b63e 93b3 ce3e
00000200: 5fc7 cb3e 4b88 d63e ba11 783e b56d c73e
00000210: e290 483e 63d5 833e 0fae d13e daf8 583e
00000220: 8aca 663e efc8 843e 7b95 853e 0a19 4c3e
00000230: d127 9f3e e761 8e3e 0996 c93e f1e6 aa3e
00000240: 859f c13e 1264 4e3e 5526 a83e aa27 593e
00000250: 117f c43e d92d bf3e 1743 ce3e a784 973e
00000260: eb9d d73e 42ee 5b3e 2dd1 be3e f236 5c3e
00000270: 9191 aa3e a36d 8d3e 073e b13e 5165 bd3e
00000280: 6276 6b3e 4adb 4e3e 1389 d03e 250d a73e
00000290: 0533 ae3e ad99 bb3e afba 873e 4b3e 8a3e
000002a0: 67df 843e 258b a93e 6134 ad3e 0317 8d3e
000002b0: ab75 b43e 25b5 c23e dbe3 cb3e 213a a03e
000002c0: aab7 5b3e bd8c a43e 6d58 ba3e 5159 ba3e
000002d0: 0925 c53e 371b ce3e b7c8 8e3e bac4 483e
000002e0: 53a3 963e b9a4 a73e 8ba2 823e f693 353e
000002f0: 6eb3 7d3e 4563 a13e 8b2f ce3e f1ec be3e
00000300: 61db ac3e 0f53 cf3e d1cd a33e f5d3 a93e
00000310: b5df a13e dee5 423e b6d3 7a3e 894d a03e
00000320: 4712 8f3e b213 4f3e 3d5c be3e 2150 9f3e
00000330: 7b82 b03e 4e75 393e 7228 5d3e 52b8 613e
00000340: b2e1 5a3e 55d8 ae3e f745 b13e 0fec b53e
00000350: 4136 aa3e 36ff 3f3e 81d5 a53e 29c5 aa3e
00000360: 7f70 923e 29a1 a93e 87ee 983e cdf5 c73e
00000370: 3ec6 383e 99de ae3e 59e6 be3e 8b7a 953e
00000380: 67c5 af3e abf4 8e3e 2bdc 8d3e e919 a23e
00000390: e35d 993e cf67 853e 714c ab3e 4954 c03e
000003a0: e152 bf3e f981 bb3e 821f 6a3e cf79 853e
000003b0: 27c4 b43e 43ad 883e d633 3f3e 99e6 a03e
000003c0: ab8c 873e 192e c03e f705 b63e 4a68 4c3e
000003d0: 3ace 5f3e 3344 cc3e 8667 7c3e 7fa4 883e
000003e0: 6b32 873e 0743 823e 6b4a b43e 0a28 4b3e
000003f0: 62a8 663e 5ae6 4b3e 51bc ae3e dd2a c83e

bias f4 [64]
0.29844102 0.29844102 0.29844102 0.29844102 0.29844102 0.29844102 0.29844102 0.29844102
0.29844102 0.29844102 0.29844102 0.29844102 0.29844102 0.29844102 0.29844102 0.29844102
0.29844102 0.29844102 0.29844102 0.29844102 0.29844102 0.29844102 0.29844102 0.29844102
0.29844102 0.29844102 0.29844102 0.29844102 0.29844102 0.29844102 0.29844102 0.29844102
0.29844102 0.29844102 0.29844102 0.29844102 0.29844102 0.29844102 0.29844102 0.29844102
0.29844102 0.29844102 0.29844102 0.29844102 0.29844102 0.29844102 0.29844102 0.29844102
0.29844102 0.29844102 0.29844102 0.29844102 0.29844102 0.29844102 0.29844102 0.29844102
0.29844102 0.29844102 0.29844102 0.29844102 0.29844102 0.29844102 0.29844102 0.29844102
00000000: 43cd 983e 43cd 983e 43cd 983e 43cd 983e
00000010: 43cd 983e 43cd 983e 43cd 983e 43cd 983e
00000020: 43cd 983e 43cd 983e 43cd 983e 43cd 983e
00000030: 43cd 983e 43cd 983e 43cd 983e 43cd 983e
00000040: 43cd 983e 43cd 983e 43cd 983e 43cd 983e
00000050: 43cd 983e 43cd 983e 43cd 983e 43cd 983e
00000060: 43cd 983e 43cd 983e 43cd 983e 43cd 983e
00000070: 43cd 983e 43cd 983e 43cd 983e 43cd 983e
00000080: 43cd 983e 43cd 983e 43cd 983e 43cd 983e
00000090: 43cd 983e 43cd 983e 43cd 983e 43cd 983e
000000a0: 43cd 983e 43cd 983e 43cd 983e 43cd 983e
000000b0: 43cd 983e 43cd 983e 43cd 983e 43cd 983e
000000c0: 43cd 983e 43cd 983e 43cd 983e 43cd 983e
000000d0: 43cd 983e 43cd 983e 43cd 983e 43cd 983e
000000e0: 43cd 983e 43cd 983e 43cd 983e 43cd 983e
000000f0: 43cd 983e 43cd 983e 43cd 983e 43cd 983e

weight f4 [3, 64]
0.19395134 0.39854357 0.33480886 0.2758921 0.36829856 0.2629771 0.27675042 0.41605756
0.38690916 0.39184883 0.28378698 0.31797674 0.35491797 0.3620753 0.23564199 0.18105933
0.3538842 0.31232896 0.18544504 0.24208155 0.18489751 0.41585407 0.21513775 0.34982166
0.2536504 0.3277121 0.39530686 0.31133035 0.332042 0.22896364 0.21977642 0.41280803
0.22948232 0.3134053 0.32823506 0.23741761 0.17414191 0.19363889 0.37370065 0.25878295
0.3182315 0.28776988 0.2885314 0.23533216 0.28838536 0.3959053 0.3494235 0.37660733
0.42304477 0.2703881 0.40860674 0.39168516 0.23763803 0.3442758 0.38522342 0.21705845
0.3610575 0.23284104 0.33536878 0.17579547 0.41268966 0.3524271 0.21281114 0.17372623
0.38531795 0.370191 0.37786296 0.3053511 0.2580001 0.2555022 0.40600583 0.22051194
0.33098403 0.20527056 0.34255555 0.34345016 0.37392047 0.25279877 0.379154 0.23673907
0.2062178 0.3953369 0.22513548 0.39732733 0.33172324 0.33845404 0.20712224 0.22503713
0.34078637 0.4016504 0.33507136 0.2131019 0.32594708 0.21126524 0.24604651 0.40731594
0.19420823 0.20805147 0.23142186 0.42334053 0.25998577 0.39432088 0.33908024 0.2106978
0.40964112 0.4061956 0.1800203 0.30633554 0.39672187 0.28588006 0.3628969 0.3530285
0.26113376 0.2509311 0.2262893 0.42264184 0.4179679 0.34478554 0.3042067 0.30667362
0.33186176 0.17946038 0.39006034 0.34578094 0.37236157 0.41091594 0.42328867 0.18503329
0.34827515 0.18573448 0.37193063 0.18255076 0.39169326 0.4084024 0.25959083 0.36250612
0.40787086 0.24637732 0.28259322 0.2596968 0.2841247 0.37936 0.18184885 0.33447102
0.22728887 0.2335985 0.40957472 0.27746484 0.41458175 0.19747344 0.18167219 0.24400339
0.31954518 0.33317366 0.17416611 0.254325 0.22042349 0.33808318 0.3402795 0.20790163
0.27465388 0.26187858 0.4152679 0.39855263 0.20920125 0.2780629 0.1876218 0.3938761
0.36481825 0.31030753 0.18984863 0.2526022 0.3512858 0.28248915 0.35492477 0.21820346
0.27825353 0.3863956 0.24197593 0.24509975 0.20434263 0.23148337 0.2538987 0.34109965
0.19071433 0.18322822 0.19614795 0.20451811 0.18435583 0.2729133 0.2177302 0.35293683
00000000: 2e9b 463e e70d cc3e 116c ab3e bb41 8d3e
00000010: a191 bc3e efa4 863e 3bb2 8d3e 7f05 d53e
00000020: f518 c63e 69a0 c83e 874c 913e d9cd a23e
00000030: cfb7 b53e ef61 b93e 224c 713e 9e67 393e
00000040: 4f30 b53e 95e9 9f3e 4ee5 3d3e 3ae4 773e
00000050: c655 3d3e d3ea d43e 124d 5c3e d31b b33e
00000060: 77de 813e e1c9 a73e a965 ca3e b166 9f3e
00000070: 6901 aa3e 7275 6a3e 120d 613e 935b d33e
00000080: 6afd 6a3e a976 a03e 6d0e a83e 9a1d 733e
00000090: 4252 323e 4649 463e b155 bf3e 337f 843e
000000a0: 3def a23e 9356 933e 63ba 933e eafa 703e
000000b0: 3fa7 933e 19b4 ca3e a3e7 b23e add2 c03e
000000c0: 5399 d83e 4f70 8a3e e734 d13e f58a c83e
000000d0: 6257 733e eb44 b03e 013c c53e 9244 5e3e
000000e0: 87dc b83e e26d 6e3e 75b5 ab3e ba03 343e
000000f0: 0f4c d33e 5371 b43e 2aeb 593e 4ae5 313e
00000100: 6548 c53e ad89 bd3e 4177 c13e fb56 9c3e
00000110: 9718 843e 2fd1 823e ffdf cf3e e2cd 613e
00000120: bd76 a93e 7232 523e 7163 af3e b3d8 af3e
00000130: 8172 bf3e d76e 813e 7920 c23e ba6b 723e
00000140: c22a 533e 9969 ca3e ea89 663e 7d6e cb3e
00000150: a1d7 a93e d949 ad3e da17 543e 2270 663e
00000160: 8d7b ae3e 1fa5 cd3e 798e ab3e 6237 5a3e
00000170: 89e2 a63e ea55 583e 9ef3 7b3e b78b d03e
00000180: 86de 463e 720b 553e daf9 6c3e 17c0 d83e
00000190: db1c 853e 6de4 c93e ed9b ad3e 2ac1 573e
000001a0: 7bbc d13e dff8 cf3e 3e57 383e 03d8 9c3e
000001b0: 211f cb3e df5e 923e 9fcd b93e 27c0 b43e
000001c0: 53b3 853e 0b7a 803e 62b8 673e 8364 d83e
000001d0: e3ff d53e bb87 b03e fbc0 9b3e 5304 9d3e
000001e0: c9e9 a93e 76c4 373e fdb5 c73e 330a b13e
000001f0: 2da6 be3e 9363 d23e 4bb9 d83e 5e79 3d3e
00000200: 1f51 b23e 2e31 3e3e b16d be3e 96ee 3a3e
00000210: 058c c83e 1f1a d13e 17e9 843e 679a b93e
00000220: 73d4 d03e 564a 7c3e 0fb0 903e fbf6 843e
00000230: cb78 913e 793b c23e 9636 3a3e c93f ab3e
00000240: 6abe 683e 7234 6f3e c7b3 d13e df0f 8e3e
00000250: 0f44 d43e 7a36 4a3e 4608 3a3e 06dc 793e
00000260: 6d9b a33e bd95 aa3e 9a58 323e e336 823e
00000270: b2b6 613e 3d19 ad3e 1d39 ae3e 2ae4 543e
00000280: 6f9f 8c3e f314 863e ff9d d43e 170f cc3e
00000290: da38 563e 435e 8e3e ee1f 403e 21aa c93e
000002a0: 75c9 ba3e a1e0 9e3e ae67 423e 1355 813e
000002b0: bbdb b33e 6ba2 903e b3b8 b53e ba70 5f3e
000002c0: 3f77 8e3e a5d5 c53e 8ac8 773e 6efb 7a3e
000002d0: 323f 513e fa09 6d3e 03ff 813e 9da4 ae3e
000002e0: 9e4a 433e 2ea0 3b3e 02db 483e 326d 513e
000002f0: c6c7 3c3e 4bbb 8b3e aaf4 5e3e 23b4 b43e

bias f4 [3]
0.29844102 0.29844102 0.29844102
00000000: 43cd 983e 43cd 983e 43cd 983e
