examples/neurocoevolution_pytorch/player1_3720.2938847318683.pth (torch, 24279 bytes, 6 tensors)

weight f4 [64, 14]
000000 0f 82 dd 40 65 9c 40 40 71 95 2a c1 3d 77 0d c1
       6.9221263 3.0095456 -10.661485 -8.841611
000010 a4 0d ad c1 40 85 96 c0 70 db 59 c1 8b 82 d8 3f
       -21.63166 -4.703766 -13.616074 1.6914839
000020 56 ea 17 be f3 9a c0 3f 3f d4 dd c0 a2 06 02 41
       -0.14835486 1.5047287 -6.932159 8.126619
000030 c6 6c 2a c1 19 75 07 41 10 99 69 c0 b2 c3 a1 41
       -10.651556 8.466088 -3.6499672 20.220554
000040 92 cc 5b bf 59 6e 62 41 ce 92 8a c1 a4 bf af c0
       -0.85859025 14.15194 -17.321682 -5.4921436
000050 12 64 3d 41 48 e9 12 c2 c1 6e 9a c1 3f 48 6e c1
       11.836931 -36.727814 -19.30408 -14.892638
000060 ca 45 e0 40 13 d5 22 42 0e 73 91 c1 2c 36 f2 c1
       7.008519 40.70808 -18.18118 -30.276451
000070 ad 21 aa c1 7e 30 f7 40 02 dc d6 3f 5f a2 8f 41
       -21.266443 7.7246695 1.6785891 17.954283
000080 55 9a c9 c1 53 2f bc 40 eb e8 55 c0 ee e3 57 41
       -25.200357 5.880777 -3.3423412 13.493147
000090 e3 5c b1 40 ff 2d 06 42 40 b8 d9 c0 36 78 ae 40
       5.5425887 33.544918 -6.8037415 5.452174
0000a0 62 e0 92 c0 eb a3 8f 41 9e ff f3 41 5b 84 ca c0
       -4.5898905 17.955038 30.499813 -6.3286567
0000b0 fa 2e db 40 1b e0 78 40 d8 48 19 40 5b e4 d3 41
       6.8494844 3.8886783 2.395071 26.486502
0000c0 9e 97 ef be 23 87 67 41 46 6d c6 c0 44 57 63 40
       -0.46795362 14.470492 -6.200839 3.5522013
0000d0 70 6a a5 bf 74 59 04 40 14 76 80 c1 cd 24 78 c1
       -1.2923107 2.0679598 -16.057655 -15.508985
0000e0 40 c4 8b c1 6e 27 87 41 05 ab e9 40 d6 29 c3 c0
       -17.470825 16.894253 7.3021264 -6.098857
0000f0 60 df 81 c1 76 c8 f5 c0 06 9a df 3f b7 a9 f0 bf
       -16.23407 -7.6807203 1.7468879 -1.8801793
000100 9d 73 b9 c1 02 1e 4c 41 05 7e b6 c1 13 64 0c c0
       -23.181452 12.757326 -22.811533 -2.193608
000110 d5 3c 93 bf e7 c2 23 c1 04 0f 04 c1 c6 7b dd 40
       -1.150294 -10.235084 -8.253666 6.921359
000120 00 55 14 c2 08 ca 52 c0 1f 87 10 40 f5 72 c6 41
       -37.083008 -3.293581 2.2582471 24.806131
000130 4f 53 1d c1 fd a6 f4 bf 15 1b d1 40 ea ee cf c0
       -9.832839 -1.9113461 6.534556 -6.4979143
000140 d0 91 6b c1 16 e5 e5 40 d0 48 af 40 4e fa 07 40
       -14.723099 7.1842146 5.4776382 2.1246524
000150 df 06 91 41 08 60 ca c1 d4 c3 44 c1 5e d3 b3 c1
       18.128355 -25.29689 -12.29781 -22.478207
000160 e0 58 8c c0 37 d0 3b c1 e2 5d 88 bd 91 63 5b c1
       -4.385849 -11.738334 -0.06658532 -13.711808
000170 f8 0d e6 c1 d4 37 07 c1 f3 b9 62 c0 a7 55 2e 41
       -28.75682 -8.45113 -3.5425994 10.895911
000180 fb a6 40 41 57 70 ab 3f fb d6 d3 c0 ab 56 aa c1
       12.040767 1.3393658 -6.6199927 -21.292318
000190 56 a0 02 41 d7 cb 14 41 b6 84 f7 3f 8d 02 c0 c0
       8.1641445 9.299766 1.9337375 -6.0003114
0001a0 9e fb b6 c1 26 a3 85 c1 ec 71 de c1 88 2d ef 3e
       -22.87286 -16.704662 -27.805626 0.46714425
0001b0 d3 27 18 41 76 07 8c 41 f3 df c7 40 24 ca b4 3e
       9.509723 17.503643 6.2460876 0.3531047
0001c0 60 58 13 c1 7b f5 97 c0 70 41 92 40 c8 18 5a 40
       -9.209076 -4.748716 4.570488 3.4077625
0001d0 60 b1 8a c0 68 f0 33 c1 5e 5e 25 42 e2 cc 23 c1
       -4.334152 -11.246193 41.342155 -10.23752
0001e0 97 38 70 c0 04 06 52 41 00 34 6e 40 ae 57 38 41
       -3.753454 13.126469 3.7219238 11.521406
0001f0 43 a5 eb 41 c8 86 b0 c1 22 7e 34 40 f7 f1 90 41
       29.455694 -22.065811 2.8201985 18.118147
000200 49 61 68 c1 2f 65 99 40 e4 f6 21 41 3d 8c 7f c1
       -14.523751 4.7936015 10.122776 -15.971738
000210 f1 85 d3 c0 49 88 07 42 74 ef 41 c0 50 9c 56 41
       -6.6101003 33.88309 -3.03024 13.413162
000220 b8 5a 19 bf 59 0f 87 c1 cd 72 03 c1 05 f9 bf c1
       -0.5990405 -16.882494 -8.215528 -23.996592
000230 76 ca ae c1 de e1 3c 40 08 b5 35 c1 70 44 ad c0
       -21.848858 2.9512858 -11.356697 -5.414604
000240 34 a5 d4 bf 88 26 07 c1 71 25 c7 c0 65 27 d5 40
       -1.6612916 -8.446907 -6.2233205 6.661059
000250 86 44 ba c1 ec f3 39 41 0e 6b c9 40 dd f1 f2 40
       -23.283459 11.622051 6.294318 7.5920243
000260 f7 1f 25 c1 03 7d aa c0 6f b1 04 c1 2a a8 46 40
       -10.320304 -5.32776 -8.293319 3.104014
000270 97 1a 8d c1 45 d4 88 c1 91 72 e3 c0 03 de 42 40
       -17.637983 -17.103647 -7.107735 3.0448005
000280 82 0c 48 41 da 6c a2 3f b0 d4 a0 41 1b d5 0f 40
       12.503054 1.2689469 20.103851 2.247382
000290 9a c3 a6 c1 9c 65 e5 40 b4 09 0b c0 b6 9b b0 41
       -20.845509 7.1686535 -2.1724672 22.07603
0002a0 e2 8e 3f c0 26 4f f3 c0 77 a5 b1 c1 45 60 2f c1
       -2.9930959 -7.6034117 -22.205793 -10.961003
0002b0 4c b7 c8 3e 02 fa 24 c2 cb cf 27 41 83 90 d6 c0
       0.39202344 -41.24415 10.488231 -6.7051406
0002c0 36 56 65 41 cf dc 54 41 21 6c 1e c1 16 18 93 c0
       14.333548 13.303908 -9.901399 -4.59669
0002d0 d6 a0 8e 3e e3 a3 0d 40 74 8b 1b 41 06 8b 34 40
       0.27857083 2.2131279 9.721546 2.8209853
0002e0 6f 58 c0 c0 66 fd 51 41 d7 ae 9f c1 db 81 3a c0
       -6.010795 13.124365 -19.960371 -2.9141757
0002f0 0c 42 9b c1 75 e5 d9 40 e6 83 c7 c0 4e 4f e7 3e
       -19.40725 6.80926 -6.234851 0.45177692
000300 ef 97 98 c1 05 ea 53 41 c5 c4 d8 41 b5 14 86 c0
       -19.074186 13.244634 27.096079 -4.1900277
000310 1a 6a 8e 41 5f bf 9d 41 5c a8 74 c0 68 e3 b7 c0
       17.801807 19.718443 -3.8227758 -5.7465096
000320 5e 1a 22 c1 a2 bb 9f c0 1e 97 87 40 88 b6 44 41
       -10.131437 -4.9916544 4.237197 12.294563
000330 cc 31 ed bd 2b d1 b6 c1 16 e9 91 c0 20 3a c6 41
       -0.115817636 -22.852133 -4.559703 24.778381
000340 c7 68 c7 41 20 9a df 3f 20 e9 21 3d ac 20 0e 41
       24.92616 1.746891 0.039528966 8.882977
000350 5a d4 64 41 5d 80 97 41 18 1d a3 c1 c9 b8 41 c1
       14.301844 18.937677 -20.389206 -12.107614
000360 85 e1 83 c0 bf 5c 3c c1 8a ee eb c0 0a 28 65 41
       -4.1212792 -11.772643 -7.3728685 14.322275
000370 c2 81 53 41 48 8e 77 3f f3 b1 f7 3f 77 43 e4 41
       13.219179 0.9670148 1.9351181 28.532942
000380 b8 b8 c1 c0 cc 4c 1a c2 6d 38 46 c1 9c a3 28 c1
       -6.0537987 -38.574997 -12.388776 -10.539944
000390 18 55 21 c1 bf 57 f1 c0 5d c2 53 3f c5 d8 cf 40
       -10.083275 -7.541961 0.8271845 6.495211
0003a0 e2 93 0d c1 85 fb bf 40 cb 0a da 41 c0 f6 a0 c0
       -8.848604 5.999453 27.25527 -5.030121
0003b0 6d c8 a5 c0 da 38 91 41 eb 02 ad c1 33 27 9d c1
       -5.180716 18.15276 -21.626425 -19.64414
0003c0 34 b5 8a c1 18 d2 eb 40 c9 5f 3a c0 b7 10 28 40
       -17.338478 7.369396 -2.9120963 2.6260202
0003d0 d5 e6 f0 c0 33 77 f8 c0 3d 88 f0 40 5f 15 fa 40
       -7.5281777 -7.7645507 7.5166306 7.815109
0003e0 b4 da e8 bf ea af 8c c0 56 58 41 41 bf 9c b9 c0
       -1.8191743 -4.396474 12.084066 -5.800384
0003f0 f0 69 a8 41 60 61 26 41 a5 8d 6d c1 7b 02 53 41
       21.051727 10.398773 -14.847081 13.188106

bias f4 [64]
000000 4e a9 d4 c0 ca 58 d6 41 96 c2 12 42 26 b3 b3 c1
       -6.645667 26.793354 36.690025 -22.462475
000010 1d 6d eb c0 7b a1 fd 40 6a 3e 03 41 64 85 90 c1
       -7.3570695 7.925962 8.202738 -18.065132
000020 4a 04 eb 40 74 89 31 c1 d5 0e 3b 41 83 a6 0a c1
       7.3442736 -11.096058 11.691121 -8.665652
000030 1e 43 c4 41 18 ae 0a 41 29 34 68 c1 68 62 db 40
       24.532772 8.667503 -14.512734 6.8557625
000040 19 e0 83 41 2c 25 9f 41 77 28 38 bf 0c 75 5d c1
       16.484423 19.89315 -0.71936744 -13.841076
000050 8a dd d7 40 52 9e d7 40 95 91 5d c1 f7 85 79 41
       6.7457933 6.738076 -13.8480425 15.595206
000060 5a ae 3f 41 4f 41 87 c1 16 a2 ee bf 74 e1 47 c0
       11.980066 -16.906889 -1.8643215 -3.1231356
000070 b0 ac 3c c1 9c f5 b3 41 9a b3 4a c0 1a c8 3c c1
       -11.79216 22.494926 -3.167212 -11.798853
000080 c0 cf db c0 c2 13 58 40 8a 59 04 41 57 d7 11 41
       -6.86911 3.376206 8.27186 9.115073
000090 9a 9b 36 41 8c a4 c3 40 55 e9 15 41 b7 27 c9 c1
       11.412989 6.1138363 9.369466 -25.144392
0000a0 b7 64 88 3f 5d 89 b1 41 bd e8 ec c0 4e fc 41 41
       1.0655736 22.192072 -7.4034104 12.124098
0000b0 36 b2 1f c1 d0 98 19 be fe 6a 8d c0 75 5a 7c c1
       -9.981009 -0.149997 -4.4193106 -15.772084
0000c0 a6 69 96 c1 f1 56 18 c1 2f bb 5e 41 2a 45 13 c1
       -18.801586 -9.521226 13.920699 -9.204386
0000d0 5f 45 42 41 4e ac 36 c0 d2 77 1c 42 d5 a3 23 41
       12.141936 -2.8542666 39.117012 10.227498
0000e0 45 54 99 c0 79 0c 05 41 53 c1 e2 41 31 58 b2 40
       -4.791537 8.315545 28.344397 5.5732656
0000f0 f0 da 07 c1 71 f6 0c 42 ec 50 3e 40 19 ba 06 c2
       -8.490952 35.240665 2.973689 -33.681736

weight f4 [64, 64]
000000 30 8c fa 40 a5 4b 04 41 51 4d fa 40 ca 56 90 c1
       7.8296127 8.268468 7.821938 -18.042377
000010 c7 b1 60 41 a8 b5 40 c0 a3 2b 34 41 3a 38 19 c1
       14.043403 -3.0110874 11.2606535 -9.576227
000020 3b 54 15 41 8e cd 30 3f 1f c7 9d 40 5c 47 e9 c1
       9.333064 0.6906365 4.930557 -29.159843
000030 c3 2e bc c0 22 3e 6e c0 b3 a0 1d c0 28 59 38 c1
       -5.880708 -3.7225423 -2.4629333 -11.521767
000040 19 51 8b 41 51 dd 5c 3f 18 fd e8 40 d7 fb 1f c1
       17.414598 0.862752 7.280895 -9.998984
000050 23 24 b2 c1 3a f3 a6 c1 d4 50 a4 41 05 a8 ff 3f
       -22.267645 -20.868763 20.539467 1.997315
000060 4b ea d3 c0 84 33 83 41 f4 e8 18 40 33 b7 72 41
       -6.62235 16.400154 2.3892183 15.169726
000070 6f e8 97 c1 35 9a 9a 41 1f 5a 3c 40 0c a5 e3 3e
       -18.988493 19.325296 2.9430006 0.44461858
000080 e1 3a 70 41 59 82 eb 40 4b e2 a3 c1 60 be bb c1
       15.014375 7.3596616 -20.485495 -23.467957
000090 b4 92 8b c0 0c 25 b8 3f 10 47 b4 41 d9 7c db 41
       -4.361658 1.4386306 22.534698 27.43596
0000a0 8c 9e 70 41 16 7d 96 41 ec 8a c7 41 ef 1f 04 41
       15.038708 18.811077 24.942833 8.257796
0000b0 81 04 0b 41 01 f0 a6 c1 d6 d1 c6 c0 2c 64 3d c1
       8.6886 -20.86719 -6.2131147 -11.836956
0000c0 67 af aa 40 06 3c 95 41 e0 18 b7 40 b3 0d eb c0
       5.3339114 18.654308 5.7217865 -7.3454223
0000d0 a6 90 b5 3e ad d9 ee 40 70 6d 34 c1 20 34 e7 40
       0.3546192 7.4640718 -11.276718 7.225113
0000e0 5e 32 0c 3f dc 3b a3 40 99 b8 18 3f 0e e3 96 41
       0.54764354 5.101057 0.59656674 18.860867
0000f0 fd 88 76 c1 08 d7 6f bf ec 87 ac 41 fe 79 bb 41
       -15.408444 -0.93687487 21.566368 23.434566
000100 ef 86 b6 41 ba 69 cd c0 17 12 0a 41 0d 98 0b 41
       22.815886 -6.419156 8.629416 8.724622
000110 6d 3a 7e c1 7f 92 53 c1 5f f9 e5 40 55 80 3a c0
       -15.889264 -13.223266 7.186691 -2.9140828
000120 2d 33 df c0 04 86 80 41 72 13 b9 c1 40 db 8e bf
       -6.974997 16.065437 -23.134495 -1.116066
000130 19 14 25 41 21 18 0c c2 cb ea ac c1 58 69 78 40
       10.317407 -35.023563 -21.614645 3.8814297
000140 ba ac 56 c1 df e5 84 41 6c b7 a5 c0 d8 2a 03 c1
       -13.41717 16.612242 -5.1786404 -8.19796
000150 20 41 a4 c1 f7 43 f7 c0 ed 87 ea 41 70 9e 9e 41
       -20.5318 -7.7270465 29.31637 19.827362
000160 74 f0 06 3f 0d 99 9a 40 0d d5 a1 c0 d7 80 a0 c0
       0.5271065 4.831183 -5.057257 -5.0157275
000170 63 38 1c 41 80 87 24 40 7b 98 54 41 11 73 bf 41
       9.763766 2.5707703 13.287227 23.931185
000180 a0 25 f7 c1 e1 ef 8a c0 0d 66 b3 c1 90 9f 28 c1
       -30.893372 -4.341782 -22.42483 -10.538956
000190 18 2f 4b 3f 91 c8 85 41 23 1e c3 c0 16 e5 b2 41
       0.79368734 16.722933 -6.097429 22.361858
0001a0 e2 e2 3f c1 db c7 a8 c1 a0 32 80 bc 4e 78 a6 c0
       -11.992891 -21.097586 -0.01564914 -5.2021856
0001b0 3a fc 52 41 0d c5 60 c1 78 fd 80 c1 a7 a9 ec c0
       13.186579 -14.048108 -16.123764 -7.3957095
0001c0 64 ff af 41 f6 5a 71 c1 fa 45 99 40 b6 2b df 40
       21.999702 -15.084707 4.789792 6.974086
0001d0 74 ee b7 c1 46 65 2a 41 b6 0e 09 41 f2 92 a3 c1
       -22.991432 10.649725 8.566092 -20.44675
0001e0 3c 39 68 c1 f7 d3 01 40 35 15 30 c1 0b a9 bb c1
       -14.513973 2.0285623 -11.0051775 -23.45754
0001f0 64 4c cf c1 52 85 67 41 93 15 00 c2 1f 3a 13 c1
       -25.9123 14.470049 -32.02107 -9.20169
000200 95 a1 96 40 30 f8 6d 41 ba 9b f8 c0 77 30 f4 41
       4.7072244 14.873093 -7.7690096 30.523664
000210 00 43 46 c1 b2 49 a3 c0 2d 10 3d 41 ba 1b b6 41
       -12.391357 -5.102746 11.816449 22.763538
000220 c8 ab 69 bf 0c 11 ae c1 1f c1 2f c1 92 17 cf bf
       -0.9127774 -21.758324 -10.984649 -1.6179068
000230 c8 d7 b4 c1 66 b7 88 40 2d f7 8c 41 62 f3 26 c1
       -22.605362 4.2723875 17.620691 -10.43442
000240 36 3e d6 c0 dd d6 9e c0 c8 c9 ca c1 8a 64 b4 40
       -6.695094 -4.9637284 -25.348526 5.637273
000250 e9 da 4c 41 e6 9b b0 c0 73 37 a2 c0 07 a2 dc 41
       12.803445 -5.5190306 -5.0692687 27.579115
000260 08 49 65 40 96 fc db c0 a9 83 83 40 5a ba 55 c0
       3.5825825 -6.8745832 4.109822 -3.339499
000270 e9 4f 9b c1 41 b9 a2 c1 d4 fb 8c c1 5c be a0 41
       -19.414019 -20.340456 -17.622963 20.092949
000280 84 a6 45 c0 36 04 85 40 71 fe b2 41 86 47 13 c0
       -3.0882883 4.156764 22.374239 -2.3012404
000290 c5 47 51 c1 97 92 ab 41 03 c1 f7 41 bb 78 dd c1
       -13.080022 21.446577 30.969244 -27.68395
0002a0 ef e9 cf 40 b7 0f 57 41 45 df 45 40 b6 3f 63 41
       6.4973063 13.441337 3.0917523 14.203054
0002b0 a1 30 f9 3e be 2f 76 c1 45 da 16 41 f8 ef 85 40
       0.48669913 -15.386656 9.428288 4.185543
0002c0 20 93 56 c1 c6 68 ab c1 4f df 87 41 ff c5 87 c1
       -13.410919 -21.426159 16.984037 -16.971678
0002d0 d3 60 1a 42 af 9b 19 41 37 2c ea c1 e8 ec 97 c1
       38.594555 9.600509 -29.27159 -18.990677
0002e0 4f eb 36 40 c2 19 f0 c1 44 1c a8 c0 6e ad 4e 41
       2.858112 -30.012577 -5.2534504 12.917341
0002f0 5d c6 a3 c0 ea f6 2c c1 75 90 0f 3f cc 29 3e c0
       -5.1179643 -10.810282 0.560798 -2.971301
000300 64 3b 1b c1 7f 75 0a c1 f8 2d f9 c0 c6 b7 cc c1
       -9.702 -8.653686 -7.7868614 -25.589733
000310 da 09 98 c1 ca 96 2e 40 09 95 10 41 f7 26 42 c0
       -19.00481 2.7279534 9.036386 -3.0336282
000320 9c fd e6 40 5a a1 94 c1 2b b2 36 40 2d 32 1a c1
       7.218458 -18.578785 2.8546245 -9.63725
000330 ce eb f4 c1 b7 3c 6b c1 3b 5f 00 42 f2 3c 4b 41
       -30.615139 -14.702323 32.093 12.702379
000340 21 10 28 41 bb cb af 41 b2 aa d9 41 ac b3 6a c1
       10.503938 21.974478 27.208347 -14.668865
000350 dd 94 ad 41 e4 05 05 c2 2a 31 86 41 5d b7 ac c1
       21.697687 -33.255753 16.774006 -21.589533
000360 b2 54 8e 41 7e ff 18 c1 a1 c9 c0 c0 74 4d 5e c0
       17.791355 -9.562376 -6.024613 -3.4734774
000370 cb b9 4d c0 80 e3 38 c1 b2 af 03 42 9c ce 7c c0
       -3.214465 -11.555542 32.921577 -3.9501104
000380 5c bc a7 c1 56 1b 67 c0 38 37 06 c2 e6 47 98 41
       -20.966972 -3.6110435 -33.553925 19.035107
000390 ec 92 ed bf 02 c3 ff 40 e0 ff 41 41 27 30 85 c1
       -1.8560462 7.9925547 12.1249695 -16.648512
0003a0 71 40 94 41 ea 7d bb be e9 3b 9f bf ca dc 49 41
       18.531466 -0.36619502 -1.2440158 12.616404
0003b0 78 fc 45 c1 ed 91 e2 40 c4 c1 75 41 f8 3e 10 c1
       -12.374138 7.080313 15.359806 -9.015373
0003c0 27 5b a4 40 69 ec 14 c1 5b 35 c6 c1 a4 be 05 c1
       5.136127 -9.307717 -24.776052 -8.359043
0003d0 48 8c de 3f 57 ee 19 c1 8f 71 6f c0 c7 4b b7 40
       1.738656 -9.620688 -3.741306 5.728
0003e0 1b 1b 83 c0 9f d3 1b 41 bc a3 ea c0 fa 78 7b 41
       -4.097059 9.739165 -7.332487 15.717035
0003f0 73 62 09 c1 ca 6c 55 41 a8 97 90 41 ba e8 bd 3f
       -8.586535 13.33906 18.07405 1.4836648

bias f4 [64]
000000 3e 09 3a 41 4a dd 75 c1 5d 16 ea c0 00 9d a0 bd
       11.627256 -15.366526 -7.31523 -0.078424454
000010 af 95 a1 3f 9a aa ae c0 8a 68 30 c1 84 51 59 41
       1.2623805 -5.4583254 -11.025522 13.582401
000020 d9 10 83 c1 fc f0 12 41 d7 db 3a 41 75 33 26 41
       -16.383226 9.183834 11.678672 10.387563
000030 7f 2e 74 c1 4e 32 32 41 af 6c 97 41 ed 1a b2 3e
       -15.261352 11.137281 18.928068 0.34786168
000040 54 81 9f 40 de a0 81 3f 59 3c 96 be 2e e9 86 41
       4.984537 1.0127218 -0.29342917 16.863857
000050 00 82 c0 c1 ca f8 77 c1 f0 3d b7 41 77 24 65 bf
       -24.063477 -15.4982395 22.905243 -0.89508766
000060 73 a5 9a c1 4d 68 93 c1 e9 c7 21 c1 7a b3 8c 41
       -19.330786 -18.425928 -10.111306 17.587635
000070 1a ec 84 c0 08 8b 99 3f f9 f1 51 40 e0 17 25 c1
       -4.153821 1.1995554 3.2803938 -10.318329
000080 89 ab 07 c0 39 2a 0f 41 36 38 fa 40 11 cf bd 41
       -2.1198447 8.947808 7.8193617 23.726107
000090 dc 15 27 40 40 2c 01 c1 ee 2c 20 c1 da d7 cf 40
       2.6107092 -8.073303 -10.010969 6.495099
0000a0 32 b5 1d 41 7e 0e 99 c1 a0 7b 22 c0 cf 8f 23 c0
       9.856737 -19.132076 -2.5387955 -2.5556524
0000b0 d9 a9 08 42 b9 ab 3b 41 a6 f9 6b 41 3e 44 e3 41
       34.165867 11.729424 14.748449 28.408321
0000c0 e5 6c dd c0 0e 0e 75 c1 72 5d a6 40 43 11 22 41
       -6.919543 -15.315931 5.198907 10.129214
0000d0 58 50 61 3e 88 2a 2c 40 f2 76 86 c0 a6 f4 cb c0
       0.22003305 2.690096 -4.2020197 -6.3736143
0000e0 8b b6 31 41 6a f0 d0 c1 6f bf a2 c0 b9 fc 52 c1
       11.107066 -26.11739 -5.0858684 -13.1867
0000f0 7a 8b 79 c0 96 86 55 c1 d9 a7 a4 41 14 de c7 c0
       -3.899138 -13.345358 20.581957 -6.245859

weight f4 [3, 64]
000000 bf 00 3d 41 b6 34 a8 40 79 6f 75 41 79 8c 62 3f
       11.812682 5.2564344 15.339715 0.88495594
000010 b9 3e 2c 41 60 e4 9b 40 7a ee 38 41 06 8c 9c c1
       10.765313 4.871628 11.558222 -19.56837
000020 65 7a 99 c1 4c d3 19 c1 09 41 e4 40 d0 29 0d 42
       -19.184763 -9.614086 7.132939 35.290833
000030 86 1e a9 c0 41 7c 8c c0 7b 82 34 c1 82 7c 86 bf
       -5.284976 -4.3901677 -11.281856 -1.0506747
000040 54 74 db c0 66 da a9 41 38 46 d8 40 86 75 9d 40
       -6.85795 21.23164 6.7585716 4.920596
000050 8c 8f 69 41 44 be 8c c1 36 76 97 c0 92 a5 38 c0
       14.597546 -17.592903 -4.73318 -2.8851056
000060 6a 0c db c0 71 81 90 c0 64 09 a4 c0 50 d3 fe 41
       -6.8452654 -4.515801 -5.1261463 31.85318
000070 a2 ee 4a 40 20 19 db 3f ca 8b d1 c0 a0 bd 5c 41
       3.170815 1.7117043 -6.548314 13.796295
000080 33 5d 4c 41 c4 0d 00 c1 80 b8 2f c0 df 77 d8 c0
       12.772754 -8.003361 -2.745636 -6.7646327
000090 30 dd 10 40 4c c7 d5 c1 49 a5 d9 40 02 e1 e2 c0
       2.2635002 -26.722313 6.8014264 -7.089967
0000a0 12 b1 14 41 1e a7 c3 c0 87 90 32 41 64 ad 4e 41
       9.29323 -6.11415 11.160285 12.917332
0000b0 02 99 ab bf 05 b4 a2 c1 d9 22 8a c1 a9 36 7d c1
       -1.3406069 -20.3379 -17.267015 -15.825845
0000c0 c4 b9 7e bf e1 38 95 c1 d3 b3 da 40 d3 90 81 41
       -0.99502206 -18.652773 6.834451 16.195715
0000d0 7d d6 4b 41 e9 f2 05 c2 ef 8d 7d 41 84 71 2e 41
       12.739865 -33.487217 15.847152 10.902714
0000e0 2d 2c 4d 41 51 19 a5 c1 56 cd 93 41 cd 7f db 40
       12.823285 -20.637362 18.475262 6.8593507
0000f0 db e3 e1 40 ba 20 91 40 1a e9 43 c0 35 ee 22 41
       7.0590644 4.535245 -3.0611024 10.183156
000100 e6 74 07 40 e8 98 5e c1 42 18 65 41 df 2d 69 c0
       2.11651 -13.912331 14.318422 -3.6434247
000110 a6 ae 45 41 fa 79 28 40 5c 23 ad c0 b0 bd 19 be
       12.355139 2.6324449 -5.4105663 -0.15013766
000120 b4 49 0b 41 92 8a c3 3f 98 fd 6d c0 a4 b7 87 c0
       8.705494 1.5276663 -3.7186031 -4.241167
000130 08 67 fa 3f b8 6b ce 40 43 55 53 c1 ce 87 2d c0
       1.9562693 6.4506493 -13.208316 -2.7114139
000140 b8 0b 5d 41 7a f9 af 40 c2 c7 0c c0 ab 81 d4 c1
       13.815361 5.4992037 -2.1996922 -26.563314
000150 8b 8b 33 c1 76 f7 af 41 96 34 38 3e 4c 68 b7 c0
       -11.221568 21.99583 0.1798881 -5.7314816
000160 6a 6e 4c c0 4d e1 e6 40 b4 fe 9d c1 52 fa 3f 40
       -3.1942391 7.2150025 -19.749367 2.9996533
000170 01 80 f6 40 e4 03 b0 c1 cb ca b0 41 5d 0f 05 40
       7.7031255 -22.0019 22.09902 2.0790627
000180 3a d1 dc c0 4f c2 e3 c1 0c dc 3b c0 2c 9e 73 c0
       -6.9005404 -28.469877 -2.9353056 -3.806529
000190 26 29 94 c1 3c dd dd 40 2d c2 c9 41 4b a2 73 c1
       -18.520092 6.933256 25.219812 -15.227122
0001a0 ce 10 0e 3f ad 6e a8 40 be a9 a7 c0 36 28 cb 40
       0.5549439 5.26351 -5.2394705 6.3486586
0001b0 e2 53 9d c1 6b 52 a7 41 b6 05 df be cb 8e 0f c2
       -19.665958 20.915243 -0.43559045 -35.889446
0001c0 3a ee 8d 41 52 82 8f 41 50 92 df c0 c8 08 0a c1
       17.741322 17.938633 -6.9866104 -8.627144
0001d0 b0 7a 0c 41 f6 a2 51 40 fa 4d 2d 41 81 1a 16 c1
       8.779953 3.2755713 10.831537 -9.381471
0001e0 5e 05 54 41 21 4d 11 c2 25 a1 0d c1 e5 24 5c c1
       13.25131 -36.32532 -8.851842 -13.759007
0001f0 e8 c4 60 40 71 3f f8 40 19 ed cd c0 2c d2 0c c0
       3.5120182 7.7577443 -6.4351926 -2.2003279
000200 c7 67 d7 c0 51 64 2f 41 9e 1d 00 42 9e 78 02 c2
       -6.731418 10.961991 32.028923 -32.61779
000210 82 0a 47 c0 17 1f 42 41 fd d0 59 41 7c 26 5b 41
       -3.1100163 12.13259 13.613523 13.696896
000220 d4 cb 18 c1 a5 71 eb c1 1c 0e f6 40 bb bd a1 40
       -9.549763 -29.43049 7.6892223 5.0544105
000230 77 6a 06 41 e6 95 14 c1 36 98 ac be a1 15 8d c1
       8.400992 -9.286596 -0.33709878 -17.635561
000240 97 72 14 c1 46 fb 99 c1 f0 98 78 40 24 47 13 41
       -9.277976 -19.247692 3.8843346 9.204868
000250 0b c0 01 c2 c7 4f 85 41 75 98 61 41 69 45 42 41
       -32.437542 16.663954 14.099721 12.141946
000260 1a 3a 7e 40 b6 1a 9e 40 20 f8 ed 3e 64 b9 a9 40
       3.9722962 4.9407606 0.46478367 5.3038807
000270 26 ae 80 3f e8 17 f2 3e ed e7 8c c0 ab a1 a3 41
       1.0053146 0.47283864 -4.4033113 20.45394
000280 2e 15 37 40 42 77 57 40 fa e6 38 c1 ed c1 8e c1
       2.8606677 3.366654 -11.556391 -17.84469
000290 0d 8f a0 c0 0e f3 8b 41 63 c7 05 41 d9 18 c9 40
       -5.0174623 17.49368 8.361178 6.284283
0002a0 b4 71 8a c0 84 34 51 3f c6 27 bd c1 71 50 05 c1
       -4.32638 0.8172076 -23.64442 -8.332139
0002b0 2c 11 8f c0 a5 bc 94 41 7c 2b f9 40 5a a7 7e c1
       -4.470846 18.592112 7.786558 -15.915857
0002c0 93 22 1a 41 93 91 fa c0 53 54 0c c1 cc ad e6 c1
       9.633441 -7.8302703 -8.770587 -28.834862
0002d0 ca 03 9d bf e1 d6 53 40 73 89 8a 40 aa 80 1a c1
       -1.2266781 3.3099902 4.3292785 -9.656412
0002e0 27 9a 83 c1 69 83 d3 3f 2a 73 a6 c1 73 1c bf c1
       -16.45027 1.6524478 -20.806232 -23.888891
0002f0 8c 44 c1 c1 cb dd 0e c2 b5 52 48 41 a7 da bd 41
       -24.15847 -35.716595 12.520192 23.731764

bias f4 [3]
000000 66 20 c8 c0 8e aa 1f 41 9e b7 f8 c1
       -6.253955 9.979139 -31.089657
